GameAIFinalProject/model/model_mymodel101.pth (torch_old, 126465 bytes, 8 tensors)

conv1.weight f4 [10, 3, 5, 5]
00000000: 6234 a0bd 17d8 993d 185c 86bd b5aa 04bd
00000010: 8034 d33d ceac 893d 0fd1 f23d 03c9 063d
00000020: 4c45 9fbd 7f81 5bbd 6c8f a3bd 4eb5 c03d
00000030: 7f5e 14bd 8694 e83d 5428 af3d fa8e 7a3d
00000040: 8a06 b63d 97a5 84bd f980 443d 5639 173d
00000050: 2495 a8bd fed3 cf3d 0427 3bbd 2288 d1bd
00000060: 88fe 6cbd ecfe aebd 1090 ddbd 4ede b83d
00000070: cf0e 8bbc 38b3 61bb db95 6ebd d541 a73d
00000080: cb9e 943d 0ef3 a0bd 139b 9d3d 833b be3c
00000090: ba2e 4d3c 11ee f4bc edc9 d9bd b366 41bc
000000a0: a972 69bc 4293 9e3b f0da 01bd ccab a43c
000000b0: b733 4cbd ce69 203b 3694 7bbd d8e6 803d
000000c0: 74b8 d5bc 30f2 2d3c 2778 f1b9 b459 933d
000000d0: 1a17 e039 f298 a2bc 9ede 953d 879b 8d3b
000000e0: b47e b4bd 5d3a 923d 58ce 163d 0e2d 9cbc
000000f0: 5988 32bd 5f02 553d dc2a 9f3c 328b b63d
00000100: 4b36 a93d 1a9c b43d 908e 59bc bfd8 07bc
00000110: 6184 b2bd 06de 283d ca2c c9bd ec03 7dbc
00000120: 0719 2abd 795a 9f3c 8d16 76bd 07a8 023c
00000130: aa3d 183d 743b 71bd 75fc bd3d 7c19 ca3d
00000140: 6607 f3bc 15f9 ddbd db01 89bd b9cd bc3d
00000150: fb5e 9cbd 3c65 83bd e90f 9c3d ef5b 48bd
00000160: fadf bc3c 3cb8 95bd c193 e7bd a961 bc3d
00000170: 1bfc 01bc a5cd 943d 3970 223d ddba 23bd
00000180: 127f 43bd f111 74bd 4689 fb3c 99dd 813c
00000190: 3e90 f3bc fbfe 9b3d 94f5 983c f7f0 c43d
000001a0: f817 86bd 439a a1bc 8d81 d5bd 5da4 913c
000001b0: bfc1 db3c 844a 78bd c2ea 093c 5ae2 873d
000001c0: 0daf ebbc 6536 e63d 314d 6bbd ee8c 40bc
000001d0: 3bf4 5abd c58b e13d c8f2 da3d bbaf 893d
000001e0: d462 423d 9250 d0bd 3bed d83b 963b 543d
000001f0: 87da 6c3c 3746 603d 7740 5b3c 33b0 d7bd
00000200: c6de a1bb 560b 3ebd 70f5 403d 4718 88bc
00000210: ef11 e8bd 6b4b be3d 2104 2f3d 2d2d cbbd
00000220: 2403 d83c 8e55 333d dd19 d0bd 7098 c73d
00000230: 6dad 83bd aec1 a2bc 6e29 c73d 8145 8ebd
00000240: 5335 c0bd f6a4 bc3d d72a 68bc 097f b63d
00000250: 0150 97bd 7221 66bd 3e86 1cbd 1b80 a5bd
00000260: f9b7 08bd 4c24 7f3c c1fc 95bc 0b0d c7bb
00000270: c14f 533d 74d2 793d 7010 d93d b1bd 503d
00000280: 32c4 9cbd 28d8 9d3d eca7 94bd 5c3d b43c
00000290: fc12 8b3d dc53 b83d 796e d5bd 4969 97bd
000002a0: 54c1 773d 7080 363c da93 ccbd 8cba d83b
000002b0: 59c7 bebd 9916 30bd fb61 e3bd 31bb 8abd
000002c0: 7e7a 68bd 3ec2 b2bd 2608 dd3d a7d2 b93d
000002d0: cbe9 a33c e1b2 a7bc e230 0b3c 8675 c13c
000002e0: bef3 86bd e857 68bd d10f 7ebc e7d6 993d
000002f0: 29ca 69bd 8de8 8cbd 0bbb 04bd 89a5 e7bd
00000300: aa55 3ebb 49b2 af3d 5d15 07bd b213 1abd
00000310: 2692 8fbd 5ce9 3f3c d65f f8bc cb12 543c
00000320: 0a17 62bd 00b0 8b3d 58a3 babd c705 40bd
00000330: e8a5 c3bd 140c a5bc eab4 bfbd a03a f43c
00000340: aebf 9a3c fc14 a5bc da99 e4bc 1e0f 093d
00000350: ecfa 323d 3827 a9bb ba6a a1bd 7a76 ccbd
00000360: 41f0 e7bd 01d1 043d 2f78 813b e265 9d3d
00000370: 8206 9e3d f13a b3bd 1738 433c b47f 403d
00000380: 2899 69bd 314c 96bd ff38 783c 3407 553c
00000390: e6c8 e2bd b212 e6bd 4f0c a73c f32b 303d
000003a0: ce48 be3d 44ce 343d 1da7 a8bd 0a51 36bd
000003b0: 92b1 00bd 1f34 a7bd 6aa3 fc3b e96f 343c
000003c0: 71e7 e8bd e608 ba3d 2180 ffbb 4358 b53d
000003d0: 1560 453c a199 9bbd 83c4 c43d d8b9 8e3d
000003e0: bba2 743d 553c 79bd 964d 6dbd 4d7d 943d
000003f0: 6998 213d 296b c4bc ee7f c13b ac13 b83d
-0.07822491 0.07511919 -0.06560534 -0.03238936 0.10312748 0.06722413 0.11856281 0.032906543
-0.07776889 -0.053590294 -0.0798634 0.09409581 -0.03622293 0.113564536 0.08552614 0.06117151
0.08887966 -0.06476896 0.04797456 0.036919914 -0.08231571 0.10147856 -0.045691505 -0.102310434
-0.057859927 -0.08544716 -0.10818493 0.09026776 -0.016974835 -0.0034439098 -0.058248382 0.08166853
0.0725685 -0.07858859 0.07695594 0.023221737 0.0125233475 -0.029898675 -0.106342174 -0.011804271
-0.0142485285 0.004839332 -0.031702936 0.02010145 -0.049854007 0.0024477127 -0.06142064 0.0629403
-0.02608893 0.010616824 -0.00046056623 0.07194844 0.0004274182 -0.01984832 0.073178515 0.004321519
-0.08813229 0.07140038 0.03681788 -0.019064452 -0.043587063 0.052004214 0.019429617 0.08913268
0.08262309 0.088188365 -0.013278618 -0.008291422 -0.087166555 0.041227363 -0.09822996 -0.01544283
-0.041527774 0.01945232 -0.0600801 0.007974631 0.037168182 -0.05889459 0.09276668 0.09868142
-0.029666614 -0.10838524 -0.06689807 0.09218926 -0.076353036 -0.06415793 0.07620222 -0.0489158
0.02305602 -0.073105305 -0.11307479 0.09198315 -0.007933642 0.07265786 0.039657805 -0.03997313
-0.047728606 -0.059587423 0.030705106 0.015852736 -0.029731866 0.07616993 0.018671788 0.09616273
-0.065475404 -0.019726878 -0.104251005 0.01777857 0.026825784 -0.06061794 0.008417787 0.0663497
-0.028769994 0.11240844 -0.057446662 -0.01175235 -0.053455573 0.11012987 0.10690838 0.06722971
0.04745753 -0.101716176 0.006620077 0.051814638 0.014456398 0.054754462 0.013382069 -0.10531654
-0.0049398867 -0.04639753 0.047109067 -0.016613139 -0.113315456 0.092917286 0.042728547 -0.09920726
0.026368685 0.043782763 -0.10161183 0.09745872 -0.06429563 -0.019867744 0.09724699 -0.069468506
-0.09385171 0.09211151 -0.01417037 0.08910949 -0.073883064 -0.05618424 -0.03821396 -0.08081075
-0.033378575 0.015572619 -0.018308999 -0.006074553 0.05158973 0.06099172 0.10598838 0.050962154
-0.07654609 0.07707244 -0.07258591 0.022001915 0.0679073 0.0900037 -0.104214616 -0.073931284
0.060487106 0.01113902 -0.09989138 0.006614035 -0.09315366 -0.0429903 -0.11102673 -0.06773985
-0.056757443 -0.08728455 0.1079257 0.09073382 0.020008942 -0.020471038 0.008495541 0.02361561
-0.06589459 -0.05672446 -0.015506701 0.075116925 -0.05707756 -0.06880293 -0.03240494 -0.1131087
-0.002904276 0.08578927 -0.032979358 -0.03761644 -0.070102975 0.011713352 -0.030319136 0.012943934
-0.055197753 0.06820679 -0.091131866 -0.04688051 -0.095531285 -0.02014736 -0.093606785 0.02981311
0.018890228 -0.020151608 -0.027905393 0.033461682 0.04369633 -0.005162146 -0.078816846 -0.09983535
-0.11325122 0.032425884 0.0039510946 0.07685448 0.07716085 -0.087514766 0.011915228 0.046996787
-0.057030827 -0.07338751 0.015150308 0.013002206 -0.110734746 -0.112340346 0.020391611 0.043010663
0.0929123 0.044142023 -0.08234999 -0.04451088 -0.031419344 -0.08164238 0.00770991 0.01101301
-0.11372269 0.090837285 -0.0077972566 0.08854725 0.0120468335 -0.07597662 0.09607794 0.06969041
0.059725504 -0.060848553 -0.05793532 0.07250462 0.03945199 -0.02397688 0.005905143 0.08988127

conv1.bias f4 [10]
00000000: 71a0 0fbc d6d7 a0bd 4440 d83d 4127 b73c
00000010: 0c6e 643d 49f0 5e3c 7aac 8b3d db60 de3a
00000020: 6567 6dbd d96a bcbc
-0.00876628 -0.078536674 0.10559133 0.022357585 0.05576901 0.013607093 0.06820007 0.0016966121
-0.057959933 -0.023000168

conv2.weight f4 [20, 10, 5, 5]
00000000: e209 453d 5d28 bebc 1a58 dcbc de7e 0abd
00000010: 2733 653d 9058 e33c 9065 59bd 0648 103d
00000020: f1e7 113d 3280 81bc e1af 5ebd c8b7 533c
00000030: 7b6f b03c 7ebf 493c 9caf 2abd a45d c1bc
00000040: a51c 8db8 9497 80bc 170b f0bc 9a25 1f3d
00000050: 748f 003d e327 cb3c 8cc4 3c3d ffdd 86bc
00000060: 2432 3fbd 6312 173d 8fde 28bc 164f 3cbd
00000070: d580 adbb d172 6ebd 4fe5 37bd 8a83 783d
00000080: a3c7 67bd 1515 5abc 8d94 8f3c 4bef bfbb
00000090: 17ac 133a 7095 35bc d0ea 773d 0c89 14bd
000000a0: 84f0 663d 5f57 903c 40e4 783d 2310 d1bc
000000b0: b499 44bc 98be 643d baba 5939 7cf6 fcbc
000000c0: b099 51bc 05ed 06bc 9e1c 1dbd 9d33 d7bb
000000d0: 7c6b f03c 1189 1cbd 3b68 52bd f7cd 60bd
000000e0: ce16 08bd f5b8 26bd 9c9d 01bd e647 8d3c
000000f0: 11ed 633d bcc1 0abd 170f 6bbd a980 d73c
00000100: 694c 713d 3485 2abd 4920 393a 75d9 473b
00000110: 510a 643d a465 2a3d 5414 b53b b348 e1bc
00000120: 250c 393d babf c2ba db37 313d 0801 353b
00000130: 3154 49bd 4f71 e8bb 0465 6e3d 415d 0dbd
00000140: 086d a6bc 729b 6bbd cc98 9e3c 4865 213d
00000150: 7d53 7fbd 065e 1cbd 6539 3bbd ba91 963c
00000160: 372c 40bd 7dfe 613d 4a6c 663d 59a6 0d3d
00000170: 547f 48bd 4561 633d ffcb 91bc b900 5fba
00000180: 31e6 2cbd 2e7e 70bd fb24 3f3d 197f 213d
00000190: a64a ddbc 1479 c03c 4996 ce3c 4f90 0bbd
000001a0: 3fec 22bd d1a8 67bd 6f12 f6bc 3681 1cbd
000001b0: c4cf f93c fe60 c7bc 94a9 d2ba 800b 5b3d
000001c0: 405e ef3b 44fa e238 ada7 103d 221d 69bd
000001d0: 0852 013d b332 1b3b d1f5 6a3c 91eb e13c
000001e0: 14dd 17bd 1993 983b 3dab 6a3d da34 cc3c
000001f0: ac8e 1ebc 1ea7 ed3c ce05 a13c 5550 51bd
00000200: 6397 053d feba 17bd b753 69bd 5390 de3a
00000210: d42e 05bd 32ef 093d 60a0 753d 6dc0 b0bc
00000220: a406 e23a ac37 343d 571f 1e3d 902d 20bd
00000230: a76d 833b 675a c7bc bf24 5cbc 7259 73bd
00000240: ed37 d63c e306 7e3c 3d93 8abb 3562 bebc
00000250: 8419 1bbd 161b 46bd c51b 13bd bc6d f7bc
00000260: a731 61bc a23c a93b 637c e43c 24c2 dd3b
00000270: dc97 2d3a 3a3f 50bc d977 eebc 4fe5 5e3d
00000280: a75f 2ebc 4dbc ad3b 4d54 2a3d a6a4 db3c
00000290: c96c 23bd e16b cdbc d8b2 3fbd 5f94 ef3b
000002a0: 707f 6bbd 1409 1b3d 2bec 90bb 677d 6abc
000002b0: 78da 3ebd 664c 8cbc 459d 41bd 3b59 973b
000002c0: 0897 183d e18b 493b 588d 313d 9a01 2cbd
000002d0: e04f 873c 3eb4 8bbc b914 3d3d 3085 6d3d
000002e0: 495e 2f3b c019 1dbd 631e 47bc 7cc3 7fbd
000002f0: 62c7 8a3c 6dc9 2cbd 2ea9 923c b4ee cf3c
00000300: 6a0c 373b 62aa d4bc 873f 8abb f729 57bd
00000310: 99b0 e43b 1fcb dcbc 4d91 8bbc 86c2 77bc
00000320: 918a 773d 8f20 aabc de33 42bd 4287 41bd
00000330: 04c9 573d 68a9 2cbc 1fa1 14bd 99ac 6b3d
00000340: b83e 45bd d53f 1bbc d8d2 46bb 6663 1f3d
00000350: ef15 613d ee80 98bc afa9 18bd 66c9 ae3c
00000360: 2403 25bd f18a d1ba ae26 6b3c 5723 07bd
00000370: a29a 163b 24bb 1b3c 94d4 79bd 7f7a 69bd
00000380: e7a0 e4bb ba6a ed3c da02 7cbd 9269 353c
00000390: afb8 a1bc e5bf c9bb 41d3 e0bc eae5 8ebc
000003a0: f62b f2ba 933c e33c 8f9e 7cbd cbb6 04bd
000003b0: f252 7bbd 4e9f 273c 3327 273d 6f2c 623d
000003c0: 1343 253d 0a0a 783d 5085 cfbb 3cca 7cbd
000003d0: b571 a8bc f966 143a 0726 babc 0104 89bc
000003e0: 39a6 0d3c aad8 2a3d 5a40 2bbb 7a4f afbc
000003f0: 7e44 f1b9 a287 5b3d 9a12 af3c 3267 86bc
0.048105128 -0.023212606 -0.026897479 -0.033812396 0.055956986 0.02775219 -0.053075373 0.035224937
0.035621587 -0.015808199 -0.05436695 0.012922235 0.021537533 0.012313722 -0.04167138 -0.023604222
-6.7287394e-05 -0.015697278 -0.029302163 0.03885422 0.031386808 0.024799293 0.04608588 -0.016463278
-0.046678677 0.03688277 -0.010306968 -0.04597386 -0.005294899 -0.058214966 -0.04489642 0.06067232
-0.056586873 -0.01331069 0.01752689 -0.0058573834 0.00056332484 -0.011082992 0.06052667 -0.03626351
0.056381717 0.017619787 0.06076455 -0.02552039 -0.011999536 0.055845827 0.00020764294 -0.030879252
-0.01279299 -0.008235221 -0.03835737 -0.006567432 0.029348128 -0.038216654 -0.051368933 -0.054883923
-0.033224873 -0.040703733 -0.03164445 0.017246198 0.055646006 -0.033876166 -0.057387438 0.026306467
0.05891076 -0.04163094 0.0007062001 0.0030494605 0.0556739 0.04160084 0.005526105 -0.027500486
0.045177598 -0.0014858164 0.04326616 0.0027619023 -0.049152557 -0.0070935856 0.058201805 -0.034512762
-0.020315662 -0.05752129 0.019359969 0.03940323 -0.06233548 -0.038175605 -0.045709033 0.018380035
-0.046917167 0.05517434 0.056255616 0.03458247 -0.048949555 0.055512685 -0.017797468 -0.00085068826
-0.042211715 -0.058714084 0.046666127 0.03942785 -0.027013134 0.023495235 0.025218146 -0.03407317
-0.039776083 -0.05655748 -0.030038087 -0.038209163 0.030494578 -0.024338242 -0.0016072267 0.053477764
0.0073049366 0.000108231354 0.035316158 -0.05691255 0.03157237 0.0023681342 0.014340834 0.027578147
-0.03707607 0.0046562073 0.05729221 0.024927545 -0.00967757 0.029010352 0.019656088 -0.051102
0.032615077 -0.037043564 -0.056964602 0.0016980268 -0.032515362 0.03367538 0.0599674 -0.02157613
0.0017244411 0.043998405 0.038604107 -0.03910595 0.0040108743 -0.0243351 -0.013436495 -0.059411474
0.026149714 0.015504572 -0.004228978 -0.023240188 -0.03786613 -0.048365675 -0.035915155 -0.030203693
-0.013744748 0.0051646987 0.027891343 0.006767528 0.0006622055 -0.012710387 -0.029109882 0.054417904
-0.0106429225 0.005301988 0.0415843 0.026811909 -0.039898667 -0.025075855 -0.046801418 0.0073113884
-0.05749458 0.037850454 -0.0044226847 -0.014312125 -0.046595067 -0.017126273 -0.047269125 0.0046187914
0.03725341 0.003075354 0.043347687 -0.041993715 0.01651758 -0.01705372 0.04616234 0.057988346
0.002675908 -0.038354635 -0.012153241 -0.062442288 0.016940776 -0.042184282 0.017902937 0.025382377
0.0027930983 -0.025960151 -0.004218999 -0.052530255 0.00697906 -0.026952324 -0.017037058 -0.015122062
0.06043488 -0.020767478 -0.047412746 -0.047248133 0.052681938 -0.0105384365 -0.03628647 0.05753765
-0.048155516 -0.009475668 -0.0030338075 0.038913153 0.054952558 -0.018616166 -0.037271198 0.021336269
-0.0402862 -0.0015986842 0.014352484 -0.032992687 0.0022980352 0.009505067 -0.060993746 -0.057001587
-0.006977189 0.028981555 -0.061526157 0.011072533 -0.019741384 -0.006156909 -0.027444484 -0.017443616
-0.0018476236 0.027738845 -0.06167465 -0.032400887 -0.0613584 0.010230852 0.040808868 0.055218156
0.04034717 0.06055645 -0.0063330308 -0.061716303 -0.020562032 0.0005661096 -0.022723211 -0.016725542
0.008645588 0.041710533 -0.0026130886 -0.021400202 -0.00046018133 0.053596146 0.021371175 -0.01640663

conv2.bias f4 [20]
00000000: e595 f53b 865f 3bbd c525 6fbd 01af ac3c
00000010: fc5b b33c d3d2 b03c d795 c13c 7bef 793d
00000020: a0b8 2fbd 6c46 60bd 070f e3bc 0b0c 0b3c
00000030: 3d23 20bd a29f b83c 8edd 593d 4faf aebc
00000040: 9937 0fbc 784f 4cbd fa3e 983c 395c 753c
0.0074946755 -0.045745395 -0.05838563 0.021079542 0.021894448 0.021584904 0.02363102 0.061019402
-0.04290068 -0.05475466 -0.027717127 0.008486758 -0.039096106 0.022537056 0.053189807 -0.021323828
-0.008741283 -0.049880475 0.018584717 0.014975601

fc1.weight f4 [50, 500]
00000000: 0a1c dabc 350d 02bb f6e4 623c e153 afbc
00000010: a78c 293d b06a d9bb e930 10bd 5ef0 e03c
00000020: 2089 083c 7d9f 66bc 942e dfbc ca8b fa3c
00000030: d373 943c 2a80 afbb 2643 f43c c9c2 203d
00000040: dee8 ab3c 4e6a f8bc 1f39 983c 1736 35bd
00000050: cde0 d8bb 681b e5bb 7f03 903c df77 35bd
00000060: 4fa9 4dba 7d7b f43b 20af 303d 38f9 b2bb
00000070: 2409 283d 7b76 123d 4dc1 2e3d dbb6 203d
00000080: b500 23bd 4a3a 26bd e02d 85bb 9f15 203d
00000090: 427d 05bd 2298 ad3c 2efc e03c cc0f 0cbc
000000a0: fed5 c93c a183 243d e652 19bd 3905 e2bc
000000b0: 6207 cc3c ec22 fb3c 98d5 c6bb 6329 0f3d
000000c0: 36f4 0fbd b098 5fbb 7b5f dfbb b101 d1bc
000000d0: 7c6c 5f3c 8f74 d8bc 5697 1c3d ae7c 9bbc
000000e0: 276a 2bbc fbd6 b8bc a2ad 2a3d 1110 b83c
000000f0: a455 2ebc 442a 2abd 894f 063d 9a3f 253d
00000100: 0d36 0c3d dc24 03bd 2a09 e73c e5ce 89bc
00000110: 528a b13b ab84 85bc c623 04bc 1665 983c
00000120: aa2a c5bc 8a3c 8d3c f86c 14bd 710c 0c3d
00000130: 49b0 c13c 6857 d63c f9e8 f83c 91bc 43bc
00000140: e2cf d1bc d4a0 1bbd 45f6 d0bc 29ff b3bc
00000150: 460f 9abc 88be 123d 54c4 f7bc f409 a23b
00000160: 76fb f23c f6a0 9bbc 57fe 91bc d049 713c
00000170: 4301 a13c 7866 20bc cadd 03bd b4a5 2e3d
00000180: 9647 b03c 7016 063d 0807 283d 3f1f d63c
00000190: 6129 d13c 7187 f23a 49a1 223d 03e2 833c
000001a0: 51f4 813c f972 c4bc 905e 9abc bdbe 293d
000001b0: 4d5b 15bd 33be 263d 7498 1abd 5aa1 c4bb
000001c0: 3c2c 66bb 69c8 be3c 1b83 4b3c 814f 26bd
000001d0: 1ea0 6c3c eb70 c53a 2324 173d b20d 1d3d
000001e0: b2ef d5bb bd08 8cbb b8fc 80bb 05df ab3c
000001f0: 54f6 0cbd 2c5d bebc fc34 e8bc faa6 fcbc
00000200: 67a4 cdbc 3ba3 adbb 5113 24bd f5c3 2d3d
00000210: f20d 38bb 2907 96bc 0aea b53c 605a d1bc
00000220: 46db afbc 30e7 babc 7731 06bd 3011 083c
00000230: 2f81 2b3d add5 e93c 55e0 ac3c 0a0c 6c3c
00000240: fd1a 2f3d 4778 17bd e27f 0a3c dde3 ef3c
00000250: 44c3 4d3c 21a9 dc3c a849 933c b8db 173d
00000260: c8f5 da3c bf1c 78bc 1c72 873c 6daf c53c
00000270: 9052 243d 278d cebc 72d9 74bc 00cb 86bb
00000280: 5fd6 b23c 9dfe 2abd 86ca 8fbc ebc6 d9bc
00000290: 881b 20bd 7880 10bd 49cc 343c 5498 03bd
000002a0: 422e 933c 28cb 25bd a913 22bd 677b 8c3c
000002b0: 6264 d03c 194e c73c 2698 013a b9af 273d
000002c0: 8006 103c e400 debb bc62 b8bc b14c 19bd
000002d0: 78e1 ab3c 3340 053d f096 853c 4767 073d
000002e0: a5d7 063d f30d ddbb 6e19 18bd a207 a93c
000002f0: d2f8 d3bc faaf 283c 0be9 2f3d 2238 7c39
00000300: aa4c 043c 8fb8 4e3a cb3c 1cbd 6b47 893b
00000310: 6f68 063d a99b c5bb 7c23 2ebd 181c 08bd
00000320: b225 17bc 41c5 803c af45 d23c 3ce3 b3bc
00000330: 9e33 0b3d ebfd d13c ded6 40bc 73ef 2e3d
00000340: 5f93 0dbd 418e afbc 7277 f1ba e2a1 32bd
00000350: 563f ec3c 733a e93c 39e8 193b 6447 ec3b
00000360: 9ba2 153c bf8e 203d d2df 293d 1050 e03c
00000370: e8c3 2cbd f41c b43c 8c9e 6d3b 11d9 143d
00000380: 7804 ddbc 8f15 863c 35e7 1dbd 8f0b 2f3c
00000390: 3302 33bd 63a6 b2bc 7a00 ef3b 37d7 1c3c
000003a0: c69e 96bc be58 443c 8116 73bc 9bc3 813c
000003b0: e864 24bc 52a7 9e3c b34f 21bb d758 873c
000003c0: 427e 833b 1c42 ecbc 0ca0 86bc b2ff af3c
000003d0: d646 f4ba d17e bc39 acc6 b5bb 189f 1f3c
000003e0: ae7b 8bbc 6d3f 9939 3fbd f3bc 4d14 0dbd
000003f0: 7d20 133b 1fd5 013d b770 02bd 78ba 063d
-0.026624698 -0.0019844298 0.013848534 -0.021402301 0.041393902 -0.0066350326 -0.035202894 0.027458366
0.008333474 -0.014076111 -0.02724389 0.030584235 0.018121636 -0.0053558545 0.029817175 0.03924826
0.020985063 -0.030324128 0.018581925 -0.044241037 -0.006618595 -0.0069917925 0.017579792 -0.04430377
-0.00078453583 0.00746101 0.043135762 -0.005461838 0.041024342 0.035757523 0.042664815 0.039236885
-0.039795596 -0.040582933 -0.0040643066 0.03908312 -0.03259016 0.021190707 0.027463999 -0.008548688
0.024638172 0.040164594 -0.037432574 -0.027590381 0.024905864 0.0306563 -0.006067943 0.03495158
-0.035145007 -0.0034118108 -0.006816802 -0.025513502 0.0136367045 -0.026422767 0.038230263 -0.01898035
-0.01046232 -0.022563448 0.041669495 0.022468599 -0.0106405355 -0.041544214 0.032790694 0.04034386
0.034231234 -0.032017574 0.028202612 -0.016822288 0.0054181004 -0.016298613 -0.00806517 0.018602889
-0.024068195 0.017240781 -0.036236733 0.034191553 0.02364363 0.026164725 0.030384528 -0.011946813
-0.025611822 -0.037995175 -0.025508055 -0.021972256 -0.018806111 0.035826236 -0.030244984 0.004945034
0.029660922 -0.01899765 -0.017821474 0.014727071 0.019653922 -0.009790055 -0.032193936 0.042638496
0.02151851 0.03273624 0.04102233 0.026137946 0.025532426 0.00185035 0.039704595 0.016098982
0.01586357 -0.023980604 -0.018843919 0.041441668 -0.036464024 0.04070873 -0.037743047 -0.00600068
-0.003512158 0.023288922 0.012421395 -0.040603165 0.014442472 0.0015063559 0.036899697 0.03834314
-0.006528818 -0.0042735026 -0.0039363764 0.020980367 -0.034414604 -0.023237787 -0.028345577 -0.03084134
-0.025102807 -0.0052989996 -0.040057484 0.042423207 -0.0028084484 -0.018313961 0.022206325 -0.02555579
-0.021466862 -0.022815317 -0.032762017 0.008304879 0.041871246 0.028544271 0.021103064 0.014407167
0.042750347 -0.03697994 0.008453341 0.029283458 0.012558762 0.026936116 0.017979458 0.037074775
0.026728526 -0.015143572 0.016533904 0.024131501 0.0401178 -0.025213791 -0.014944421 -0.004113555
0.021830736 -0.041746724 -0.017552625 -0.02658411 -0.039088756 -0.035278767 0.0110350335 -0.032127693
0.017966393 -0.040476948 -0.03956953 0.017148687 0.025438491 0.024329232 0.00049436314 0.040939067
0.008790612 -0.0067750085 -0.022508018 -0.037426654 0.020981535 0.03253193 0.016307324 0.033057477
0.0329205 -0.0067460476 -0.037133627 0.020633522 -0.025875483 0.010295862 0.042946856 0.00024053504
0.008074919 0.0007885778 -0.038143914 0.004189422 0.03281444 -0.006030519 -0.04251431 -0.033229917
-0.009225296 0.015719058 0.025667993 -0.02195894 0.033984773 0.025633773 -0.011769978 0.042708825
-0.034564372 -0.021430137 -0.0018422438 -0.043611415 0.028838795 0.028470254 0.0023484363 0.007210659
0.009133006 0.039198633 0.041473217 0.027381927 -0.04217902 0.021986462 0.0036257831 0.036339823
-0.02697967 0.016367702 -0.038550574 0.010683908 -0.04370327 -0.021807855 0.007293758 0.009572796
-0.018386256 0.011984048 -0.014836908 0.015840342 -0.010033824 0.019366894 -0.0024614155 0.016521854
0.004012854 -0.028840117 -0.016433738 0.02148423 -0.0018636833 0.0003595264 -0.005547365 0.009742521
-0.017026749 0.0002922969 -0.029753326 -0.03444319 0.0022449784 0.03169739 -0.031845775 0.032892674

fc1.bias f4 [50]
00000000: 272a 623c f3e8 423d 0153 e83c 2d17 7cbc
00000010: 759e 57b9 a742 0bbd 6be8 da3c e193 e9bc
00000020: 9086 49bc 9e71 e53c 0049 42bc 751e ee3c
00000030: c0fc edbb 6b89 aebc e6e0 c9ba ec36 56bc
00000040: 8312 913b 3350 913c 3607 263d 9ee7 cc3c
00000050: d8d1 4b3c ebac 153c e6c5 023d 9cfc 20bd
00000060: 47d3 0b3d bbd7 833b 8766 cabc 5ee4 aa3c
00000070: 9622 86ba 05bd 3e3c 2efd f0bc d13b d93c
00000080: c404 a83b ac7b df3c 98a8 0abd 4c8c 2bbd
00000090: 9dda 253b c750 153d 8996 123d bddf 1dba
000000a0: f20d 8838 909c 1bbd 623c 58ba a5f2 29bb
000000b0: 7dbd 823b fa53 903b 5401 89b9 2163 6dba
000000c0: 6738 d93b 833a 953c
0.013803995 0.04758544 0.028359892 -0.015386385 -0.00020563028 -0.03399911 0.026722154 -0.028512897
-0.012300149 0.028008278 -0.011858225 0.029067257 -0.007262796 -0.02130576 -0.0015402108 -0.013074618
0.0044272556 0.017738437 0.04053422 0.025012787 0.012440167 0.009135465 0.031927012 -0.039303407
0.034137037 0.00402352 -0.024707092 0.020860847 -0.0010233696 0.011641745 -0.0294176 0.02651778
0.005127521 0.027280651 -0.03385219 -0.041881844 0.0025307306 0.03645399 0.035788093 -0.00060224143
6.487583e-05 -0.037991107 -0.0008248744 -0.002593198 0.003989874 0.004404542 -0.00026131666 -0.0009055604
0.006629038 0.018216377

fc2.weight f4 [9, 50]
00000000: e45e 71bd 672c 033e edbd e83d 4700 7ebd
00000010: 2d30 063e 734a 383d 7ef8 833d dd73 483b
00000020: 71d6 a3bd 12e5 93bd 9026 06bd 5158 ad3a
00000030: c0e1 cdbd 1caf a8bd 9a9a d7bd c3e9 e73d
00000040: 650e 7fbd 0c82 a2bd 466d d23d 471b bebc
00000050: c5aa 35bd 4b67 743d a57e a23d 5e2e d4bd
00000060: d448 bdbc 2431 86bd 431b 8bbd bb5c 04be
00000070: decd 0a3e 6624 0cbb 6868 ea3d f4b9 74bd
00000080: 80b4 30bd be16 61bd 38de 653d 6451 153d
00000090: 970d e8bc ee60 c23d fd12 f63d 571b 2e3d
000000a0: c8d2 0e3e e992 ac3d 7b4f ce3d 6e2e 973c
000000b0: 1770 81bd 5744 f33c d31a a83d 2cdb 3dbd
000000c0: 2940 0cbd bcb2 f1bd fa6b 973b 2333 0c3e
000000d0: ef5f 37bd 8e5c b3bd 2ef5 4f3d 4a4e 533c
000000e0: fc36 a8bd e44b 61bd 3857 0ebe 8689 793d
000000f0: 17d2 a63d 53b0 8abd 1068 68bd 5e79 21bd
00000100: 7349 b03d 89cb b83d eb0c 853d f956 c53d
00000110: def2 06be 90f1 b7bd 47be f7bc 5cda 93bd
00000120: b5b2 ffbd ed13 66bd b192 fdbb 9856 4cbc
00000130: 7833 c33d e30e a33d 5a1f b5bd 336b eabd
00000140: 52b3 bd3d 05b1 debb c70e 013e 4635 fbbd
00000150: 2e05 a4bd 4ffd a0bc d878 c5bc 9517 953d
00000160: 821c 08be 3682 d23d 75b3 5dbd 16b2 8bbd
00000170: f80e 8a3d e1b1 f0bc 1d55 f6bd b031 ea3d
00000180: b6ff 803d 13a4 f1bc 2c4d 08be 9eeb 57bd
00000190: 027c 56bd 4403 fcbc bc70 bbbd 8e7b 01be
000001a0: 5e65 d3bd c2f7 71bd 9d7e 033e 26a4 4cbd
000001b0: be97 dbbd 90ca cdbc 9043 abbc 0a46 d7bd
000001c0: 224c a83d ea83 9a3d 6085 d83c a8ad 553d
000001d0: 767e b13d f839 40bd b083 743d f687 b53d
000001e0: a225 fa3d 0e67 ad3d a405 7d3d 40e4 4abc
000001f0: 226f e0bd a6ba a43d e2fe eb3d 38f4 a33d
00000200: 78c9 b5bd 3265 8b3d ba74 b6bd 3c84 913d
00000210: 3b5a 053e a670 c83d 50bd 4f3c ec61 c6bd
00000220: 5028 07bd 9281 48bd 8ca7 eebd 9055 433c
00000230: d2b0 993d 0086 5bbb eaa7 e63d 5c28 a53d
00000240: 777f 0bbe 8077 d13b b877 f33c 2071 f3bb
00000250: f80f bfbd de91 5dbd 40d1 7f3c 2667 6ebd
00000260: 2634 0bbd 3c92 e6bd 1cef bb3d e07c a23b
00000270: 04ef c93d 9015 67bd 2c1d 8ebc da47 4abd
00000280: b055 6dbc fc69 90bc c8f6 b9bc dae2 60bd
00000290: d993 043e 46f7 08be 0261 9d3d f38c 023e
000002a0: a0c3 6abd 87b7 8fbd 093f 043e 325a e0bd
000002b0: 1805 4c3d 06d0 9a3d 93a0 e6bd 7879 d63c
000002c0: 90e8 74bd 8050 653d f4ba 833d 549d 463d
000002d0: e8ab 7cbd 793e cfbd c825 b8bc 623b a53d
000002e0: 88eb 0e3d 4c53 453d faf0 e73d 9642 973d
000002f0: aeb8 e43d 9087 2cbc d80b 6e3d 0a33 52bd
00000300: 00d5 06bc 1405 e7bc a6fc a13d e228 dd3d
00000310: 4ad8 b6bd 8042 333c 480a abbc 7ac7 0bbd
00000320: 7533 813d 07c9 1bbc 4caa 703d f632 2a3d
00000330: 3f50 0bbc a8e6 1a3d a406 ee3d c3c9 7a3d
00000340: 1d83 76bd 6215 233d c7a1 ac3d fd28 463c
00000350: 5a02 813c 76fe ef3c 4683 9b3d caf8 e93d
00000360: 39c5 0f3d 99a1 bd3c 480b f83b 6c7e 6bbd
00000370: b701 103c 3b71 bdbc 832a e13d 90e5 08be
00000380: 533e 133d 51a2 18bb 0047 153a 602c 91bc
00000390: 5f5a fdbd baa9 483d 61e2 eb3d cf0f ce3d
000003a0: 543c e23d 282e 0cbd 286e 7fbd 485a d53d
000003b0: 3bbe 65bd 303e 0dbe 3cf0 de3d cc89 0d3e
000003c0: d927 33bc 61db acbc 9971 c53d e9e3 c83d
000003d0: 6f79 71bc 8f7d 763c b95d c7bd 5cd1 0bbe
000003e0: fad2 bfbd 5526 f13d 79cf d93d d746 fcbd
000003f0: c66b dfbd f60d 0c3e 4a6c d3bd 8a1e 48bd
-0.058928385 0.12809907 0.113643505 -0.062011983 0.13104315 0.044992875 0.064438805 0.0030586638
-0.07999886 -0.07221426 -0.03275162 0.0013225173 -0.10052824 -0.082365245 -0.10527535 0.113238834
-0.062269587 -0.07934961 0.102747485 -0.023206366 -0.04435231 0.05966882 0.07934312 -0.10360406
-0.023106016 -0.065523416 -0.06792309 -0.12925999 0.13555095 -0.0021384 0.11445695 -0.05974765
-0.04314089 -0.05495333 0.056120127 0.036454573 -0.028326793 0.09491144 0.120153405 0.042506542
0.13947594 0.084264584 0.100737534 0.018454757 -0.063202076 0.029695673 0.08208241 -0.046351597
-0.034240875 -0.11801669 0.004621026 0.13691382 -0.044769224 -0.08757888 0.05077093 0.012897084
-0.082136124 -0.055004016 -0.13900459 0.06092217 0.0814554 -0.067719124 -0.056739867 -0.039422385
0.08607759 0.09023196 0.064966045 0.09635729 -0.13178584 -0.08981621 -0.030242098 -0.07219383
-0.124852575 -0.056171346 -0.0077384342 -0.012471817 0.09531301 0.07961824 -0.088438705 -0.11446228
0.09262718 -0.0067960047 0.12603293 -0.122660205 -0.080088004 -0.019652037 -0.024105474 0.072798885
-0.13292125 0.10278742 -0.05412622 -0.068210766 0.06741136 -0.029381694 -0.12027953 0.114352584
0.06298773 -0.029497182 -0.13310689 -0.052714936 -0.052364357 -0.030763276 -0.09152362 -0.12644789
-0.10322069 -0.05907417 0.12841268 -0.04996123 -0.10722302 -0.025121003 -0.02090624 -0.10511406
0.08217646 0.07544692 0.026430786 0.052167565 0.08666699 -0.046930283 0.0596959 0.08863823
0.12214209 0.08466922 0.061772957 -0.012383521 -0.10958697 0.08043413 0.115232244 0.080055654
-0.08876318 0.06806411 -0.089089826 0.071053 0.13022701 0.09787111 0.012679413 -0.09686646
-0.03299743 -0.048951693 -0.11653051 0.011922255 0.07504429 -0.0033496618 0.11262496 0.080643386
-0.13622843 0.0063924193 0.029720172 -0.007429257 -0.09329218 -0.054094188 0.015613854 -0.05820384
-0.03398528 -0.11258361 0.09176466 0.004958734 0.09860042 -0.056417048 -0.017347895 -0.04938493
-0.0144857615 -0.017628662 -0.022700682 -0.054903843 0.12947024 -0.13375577 0.076845184 0.1274908
-0.05731547 -0.07017427 0.12914671 -0.109547034 0.049809545 0.075592086 -0.11261096 0.026180968
-0.0597921 0.055984974 0.06432143 0.048489884 -0.06168738 -0.101193376 -0.022478953 0.08067967
0.03489259 0.04817514 0.113252595 0.07385747 0.11168037 -0.0105303675 0.058116764 -0.051318206
-0.008229494 -0.028200664 0.07909517 0.107988134 -0.089279726 0.010941148 -0.020878926 -0.034125783
0.06308643 -0.009508378 0.058756158 0.041552506 -0.008503019 0.037817627 0.1162236 0.06122757
-0.060183633 0.039815314 0.08429294 0.012094733 0.015748192 0.029296141 0.07593398 0.11424406
0.035100196 0.023148345 0.007569704 -0.057493612 0.008789471 -0.023125282 0.109944366 -0.13368821
0.03594811 -0.0023290107 0.0005694479 -0.017721355 -0.123707525 0.04898999 0.11517788 0.10061609
0.11046663 -0.034223706 -0.062360913 0.104176104 -0.05608962 -0.13793254 0.10885665 0.13822097
-0.010934793 -0.021100702 0.09640808 0.098090954 -0.014738425 0.015044584 -0.09734673 -0.13654083
-0.093664125 0.117748894 0.106352754 -0.12318199 -0.10909228 0.136772 -0.10323389 -0.04885725

fc2.bias f4 [9]
00000000: 25d6 c83d 1a83 833d 4609 00be 3810 06be
00000010: afb1 a0bd 4335 87bd 3bd3 643c 0212 953d
00000020: e4fc c1bd
0.0980647 0.0642149 -0.12503538 -0.13092124 -0.078463905 -0.06601956 0.013966377 0.07278825
-0.09472063
