GameAIFinalProject/model/model_mymodel1.pth (torch_old, 126465 bytes, 8 tensors)

conv1.weight f4 [10, 3, 5, 5]
0	0x3ddf6e10	0.10909665
1	0x3dcf7221	0.1012919
2	0xbda3a196	-0.079898044
3	0xbda5c8a8	-0.08094913
4	0x3dd0ec42	0.102013126
5	0xbdcd372c	-0.10020289
6	0x3cb88624	0.0225249
7	0xbd8dbf6b	-0.06921276
8	0x3d21c9ad	0.039498974
9	0x3cae571b	0.02128177
10	0x3c965fde	0.01835626
11	0x3d5a718b	0.05333094
12	0xbd428bab	-0.04749648
13	0xbd8df3ff	-0.06931304
14	0xbd876d15	-0.066126026
15	0xbdb471f7	-0.088107996
16	0x3d01d56a	0.031697668
17	0x3dd09a29	0.10185654
18	0xbd2f8b7f	-0.042857643
19	0xbd688835	-0.056770522
20	0xbd9418f5	-0.07231323
21	0x3d1c9a8e	0.038233332
22	0x3ca6d9f6	0.020367604
23	0x3cf016c3	0.029307729
24	0xbdad732c	-0.08469233
25	0x3d0ba9d0	0.034097493
26	0xbda41a3c	-0.08012816
27	0xbd56c326	-0.0524322
28	0xbcb9516b	-0.02262183
29	0xbb60b2bc	-0.0034286221
30	0x3b9449cb	0.0045253984
31	0xbd957ebf	-0.072995655
32	0x3d823d8a	0.06359394
33	0x3dde2cf1	0.10848416
34	0xbd810571	-0.06299866
35	0x3d7a3638	0.061086863
36	0x3b02927f	0.0019923744
37	0x3d0355ff	0.032064434
38	0xbd24835b	-0.040164333
39	0xbc0218b5	-0.007940461
40	0x3da60171	0.08105744
41	0xbd4493ed	-0.047992636
42	0xbdd33cf2	-0.10314359
43	0x3d025e84	0.03182842
44	0x3dbfd1c8	0.093661845
45	0x3d8d3958	0.06895703
46	0xbd93d1c4	-0.07217744
47	0x3d296b00	0.04136181
48	0xbdd143d8	-0.10218018
49	0xbdb1269c	-0.08649942
50	0x3d23c6b2	0.039984412
51	0x3db40ef7	0.08791917
52	0x3cc814cb	0.024423977
53	0xbcb9f992	-0.022702012
54	0x3d34b484	0.044117466
55	0x3d894058	0.06701726
56	0xbd496c17	-0.049175348
57	0xbcdd4577	-0.027010662
58	0x3b050e57	0.0020302737
59	0x3d8990f9	0.067171045
60	0xbd1d02ac	-0.038332626
61	0x3dc7172c	0.097212166
62	0x3d364056	0.04449495
63	0x3cc851c5	0.024453053
64	0xbdb28b4e	-0.087179765
65	0x3d212c90	0.03934914
66	0xbba273fa	-0.004957673
67	0xbd81ef98	-0.06344527
68	0x3b2fda19	0.0026832877
69	0x3d750f0e	0.05982881
70	0x3dd7b619	0.10532779
71	0x3de56d35	0.1120247
72	0xbc6a8377	-0.01431357
73	0xbcc8e329	-0.02452238
74	0xbd85338b	-0.06503972
75	0x3da61237	0.08108943
76	0x3d517b1f	0.051142808
77	0xbd71ff6b	-0.059081476
78	0x3d33919b	0.043840032
79	0xbd28dcd0	-0.04122621
80	0x3dc8684c	0.09785518
81	0xbc79b929	-0.0152418995
82	0xbdeb5f8b	-0.11492833
83	0x3d3580c6	0.04431226
84	0xbdbe5f64	-0.09295538
85	0xbdba58b3	-0.09098949
86	0x3b2fb3d1	0.002681006
87	0x3d8e3ba2	0.06944968
88	0xbd871cb7	-0.06597274
89	0xbd6c5031	-0.057693664
90	0x3d931e31	0.07183493
91	0x3cc24aa8	0.02371724
92	0xbd8e4060	-0.06945872
93	0x3d38f678	0.045156926
94	0x3db57f82	0.08862211
95	0xbc77a4da	-0.015114987
96	0xbdbeb59a	-0.093119815
97	0xbd2cf886	-0.042229198
98	0xbda52854	-0.080643326
99	0x3cc71b92	0.024305139
100	0xbb912252	-0.00442914
101	0xbbfacffd	-0.0076541887
102	0xbdd1f238	-0.10251278
103	0xbcb64640	-0.022250295
104	0x3c41aa68	0.011820413
105	0xbca49cae	-0.020094242
106	0x3ce914c0	0.028452277
107	0x3dcd0b0a	0.10011871
108	0x3ddda070	0.10821617
109	0xbda550b5	-0.08072034
110	0x3d9ca54b	0.07648715
111	0x3db3920b	0.0876809
112	0x3db9be82	0.090695396
113	0xbd24e70c	-0.040259406
114	0xbdd310c4	-0.10305932
115	0xbd2ebe16	-0.04266175
116	0xbdb0e0b0	-0.08636606
117	0xbde8d9cc	-0.113696665
118	0xbd452505	-0.048131008
119	0xbdc4c16b	-0.09607204
120	0x3d5b87cf	0.053596314
121	0xbde300d1	-0.1108414
122	0x3d95e400	0.07318878
123	0x3c5136b2	0.012769388
124	0xbd19b6f6	-0.037528
125	0x3d58e148	0.05294922
126	0xbd7b9105	-0.0614176
127	0xbde7c66e	-0.11317144
128	0xbdba5230	-0.09097707
129	0xbdcd2428	-0.10016662
130	0x3daed033	0.085358046
131	0xbd580377	-0.05273768
132	0xbdc2db21	-0.09514452
133	0xbdbd8ebd	-0.09255741
134	0x3d88e7db	0.06684848
135	0xbb04dc46	-0.0020272895
136	0xbcb49494	-0.022043504
137	0x3dba138d	0.0908576
138	0x3db11fa4	0.08648613
139	0x3d9084c2	0.070565715
140	0x3de4b4ae	0.111672744
141	0x3d7787c2	0.060432203
142	0x3c16cde0	0.009204358
143	0x3d89e271	0.067326434
144	0xba93cc66	-0.0011276125
145	0xbd9d6476	-0.07685177
146	0x3ced99f9	0.029004084
147	0x3d0374e6	0.032093905
148	0x3da5cedf	0.08096098
149	0x3d421d7c	0.0473914
150	0xbd29da0a	-0.041467704
151	0x3d6504c7	0.05591276
152	0x3d2eb230	0.0426504
153	0x3d434e53	0.047682118
154	0xbdda779e	-0.106673464
155	0xbd5d5bcc	-0.054042622
156	0xbd760d7e	-0.06007146
157	0x3c85acd9	0.016317772
158	0xbdde349d	-0.10849879
159	0x3d4e2dad	0.05033653
160	0xbd53c58e	-0.051702075
161	0x3ca6027d	0.020264858
162	0xba788f09	-0.0009481763
163	0xbd7e65cf	-0.06210881
164	0xbd2e95eb	-0.04262344
165	0x3de8cf29	0.11367638
166	0x3caa322d	0.020775879
167	0x3dd2f260	0.103001356
168	0x3dc4eb5d	0.096152045
169	0x3db425ac	0.08796248
170	0x3d1623cb	0.03665523
171	0xbb67ef7d	-0.003539055
172	0x3dbce8b9	0.09224076
173	0x3d91be9f	0.07116436
174	0x3db31e71	0.087460406
175	0x3d916834	0.07099953
176	0x3db67e98	0.089108646
177	0xbd229ef5	-0.039702374
178	0xbdade3cf	-0.08490717
179	0xbd84bf8f	-0.064818494
180	0x3d9a7689	0.0754214
181	0x3d57f1d2	0.052720852
182	0x3de58749	0.11207444
183	0x3ce26e43	0.027640468
184	0xbdc881de	-0.09790395
185	0x3dddec33	0.10836067
186	0xbda882f7	-0.082281046
187	0x3dead22e	0.1146587
188	0x3d49a7d3	0.049232315
189	0xbdeab08c	-0.11459455
190	0xbdb30e92	-0.087430134
191	0xbd602d74	-0.054730847
192	0x3d49d813	0.04927833
193	0x3b0c5e5b	0.0021418545
194	0xbd46ca6d	-0.048532892
195	0xbdca8b58	-0.09889859
196	0x3d83332d	0.064062454
197	0xbd4a106f	-0.04933208
198	0x3d4dec10	0.050273955
199	0x385fe261	5.3378175e-05
200	0xbb371242	-0.0027934466
201	0xbdbb6674	-0.09150401
202	0xbd1d8fda	-0.038467266
203	0xbcac61b3	-0.02104268
204	0x3dd61ba0	0.10454488
205	0xbd9a5c26	-0.07537107
206	0xbbeb7b30	-0.007186316
207	0xbd039f2c	-0.03213422
208	0xbd65ff09	-0.056151424
209	0xbdbbdccf	-0.09172975
210	0x3dc8af3e	0.0979905
211	0x3d413b15	0.047175486
212	0x3d3f4343	0.046695005
213	0xbd8652d3	-0.06558766
214	0xbcfaf800	-0.030635834
215	0x3cd04062	0.025421325
216	0x3c942629	0.018084602
217	0xbd37ff32	-0.044921108
218	0x3c24c093	0.010055679
219	0xbdcedc2c	-0.10100588
220	0x3ddda00c	0.10821542
221	0x3d12682e	0.035743885
222	0x3de0a5f4	0.10969153
223	0xbd61929f	-0.05507147
224	0xbdd96aa4	-0.10616043
225	0x3d9188ed	0.07106195
226	0xbdd3eaee	-0.10347544
227	0x3dd109a3	0.10206916
228	0x3d4bc80e	0.049751334
229	0x3c84a4aa	0.0161918
230	0x3d0dced2	0.034621067
231	0x3bd9d2ff	0.006647467
232	0x3c8cac71	0.01717207
233	0xbcaeeef9	-0.021354185
234	0x3da53517	0.08066767
235	0xbd1b9e60	-0.037992835
236	0xbd6071e6	-0.054796122
237	0x3d84614e	0.06463872
238	0x3c4ec3e9	0.012619951
239	0x3d97f4ca	0.07419737
240	0x3db41533	0.08793106
241	0xbd944400	-0.072395325
242	0x3dd6ac6a	0.10482104
243	0x3d2224cf	0.039585885
244	0xbc19d8c6	-0.009390062
245	0xbd69046d	-0.056888986
246	0xbd34943f	-0.04408669
247	0x3dc711f8	0.09720224
248	0x3d48b640	0.049001932
249	0xbdd8075b	-0.10548278
250	0x3cf43e60	0.029814899
251	0xbd876580	-0.066111565
252	0x3db54430	0.08850896
253	0x3d3e0651	0.046392743
254	0x3ce6989a	0.028148938
255	0xbde23db7	-0.110469274

conv1.bias f4 [10]
0	0xbbd38846	-0.006455454
1	0x3dbe52d2	0.092931405
2	0x3d6b6f59	0.057479236
3	0x3d7df0d7	0.06199726
4	0x3ce72da7	0.02822001
5	0xbd2ba382	-0.04190398
6	0x3d4e5a64	0.050379172
7	0x3d8bca01	0.068256386
8	0x3d29d0fe	0.041459076
9	0x3d627ff3	0.055297803

conv2.weight f4 [20, 10, 5, 5]
0	0x3cc908f1	0.024540396
1	0x3ce4e965	0.027943322
2	0xbd12efbd	-0.035873163
3	0xbcc886dc	-0.024478368
4	0xbce97ae5	-0.028500983
5	0xbd60201a	-0.054718114
6	0xbd449fde	-0.048004024
7	0x3d26330b	0.040576022
8	0xbbb72b67	-0.0055898908
9	0x3d115e00	0.035490036
10	0x3a9f0f1a	0.0012135238
11	0x3d7cb214	0.061693266
12	0x3d7cfef4	0.06176658
13	0xbcd68495	-0.026186267
14	0xbcb16771	-0.02165577
15	0xbd2cc57c	-0.042180523
16	0x3ca2d6fa	0.0198779
17	0xbd7ff99b	-0.0624939
18	0x3b3db4f7	0.0028946975
19	0x3d77562f	0.060384925
20	0xbb1b2e62	-0.002367877
21	0x3d47c181	0.048768524
22	0x3ca96356	0.02067725
23	0xbd6dec17	-0.05808648
24	0xbd279d5b	-0.04092155
25	0xbd258b7b	-0.040416222
26	0xbd73e990	-0.059548914
27	0x3d11ec86	0.035625957
28	0xbd57a859	-0.052650783
29	0x3ce13bf7	0.027494414
30	0x3d48985c	0.048973426
31	0xbcac72ec	-0.021050893
32	0x3d40cfb8	0.047073096
33	0x3cb0db47	0.021588935
34	0xbd4e6f6e	-0.050399236
35	0x3c2f0d7d	0.010684368
36	0x3c5fb65b	0.013654317
37	0xbc96d41c	-0.018411689
38	0x3d4f940a	0.05067829
39	0xbd2cec74	-0.042217687
40	0xbd3f84aa	-0.046757378
41	0xbce22912	-0.027607474
42	0xbcc190a2	-0.023628537
43	0x3cea80e8	0.02862592
44	0x3d7d2aa1	0.061808232
45	0x3a2e222e	0.00066426664
46	0xbd4ea613	-0.05045135
47	0x3d12bf31	0.035826866
48	0xbd7c6973	-0.061624
49	0xbd7433d6	-0.059619747
50	0xbba71b80	-0.005099714
51	0x3c9df283	0.019280678
52	0x3c92a67c	0.017901652
53	0x3d0b78b4	0.03405066
54	0x3d687072	0.05674786
55	0x3d306d28	0.04307285
56	0xbc8963ae	-0.016771164
57	0x3d5f06fb	0.054450016
58	0xbc7ae5e8	-0.015313603
59	0x3d6c004b	0.057617467
60	0xbbcd9ffa	-0.006275174
61	0xbcef41f0	-0.029206246
62	0xbb063c99	-0.0020482896
63	0xbd0c72e2	-0.03428925
64	0xbd3255cc	-0.043538854
65	0xbc73e0b4	-0.014885116
66	0x3d0e62bc	0.03476213
67	0x3d807c82	0.06273748
68	0x3c90bb3c	0.017667405
69	0xbc71b67c	-0.01475298
70	0xbc1eca58	-0.009691797
71	0xbc749aab	-0.014929454
72	0xbd49b82b	-0.049247902
73	0xbd76e96d	-0.060281206
74	0x3cb9d491	0.022684367
75	0xbd315790	-0.043296397
76	0x3d13b649	0.036062513
77	0x3d0d27f5	0.034461934
78	0x3d3c2fe7	0.04594412
79	0xbd7f2332	-0.062289424
80	0xbd3f33f2	-0.0466804
81	0xbce45ad9	-0.02787535
82	0x3d35677b	0.04428814
83	0x3d60997c	0.054833874
84	0x3ce6b309	0.028161542
85	0xbd5ee83a	-0.054420687
86	0xbd73b530	-0.059498966
87	0xbd28ad34	-0.041180804
88	0x3c85e636	0.016345125
89	0xbcf8f811	-0.030391725
90	0x3c9958be	0.018719073
91	0x3cfb6fec	0.030693017
92	0xbc9eaa26	-0.019368242
93	0xbc39ecc7	-0.011347956
94	0x3c1888f7	0.009309999
95	0x3d025fab	0.031829517
96	0xbd80d118	-0.062898815
97	0xbd39fe2c	-0.045408413
98	0xbc8b7e94	-0.01702813
99	0x3bd6c1f5	0.006553883
100	0xbd30a112	-0.04312236
101	0x3d63db9e	0.055629365
102	0x3cb21e8d	0.021743083
103	0xbc80b674	-0.015712
104	0xbd0ff27d	-0.035143364
105	0x3cc1a051	0.023636015
106	0x3d08446a	0.03326837
107	0x3d0683ba	0.032840468
108	0xbb61ce63	-0.0034455291
109	0x3d816782	0.06318571
110	0xbc6a687a	-0.014307136
111	0x3cb70dd9	0.02234547
112	0x3cacaffd	0.021080012
113	0xbcfb6123	-0.030685967
114	0x3d76539a	0.060138322
115	0xbc8c0d6a	-0.01709624
116	0x3cc21800	0.023693085
117	0x3d6c30eb	0.05766384
118	0x3ce2f632	0.027705286
119	0xbd576a6d	-0.05259173
120	0x3d80f514	0.06296745
121	0xbd169aff	-0.03676891
122	0xbc617f65	-0.013763283
123	0x3c18cbd5	0.009325941
124	0x3d6b2b2a	0.05741421
125	0x3d56b660	0.05242002
126	0xbceaaa94	-0.028645791
127	0xbcecf34d	-0.028924609
128	0x3c1926ad	0.0093476
129	0x3d65195a	0.05593238
130	0x3d2e8d9b	0.042615514
131	0xbd158868	-0.03650704
132	0xbcea7ae0	-0.028623044
133	0xbcdc131a	-0.026864577
134	0x3d7b54b5	0.06136008
135	0xbd3fc6fa	-0.04682062
136	0xbd0008bf	-0.03125834
137	0xbcd5d523	-0.026102608
138	0xbd3a216c	-0.04544203
139	0xbd089c18	-0.033351988
140	0xbceb2310	-0.028703243
141	0x3c01edfd	0.007930276
142	0x3d16d762	0.0368265
143	0xbcd98a24	-0.026555128
144	0xbd7e9a3a	-0.0621588
145	0x3b2ba013	0.002618794
146	0xbca4a7ce	-0.020099547
147	0x3d54ada0	0.051923394
148	0xbd7b95a9	-0.061422024
149	0xbd103133	-0.03520317
150	0x3c52b928	0.0128615275
151	0x3d459b58	0.04824385
152	0x3cb212e5	0.021737525
153	0x3c1fd7c5	0.009756033
154	0xbb827c46	-0.0039820997
155	0xbc89d09b	-0.016823104
156	0xbd626dc4	-0.055280462
157	0x36a882fe	5.0220397e-06
158	0xbb68facd	-0.003554988
159	0x3bd5b2a5	0.00652154
160	0xbc2ea276	-0.010658851
161	0xbcd2a16d	-0.02571174
162	0xbc682424	-0.014168773
163	0x3cb14da5	0.02164347
164	0x3c86350b	0.016382715
165	0x3c8dba9e	0.0173009
166	0xbb601aed	-0.0034195737
167	0x3ac3e0b4	0.0014944286
168	0x3cef57de	0.029216703
169	0x3d55ee49	0.0522292
170	0x3d063584	0.03276588
171	0xbc8fae83	-0.017539268
172	0x3d4dd020	0.05024731
173	0xbd74ac55	-0.05973466
174	0x3d811476	0.06302731
175	0x3cca5e97	0.024703307
176	0x3d765260	0.060137153
177	0xbc0c62cd	-0.008568478
178	0xbab920d5	-0.0014124165
179	0xbd1ff88d	-0.039055396
180	0xbd0b620d	-0.034029055
181	0xbd0aad13	-0.033856463
182	0x3a8a6051	0.0010557269
183	0xbc85baec	-0.016324483
184	0xbd6afee4	-0.05737199
185	0x3d31e809	0.043434177
186	0xbd44d2ce	-0.0480526
187	0x3ba24910	0.0049525574
188	0x3d724f50	0.05915767
189	0x3d76d515	0.060261805
190	0x3c23988b	0.0099851
191	0xbc149e0e	-0.009070886
192	0xbc75c09a	-0.014999533
193	0x3c219558	0.0098622665
194	0x3c3c108d	0.011478555
195	0xbd45a6b6	-0.04825469
196	0xbd1642d4	-0.036684826
197	0x3d6c4eb7	0.057692256
198	0x3cc054ed	0.023477996
199	0x399d08c0	0.00029951893
200	0xbc3bea18	-0.0114693865
201	0xbcf9a332	-0.030473325
202	0x3d5f9bb6	0.054591857
203	0x3cdfd2a8	0.027322128
204	0xbc8c2c5f	-0.017111002
205	0xbcb16199	-0.021652984
206	0xbcd20acb	-0.025639912
207	0x3d62eb7a	0.05540035
208	0x3d80640d	0.06269083
209	0xbbbf2bf3	-0.0058340966
210	0xb73b4b6d	-1.116363e-05
211	0xbcac7e0f	-0.021056203
212	0xbb20a688	-0.0024513323
213	0xbd1b2549	-0.037877355
214	0xbb3d21c0	-0.0028859228
215	0xbd7cdc5d	-0.061733592
216	0x3d0368bb	0.0320823
217	0x3d28a406	0.04117205
218	0x3cd50e20	0.026007712
219	0x3cf10ff4	0.029426552
220	0xbca91ff0	-0.020645112
221	0x3d1a4641	0.037664656
222	0xbc9346e7	-0.017978145
223	0x3c981522	0.018564764
224	0x3cf82597	0.030291362
225	0xbbc36ed6	-0.0059641404
226	0x3d6f7ccb	0.05846862
227	0xbba2d581	-0.0049692993
228	0xbd54056b	-0.05176298
229	0x3d3e5bfc	0.046474442
230	0xbc57046c	-0.013123613
231	0x3c90e5a4	0.017687626
232	0xbc7234de	-0.014783112
233	0xbbce570f	-0.0062969993
234	0x3cebbe32	0.028777216
235	0x3d41f2d9	0.04735074
236	0x3c871f2a	0.016494352
237	0x3ccb683a	0.024829973
238	0x3d804768	0.0626362
239	0xbd353244	-0.04423739
240	0x3cb7927e	0.02240872
241	0xbc83db84	-0.016095884
242	0xbc9b01e7	-0.018921806
243	0x3cadebc8	0.021230593
244	0x3d4a70ea	0.04942409
245	0x3caa1cf2	0.020765755
246	0xbcc954ac	-0.024576508
247	0xbccffc91	-0.025388988
248	0xbbe48e1b	-0.006974948
249	0xbc857dd3	-0.01629535
250	0xbc270b73	-0.010195601
251	0xbd64fbbb	-0.05590413
252	0x3ccd9526	0.025095534
253	0xbc66a143	-0.014076534
254	0xbc5a2561	-0.013314576
255	0x39dab2a6	0.00041713304

conv2.bias f4 [20]
0	0xbd738022	-0.05944837
1	0x3d57fd04	0.05273153
2	0xbd0ecb00	-0.034861565
3	0xbd277eee	-0.040892534
4	0xbb99e847	-0.004696879
5	0x3d71a360	0.058993697
6	0x3d265070	0.040604055
7	0xbd3cb503	-0.046071064
8	0xbd750feb	-0.059829634
9	0xbd4d0cbe	-0.05006098
10	0xbce8abf3	-0.028402304
11	0x3d37c6f9	0.04486749
12	0x3d5b6f90	0.05357319
13	0xbc871553	-0.01648966
14	0x3d8049e5	0.06264094
15	0xbc823ce7	-0.015898181
16	0xbd75cdea	-0.060010828
17	0x3d1c1801	0.03810883
18	0x3d313f49	0.043273244
19	0x3b183b69	0.002322877

fc1.weight f4 [50, 500]
0	0x39dc1be0	0.00041982438
1	0xbc1d8614	-0.009614486
2	0xbcfd1119	-0.030891942
3	0xbce6179e	-0.028087433
4	0xbd07fd54	-0.033200577
5	0xbcec7d0c	-0.02886822
6	0xbd23bfc8	-0.03997782
7	0xbcad541f	-0.021158276
8	0x3c3c6707	0.011499173
9	0x3caf5a25	0.021405289
10	0xbcf68d18	-0.030096576
11	0xbd1b3dac	-0.03790061
12	0x3bec4fc0	0.0072116554
13	0x3d0f87b0	0.03504151
14	0xbd1343be	-0.035953276
15	0xbd333527	-0.043751862
16	0x3cf828c6	0.03029288
17	0xbd1b4ba8	-0.03791395
18	0x3b9b4fac	0.0047397222
19	0x3d294959	0.041329715
20	0x3cf663f5	0.03007696
21	0xbc8b9a40	-0.017041326
22	0x3b409399	0.002938485
23	0xbb5a1210	-0.0033274926
24	0x3ca95f14	0.02067522
25	0xbc2d2863	-0.010568711
26	0x3d17633f	0.036959883
27	0x3adc1af7	0.0016792704
28	0x3c6ac31f	0.014328747
29	0xbcd184f9	-0.025576102
30	0x3c89c762	0.016818706
31	0x3cc81937	0.024426086
32	0xbd1fadf3	-0.03898425
33	0xbcdc287d	-0.026874775
34	0xbd343b10	-0.04400164
35	0xbb8c48f5	-0.004281158
36	0xbcf82e70	-0.03029558
37	0x3cfc9a78	0.030835375
38	0x3cb2eab8	0.021840438
39	0xbc5d2472	-0.013497459
40	0xbc9724e5	-0.01845021
41	0x3cd3d520	0.025858462
42	0x3c82e6c6	0.015979182
43	0xbc8469c2	-0.01616371
44	0x3d008044	0.031372324
45	0x3d1a33df	0.037647124
46	0xbd0453c7	-0.03230646
47	0xbd102f2d	-0.03520124
48	0xbc1d75d0	-0.009610608
49	0xbd06b50a	-0.032887496
50	0x3aeaa1df	0.0017901025
51	0xba9d4179	-0.0011997662
52	0x3ca068e2	0.019581262
53	0x3d22370b	0.039603274
54	0x3b4ec63d	0.0031551265
55	0x3cc39154	0.023873009
56	0x3d26eb1f	0.040751573
57	0x3c91e88c	0.017811082
58	0xbc6e2919	-0.014536166
59	0xbc017ae8	-0.007902838
60	0x3bc96f5d	0.0061473087
61	0x3c945670	0.018107623
62	0x3d1a797c	0.037713513
63	0x3cb417a2	0.021983925
64	0x3c56359f	0.013074308
65	0x3c81e980	0.015858412
66	0x3d2cb048	0.042160302
67	0xbd1f12c9	-0.038836274
68	0xbd323115	-0.04350384
69	0xbd323cc8	-0.043514997
70	0x3c326724	0.010888848
71	0xbcbcaa79	-0.023030506
72	0x3cc11599	0.023569869
73	0xbd23819a	-0.03991852
74	0xbce5f529	-0.028071003
75	0x3adb5da6	0.0016736283
76	0xbd201265	-0.039080042
77	0xbd13dd35	-0.03609963
78	0x3c44844e	0.0119944345
79	0xbc43073c	-0.01190358
80	0x3cab3143	0.020897513
81	0x3b94d1e2	0.0045416215
82	0xbcd102e6	-0.025514077
83	0xbd05be0a	-0.03265194
84	0x3c3ae2f5	0.01140665
85	0x3cdc0f56	0.026862781
86	0x3bb8057c	0.005615888
87	0xbce841af	-0.028351633
88	0xbca252c6	-0.01981486
89	0xbd1baa8e	-0.03800445
90	0x3d1a5cc5	0.03768613
91	0x3c942ab1	0.018086763
92	0x3c8ed04c	0.017433308
93	0x3d067ea5	0.03283562
94	0xbc17d345	-0.009266679
95	0x3bb51415	0.0055260756
96	0x3c916697	0.017749114
97	0xbcb1c67c	-0.02170109
98	0x3ba10ba7	0.004914719
99	0x3d1c13f6	0.038104974
100	0x3bc94337	0.006142046
101	0xbd1eff57	-0.03881773
102	0x3d0747f1	0.033027593
103	0x3d353a15	0.044244844
104	0xbd059419	-0.03261194
105	0x3c51a23e	0.012795029
106	0x3d26844c	0.040653512
107	0x3d12f4d5	0.03587802
108	0x3bcc6b7f	0.0062384005
109	0x3cb34f0c	0.021888278
110	0xbc92c6eb	-0.017917117
111	0x3d1ae233	0.037813377
112	0xbb24573f	-0.0025076417
113	0xbd247695	-0.04015215
114	0xbc2bdfff	-0.010490417
115	0xbca10748	-0.019656792
116	0x3cf58ebe	0.029975291
117	0x3ce38604	0.027773865
118	0xbbbfaf34	-0.0058497433
119	0xbcd93137	-0.026512725
120	0x3c1e1ec2	0.009650888
121	0x3d110aac	0.035410568
122	0xbc633fcf	-0.013870194
123	0x3d30cffa	0.043167092
124	0xbd0b6391	-0.0340305
125	0x3d34a8c8	0.044106275
126	0x3b356587	0.0027678923
127	0x3bc469a0	0.005994037
128	0x3d2825ba	0.041051604
129	0xbceee13c	-0.029160134
130	0x3ccbb211	0.024865182
131	0x3ceb7673	0.028743004
132	0x3b0b98d7	0.0021300816
133	0xbc9f8893	-0.019474303
134	0xbccad2e9	-0.024758773
135	0xbcf5f524	-0.030024119
136	0xbcf146b6	-0.029452663
137	0xbc819d76	-0.015822154
138	0x3d002998	0.031289667
139	0x3c4cb1b0	0.012493536
140	0x3d288f25	0.04115214
141	0xbd244492	-0.040104456
142	0x3cac97c5	0.021068463
143	0x3d03f6dd	0.03221785
144	0x3d11aa19	0.03556261
145	0xb8671f66	-5.5103934e-05
146	0x3c9b2bf5	0.018941859
147	0xbc687b0a	-0.014189491
148	0x3c92a9a8	0.017903164
149	0xbc881464	-0.016611286
150	0xbd25d8c8	-0.04048994
151	0x3c070799	0.0082415575
152	0x3c6792c3	0.014134112
153	0xbc078eb9	-0.008273774
154	0xbc2b5ce8	-0.010459162
155	0x3d0baba8	0.03409925
156	0x3b7c2a68	0.0038477425
157	0x3c792db6	0.015208652
158	0x3be3a357	0.006946962
159	0x3d0eebb7	0.034892764
160	0xbc8381c2	-0.016053084
161	0xbc21bef0	-0.009872183
162	0xbd16717f	-0.036729332
163	0x3d230cf8	0.03980729
164	0x3cf842cd	0.03030529
165	0xbba54095	-0.005043099
166	0xbce0c5a4	-0.027437992
167	0xbc2555fe	-0.010091303
168	0xbbae0e52	-0.0053117657
169	0xbc5911dc	-0.013248887
170	0xbd10e9e5	-0.03537931
171	0xbb6d3645	-0.0036195677
172	0x3d06c2e1	0.032900695
173	0xbc8f386d	-0.01748296
174	0xbd362335	-0.04446717
175	0xbca193c2	-0.019723777
176	0xbd2f7278	-0.042833775
177	0x3d0a5bf1	0.03377909
178	0xbca0d00f	-0.01963046
179	0x3d150ed5	0.036391098
180	0xbce813a5	-0.02832968
181	0x3bb22388	0.0054363646
182	0xbcdeb30f	-0.027184991
183	0xbd228260	-0.039675117
184	0x3bf3100b	0.007417684
185	0xbcdf6c3a	-0.027273286
186	0xbc0e84c4	-0.008698646
187	0x3c636c4c	0.0138808
188	0x3cedda3e	0.02903473
189	0xbb1595f0	-0.0022824965
190	0xbce08229	-0.027405815
191	0x3cc06ace	0.023488428
192	0x3d062be3	0.032756697
193	0x3d2625e9	0.040563498
194	0xbc9660a3	-0.018356627
195	0x3cdf34c2	0.027246837
196	0x3d338343	0.043826353
197	0x3cbe080e	0.0231972
198	0x3bc254e8	0.005930532
199	0xbcffce24	-0.031226225
200	0xbb233d7c	-0.0024908474
201	0xbd129613	-0.035787653
202	0x3d20c7df	0.039253112
203	0xbc4d2f62	-0.012523504
204	0x3c577ef4	0.013152827
205	0x3d322392	0.043490954
206	0xbccda325	-0.025102207
207	0xbd33fd2e	-0.043942623
208	0x3b15a071	0.0022831226
209	0xbd1919ae	-0.037378006
210	0xbc4b770a	-0.012418518
211	0xbaa7e574	-0.0012809471
212	0xbcd06e5a	-0.025443245
213	0x3c5f6058	0.01363381
214	0xbd25dc74	-0.040493444
215	0x3c9d2acc	0.019185446
216	0x3b4b8270	0.0031053089
217	0x3cfe077a	0.031009424
218	0xbcf47e6e	-0.029845443
219	0xbba0ed7c	-0.004911123
220	0x3ced9ed2	0.029006395
221	0x3cea6030	0.028610319
222	0x3d20f356	0.039294563
223	0x3cdf4db7	0.027258737
224	0x3c50962f	0.012731119
225	0xbd35d9e2	-0.044397242
226	0x3c5fc905	0.013658767
227	0x3bdbc1ee	0.006706468
228	0xbc303cd7	-0.010756693
229	0x3c012371	0.007881985
230	0x3cdcfe11	0.026976617
231	0xbce52918	-0.027973697
232	0x3d11a105	0.03555395
233	0x3c806809	0.015674608
234	0xbd267199	-0.04063568
235	0xbd228bf6	-0.03968426
236	0xbcf6d866	-0.030132484
237	0x3d0e721e	0.0347768
238	0x3bd43562	0.0064760903
239	0xba5ab086	-0.0008342344
240	0xbc2d4ac6	-0.010576909
241	0x3d02135e	0.03175675
242	0xbcb2810c	-0.02179005
243	0xbbce715a	-0.0063001337
244	0x3cf30276	0.02966426
245	0xbd273a91	-0.040827338
246	0x3c5b509c	0.013385918
247	0x3b927146	0.0044690697
248	0x3b955d17	0.0045582163
249	0x3ca11946	0.019665372
250	0x3bab06df	0.005219325
251	0x3ca4ea33	0.020131206
252	0x3caf5d82	0.021406893
253	0xbcad97f4	-0.021190621
254	0x3b1a0159	0.0023499338
255	0x3d0670ba	0.03282235

fc1.bias f4 [50]
0	0x3cf9e925	0.03050668
1	0x3d29c0b5	0.041443545
2	0x3c8dc0ac	0.017303787
3	0xbd34fa40	-0.04418397
4	0xbcfb80d7	-0.030701084
5	0x3b083e5f	0.002078913
6	0x3cfddf58	0.030990288
7	0x3b11b231	0.0022231454
8	0x3cf360bd	0.029709214
9	0xbd211402	-0.03932572
10	0x3cdcc495	0.026949206
11	0xbc49954f	-0.012303664
12	0xbcccf317	-0.025018258
13	0x3d0d98a9	0.034569416
14	0xbc89992e	-0.016796675
15	0x3c0d46a7	0.008622802
16	0xbcc2d5c8	-0.02378358
17	0xbc8b5a68	-0.017010882
18	0xbc93e46d	-0.018053258
19	0x3c5ee344	0.013603989
20	0x3c9b074c	0.018924378
21	0x3bb76bd1	0.0055975695
22	0xbc5d0c8a	-0.013491759
23	0x3c796faa	0.015224377
24	0xbce4230f	-0.027848748
25	0x3d2f8c0d	0.042858172
26	0x3d230bc2	0.039806135
27	0x3c1dfde8	0.0096430555
28	0xbc9aa726	-0.01887853
29	0x3d318ba1	0.04334605
30	0x3d083c45	0.033260603
31	0xbb92d2d7	-0.0044807005
32	0xbd2b4acf	-0.04181939
33	0xbd01eaeb	-0.031718176
34	0xbc8dde94	-0.017318048
35	0x3cc15b74	0.023603179
36	0xbc3bed76	-0.011470189
37	0xbd116dae	-0.03550499
38	0x3ce70fc9	0.02820577
39	0x3cdd6a3b	0.027028194
40	0x3cff85e0	0.031191766
41	0xbc7fe9a4	-0.015619669
42	0x3c69db8e	0.014273537
43	0xb9cd9296	-0.00039209862
44	0x3cd96c65	0.026540944
45	0x3c4be92f	0.012445732
46	0xbb8d5738	-0.004313376
47	0xbd321c59	-0.043484066
48	0xbbfbfc43	-0.007689984
49	0xbc358efa	-0.011081452

fc2.weight f4 [9, 50]
0	0xbdd7ecd8	-0.10543221
1	0xbdfa05e6	-0.12208156
2	0x3e037711	0.12838389
3	0x3e04fe2b	0.12987582
4	0x3d408760	0.047004104
5	0x3df56368	0.11981851
6	0x3d0cbeaf	0.034361538
7	0xbddfe0e8	-0.10931569
8	0xbd426ba8	-0.04746595
9	0xbd81eb30	-0.063436866
10	0xbd9d79db	-0.07689258
11	0xbd606e6b	-0.054792803
12	0xbd86a23f	-0.06573915
13	0xbd83c322	-0.06433703
14	0x3c8e6c6d	0.017385686
15	0x3dd157dd	0.10221837
16	0xbe0c3ba5	-0.13694628
17	0x3db1c87b	0.08680817
18	0xbe043a50	-0.1291287
19	0x3dc5a277	0.09650128
20	0xbd92583b	-0.07145735
21	0xbc1f79f2	-0.009733664
22	0xbd37a472	-0.04483456
23	0xbdd97437	-0.10617869
24	0x3c500178	0.012695663
25	0x3ca022be	0.019547816
26	0x3dfb1945	0.12260679
27	0xbc9beea9	-0.0190347
28	0xbd5b1f9f	-0.053496953
29	0xbc40dbee	-0.011771185
30	0xbd50a811	-0.05094153
31	0x3c99e8f3	0.018787837
32	0xbdf9dd7e	-0.122004494
33	0x3d8d15cb	0.06888922
34	0x3e05d269	0.13068546
35	0x3d1fc93f	0.039010283
36	0xbdb1fdd5	-0.08690993
37	0xbad8acaa	-0.001653095
38	0x3dfbfd9a	0.1230423
39	0xbdeadae0	-0.11467528
40	0x3e03445e	0.12819049
41	0xbd82f7c6	-0.06394915
42	0x3ddef356	0.108862564
43	0x3db02ecf	0.08602678
44	0xbd449507	-0.047993686
45	0x3df2bf0b	0.11852845
46	0x3dca311d	0.09872649
47	0x3c02af14	0.007976312
48	0xbd56a28d	-0.052401114
49	0xbc3dd409	-0.011586198
50	0xbd9bcafa	-0.07607074
51	0xbc20befd	-0.00981116
52	0xbd6aa964	-0.05729045
53	0x3d69162a	0.056905903
54	0x3c3ed6ad	0.011647862
55	0xbcc0e981	-0.023548843
56	0xbd8ae278	-0.06781477
57	0xbcb99f39	-0.022658931
58	0xbd8fc1d3	-0.07019391
59	0x3e04caee	0.12968037
60	0xbcf7c783	-0.030246502
61	0x3ddea6f7	0.1087169
62	0x3d5be200	0.053682327
63	0x3db5b815	0.088730015
64	0x3d9869b2	0.07442035
65	0x3d63b493	0.05559213
66	0xbbf79884	-0.007556023
67	0xbda69049	-0.08132989
68	0xbd2edcc9	-0.042691026
69	0xbd100748	-0.035163194
70	0xbd1a83bf	-0.0377233
71	0xbcbfd76a	-0.023418147
72	0xbc8d0b0e	-0.017217185
73	0xbd17f55c	-0.037099227
74	0x3daa8d4f	0.08327734
75	0x3cd9c012	0.026580844
76	0xbb8ca46e	-0.0042920625
77	0x3d3bdd44	0.045865312
78	0xbdddc670	-0.108288646
79	0x3d7eafae	0.06217926
80	0x3d28beab	0.04119746
81	0x3bb3a2cd	0.005482054
82	0x3dab427a	0.08362289
83	0x3acf28b3	0.0015804976
84	0xbe0471f9	-0.12934102
85	0xbdfeb16d	-0.12436185
86	0x3d538d21	0.051648263
87	0xbddb6ac8	-0.10713726
88	0xbd879a2e	-0.06621204
89	0xbd59180c	-0.05300145
90	0xbcccc338	-0.024995431
91	0x3d0d14c6	0.03444364
92	0x3de69cc2	0.11260368
93	0xbcaa3584	-0.020777471
94	0xbc9a07aa	-0.018802483
95	0xbdbf7338	-0.09348148
96	0x3d839d51	0.0642649
97	0xbdab5e7c	-0.08367631
98	0xbdaba2fb	-0.083806954
99	0xbdaf075b	-0.08546325
100	0xbdb97e62	-0.09057309
101	0xba1cf162	-0.00059868966
102	0x3dee457d	0.116343476
103	0x3dc8f678	0.09812635
104	0x3d83c153	0.06433358
105	0xbde03fd0	-0.10949671
106	0x3d64c465	0.05585136
107	0xbd50f197	-0.051011648
108	0xbd56afb9	-0.052413676
109	0x3dba881e	0.091079935
110	0xbcdd81ea	-0.027039487
111	0x3d8725aa	0.06598981
112	0x3e0e02d5	0.13868268
113	0xbc4010a5	-0.011722718
114	0xbd24dca0	-0.040249467
115	0x3def3c0a	0.116813734
116	0xbcad30a2	-0.021141354
117	0xbcb08fe0	-0.02155298
118	0x3d6c5e8e	0.057707362
119	0x3df1b1cd	0.11801491
120	0xbe042db6	-0.12908062
121	0xbd4de108	-0.050263435
122	0xbc0f3508	-0.008740671
123	0x3db81a9b	0.089894496
124	0xbc09b732	-0.008405494
125	0xbc8e2ab0	-0.01735434
126	0x3cf3f2dd	0.029778892
127	0x3d728685	0.05921032
128	0x3d970132	0.07373275
129	0xbd92b057	-0.071625404
130	0x3deb3d3b	0.11486288
131	0x3cc49441	0.023996474
132	0xbdd1c156	-0.10241954
133	0x3da8caa8	0.082417786
134	0x3d6240ff	0.055237766
135	0xbd57fa04	-0.052728668
136	0xbdc7361b	-0.09727117
137	0x3de527a1	0.11189199
138	0xbd3bebae	-0.04587906
139	0xbd1d0ebf	-0.03834414
140	0x3dd587b6	0.104262754
141	0x3de9d144	0.114168674
142	0xbdcf3858	-0.101181686
143	0x3c905f08	0.01762344
144	0xbdbd03ac	-0.09229216
145	0x3dd08995	0.10182492
146	0x3d8ef96b	0.069811665
147	0xbe011f8a	-0.12609687
148	0xbdaa498e	-0.08314811
149	0x3aa0c6a6	0.0012266233
150	0xbd743d87	-0.05962899
151	0xbe103f3f	-0.14086626
152	0xbc962064	-0.018325992
153	0x3db94a36	0.09047358
154	0x3d44acc0	0.04801631
155	0x3d967e27	0.073482804
156	0x3d84de17	0.06487673
157	0xbdd9111a	-0.10598965
158	0xbe01e7cf	-0.12686084
159	0x3d204820	0.039131284
160	0x3cd1d09f	0.025612174
161	0x3d92d4ee	0.07169519
162	0xbe004aea	-0.12528577
163	0xbdd5b530	-0.104349494
164	0xbd856291	-0.06512941
165	0x3dfa7280	0.122288704
166	0xbdc1ca27	-0.094623856
167	0x3d2d2b20	0.042277455
168	0xbded1280	-0.11575794
169	0x3d63e3ed	0.05563729
170	0x3da120de	0.07867597
171	0x3ce25705	0.027629385
172	0xbd871a1b	-0.06596776
173	0x3d75be55	0.059995968
174	0xbc7d7303	-0.015469315
175	0x3e07b9ae	0.13254425
176	0xbdb7a924	-0.08967808
177	0xbc8e117d	-0.017342323
178	0xbd35048d	-0.044193793
179	0x3d994174	0.07483187
180	0xbd5c859a	-0.05383835
181	0xbdd84d4e	-0.1056162
182	0xbe0faf6b	-0.1403176
183	0x3de1a17f	0.11017131
184	0xbde7f192	-0.11325373
185	0x3dd760a0	0.10516477
186	0x3e044d4e	0.12920114
187	0xbbadca80	-0.005303681
188	0xbd885db9	-0.06658501
189	0x3da500ba	0.08056779
190	0xbdb2eccf	-0.08736574
191	0xbd6fa724	-0.058509007
192	0xbe004e93	-0.12529974
193	0xbe108fe1	-0.14117385
194	0xbd9975a8	-0.07493144
195	0xbca96ba4	-0.02068121
196	0x3d142037	0.036163535
197	0x3d573af8	0.05254647
198	0xbde0731d	-0.10959456
199	0xbdcb4cc8	-0.09926754
200	0x3b83ca87	0.004021946
201	0xbd88731a	-0.06662579
202	0xbd20d503	-0.039265644
203	0x3dc2ca17	0.09511202
204	0xbdf4e3a7	-0.11957484
205	0xbd946f01	-0.07247735
206	0xbd5c8ade	-0.05384337
207	0xbe089356	-0.13337454
208	0x3d3573e4	0.044299975
209	0xbd298d26	-0.041394375
210	0x3cf15e83	0.029464012
211	0xbd1477ad	-0.036246944
212	0x3dc555f0	0.09635532
213	0xbbf33bbe	-0.0074228933
214	0xbe0137a1	-0.12618877
215	0xbda0ed72	-0.07857789
216	0xbdbc5eed	-0.09197793
217	0xbda5fcc3	-0.08104851
218	0xbd6f74ab	-0.058460873
219	0x3dee2a03	0.11629107
220	0x3d8961a4	0.067080766
221	0xbde252d9	-0.11050958
222	0xbd6db51a	-0.05803404
223	0x3ddef3a7	0.10886317
224	0x3e020fb5	0.12701304
225	0x3d6480ed	0.055787016
226	0xbd9c9068	-0.07644731
227	0xbc09bdb1	-0.008407042
228	0x3dde20e0	0.10846114
229	0xbe06ff65	-0.13183363
230	0x3e044bc7	0.12919532
231	0xbde1eb72	-0.11031236
232	0x3b932380	0.004490316
233	0x3d27d54a	0.040974893
234	0x3e0851c4	0.13312441
235	0xbde7e83f	-0.11323594
236	0x3dfdf8d8	0.12400979
237	0x3bc035b1	0.0058657755
238	0xbd4c3ea8	-0.04986444
239	0xbd093dc6	-0.033506177
240	0x3de2a0b2	0.110658064
241	0x3d766d04	0.06016256
242	0xbe0a0eeb	-0.13482253
243	0xbe0f6c86	-0.14006242
244	0x3db51eec	0.088437885
245	0x3d9cbc11	0.07653058
246	0xbe0c30a4	-0.1369043
247	0xbd4cfeba	-0.050047614
248	0x3bcefeb0	0.006316982
249	0x3bbaea23	0.005704181
250	0xbd475d2d	-0.048672844
251	0xbdafc6aa	-0.08582814
252	0xbe00c50d	-0.12575169
253	0x3d0a4864	0.033760443
254	0x3d9c3316	0.07626931
255	0x3d6feb33	0.058573913

fc2.bias f4 [9]
0	0x3ca7af85	0.020469436
1	0x3dfc476a	0.12318309
2	0x3e104749	0.14089693
3	0xbdc220b7	-0.09478896
4	0xbdb70d8e	-0.08938132
5	0x3d7c3604	0.06157495
6	0x3d94ebd6	0.07271545
7	0xbd394237	-0.045229163
8	0x3c2cb822	0.010541948
