GameAIFinalProject/model/model_mymodel81.pth (torch_old, 126465 bytes, 8 tensors)

conv1.weight f4 [10, 3, 5, 5]
-0.07921661 0.07406732 -0.066722274 -0.03351663 0.10192498 0.066134565 0.117388904 0.03167799
-0.078977376 -0.054864533 -0.081012964 0.092833035 -0.037464846 0.11232877 0.08424161 0.060054936
0.0876936 -0.065917246 0.04681527 0.035692587 -0.08337453 0.1003864 -0.046752464 -0.103363715
-0.05899044 -0.086054586 -0.10882537 0.08957458 -0.017690843 -0.004243182 -0.05893948 0.08091775
0.07176153 -0.07939942 0.07608054 0.02247488 0.011691021 -0.030717975 -0.10717713 -0.012701911
-0.014970336 0.0040605315 -0.03244747 0.019339427 -0.050705858 0.0017594303 -0.062127177 0.06226047
-0.026769515 0.009840701 -0.0008805095 0.07151092 -5.2840787e-05 -0.020350955 0.07259166 0.003820969
-0.08867648 0.07080813 0.036224283 -0.019717285 -0.044133537 0.05138831 0.018828178 0.08851966
0.08194626 0.08766006 -0.013847815 -0.0088360915 -0.08772464 0.040583413 -0.09873428 -0.015957713
-0.042023126 0.018958505 -0.06066416 0.008016268 0.0372316 -0.058838163 0.09284947 0.09882199
-0.029618112 -0.10828549 -0.066808365 0.09228121 -0.07623813 -0.064138144 0.07629129 -0.048791595
0.023176126 -0.07296741 -0.113113 0.09201701 -0.0078184055 0.07279702 0.0398173 -0.040039092
-0.047764253 -0.05953801 0.030816881 0.0160242 -0.02964326 0.07627824 0.01878132 0.09629862
-0.065296985 -0.01965021 -0.10412278 0.017903617 0.026955225 -0.06047104 0.008464302 0.066458374
-0.028625758 0.112552725 -0.05728006 -0.011760372 -0.053392828 0.110259004 0.10706193 0.06741231
0.047416646 -0.10172503 0.006680513 0.051926225 0.014631632 0.054850526 0.013501787 -0.10518733
-0.0047827074 -0.046207946 0.047185127 -0.016482888 -0.11317776 0.09306704 0.04289103 -0.09916005
0.026472019 0.043925643 -0.10145739 0.09764141 -0.064295545 -0.019806543 0.097367786 -0.06931652
-0.093659826 0.09208303 -0.014170433 0.0891707 -0.0737756 -0.05601133 -0.03821731 -0.08083095
-0.03340409 0.015543118 -0.01833817 -0.0060747117 0.051579244 0.06097586 0.10596766 0.050944116
-0.07654976 0.07706826 -0.07259817 0.021971066 0.067871064 0.09000265 -0.10420879 -0.073929
0.06046226 0.011103428 -0.09991613 0.0065997695 -0.093166254 -0.043019027 -0.11106106 -0.06773874
-0.056773096 -0.08730497 0.107903525 0.09071462 0.02001427 -0.02047749 0.0084827505 0.02359976
-0.06590484 -0.056718748 -0.015505893 0.07510959 -0.057101537 -0.068831734 -0.032396346 -0.113098085
-0.0028992645 0.08577185 -0.03300593 -0.03762936 -0.07010869 0.011707462 -0.030339895 0.012919416
-0.055185445 0.06820277 -0.09114225 -0.046890505 -0.09553414 -0.020132402 -0.09360449 0.029808335
0.018884322 -0.020146318 -0.027890386 0.03346759 0.04369586 -0.005175772 -0.07882985 -0.09981956
-0.11323622 0.032435775 0.0039437045 0.0768424 0.0771583 -0.087513216 0.011917263 0.04698753
-0.05704436 -0.07341521 0.015122662 0.0129706655 -0.11075798 -0.1123615 0.02036091 0.042987816
0.09289752 0.04413237 -0.082366705 -0.044536345 -0.031435926 -0.08165287 0.0076767267 0.01098149
-0.11374924 0.0908257 -0.0078123095 0.08850919 0.012010471 -0.07598259 0.09607572 0.069683395
0.05969043 -0.060882624 -0.057944495 0.0724948 0.03943991 -0.023980737 0.005906021 0.089869365
00000000: 513c a2bd 9bb0 973d b0a5 88bd bc48 09bd
00000010: 0bbe d03d 8f71 873d 9869 f03d c8c0 013d
00000020: e4be a1bd a2b9 60bd 20ea a5bd 3f1f be3d
00000030: bd74 19bd a00c e63d dd86 ac3d 2afc 753d
00000040: b498 b33d 9fff 86bd 5ec1 3f3d 6432 123d
00000050: 44c0 aabd 6397 cd3d 837f 3fbd 5bb0 d3bd
00000060: f69f 71bd 633d b0bd d6df debd e172 b73d
00000070: 63ec 90bc 640a 8bbb 866a 71bd 35b8 a53d
00000080: b6f7 923d 2a9c a2bd 1dd0 9b3d 3d1d b83c
00000090: b28b 3f3c 43a4 fbbc af7f dbbd ad1b 50bc
000000a0: 2446 75bc 350e 853b a3e7 04bd b86d 9e3c
000000b0: f2b0 4fbd af9c e63a 1179 7ebd d604 7f3d
000000c0: be4b dbbc e43a 213c fed1 66ba 5174 923d
000000d0: 5da1 5db8 0cb7 a6bc f0aa 943d 3969 7a3b
000000e0: 049c b5bd da03 913d ea5f 143d 2586 a1bc
000000f0: 5ec5 34bd 8c7c 523d 8d3d 9a3c cc49 b53d
00000100: 71d3 a73d 1e87 b33d f2e1 62bc 41c5 10bc
00000110: faa8 b3bd cb3a 263d 3335 cabd c0b9 82bc
00000120: 7120 2cbd de4e 9b3c fb7a 78bd aa56 033c
00000130: 2a80 183d 4900 71bd dd27 be3d 2f63 ca3d
00000140: afa1 f2bc c8c4 ddbd d3d2 88bd eefd bc3d
00000150: bd22 9cbd dc5a 83bd 9c3e 9c3d b2d9 47bd
00000160: dcdb bd3c f06f 95bd caa7 e7bd 6a73 bc3d
00000170: c518 00bc 9b16 953d 7717 233d 0800 24bd
00000180: 73a4 43bd 21de 73bd af73 fc3c 2f45 833c
00000190: 6cd6 f2bc c437 9c3d 48db 993c 3638 c53d
000001a0: 6dba 85bd 7af9 a0bc 533e d5bd 9baa 923c
000001b0: 34d1 dc3c 7bb0 77bd dbad 0a3c 541b 883d
000001c0: 9180 eabc 0b82 e63d 7f9e 6abd 93ae 40bc
000001d0: 70b2 5abd 79cf e13d 4943 db3d 770f 8a3d
000001e0: f537 423d 3655 d0bd 34e8 da3b 98b0 543d
000001f0: 83b9 6f3c f2aa 603d 9936 5d3c 746c d7bd
00000200: 42b8 9cbb 8b44 3dbd 3145 413d 1f07 87bc
00000210: bec9 e7bd ef99 be3d 81ae 2f3d 6d14 cbbd
00000220: d9db d83c 60eb 333d e4c8 cfbd 38f8 c73d
00000230: 62ad 83bd 5541 a2bc c368 c73d d2f5 8dbd
00000240: b9d0 bfbd 0796 bc3d 1b2b 68bc 219f b63d
00000250: a917 97bd 236c 65bd c189 1cbd b28a a5bd
00000260: bad2 08bd 90a8 7e3c ee39 96bc 600e c7bb
00000270: c244 533d d3c1 793d 9305 d93d c7aa 503d
00000280: 1fc6 9cbd f7d5 9d3d 59ae 94bd aafc b33c
00000290: fcff 8a3d 4f53 b83d 6b6b d5bd 1668 97bd
000002a0: 46a7 773d 27eb 353c d4a0 ccbd e142 d83b
000002b0: f3cd bebd b834 30bd fb73 e3bd 9cba 8abd
000002c0: e88a 68bd f3cc b2bd 86fc dc3d 96c8 b93d
000002d0: f7f4 a33c 69c0 a7bc 3cfb 0a3c 4954 c13c
000002e0: 1ef9 86bd eb51 68bd 6e0c 7ebc 0fd3 993d
000002f0: 4de3 69bd a7f7 8cbd 08b2 04bd f89f e7bd
00000300: 9601 3ebb 27a9 af3d 3a31 07bd 3e21 1abd
00000310: 2595 8fbd a8d0 3f3c 5f8b f8bc f5ab 533c
00000320: 220a 62bd e5ad 8b3d caa8 babd 4210 40bd
00000330: 67a7 c3bd b5ec a4bc b6b3 bfbd 9c30 f43c
00000340: 4bb3 9a3c e409 a5bc 617a e4bc 5015 093d
00000350: 6efa 323d 8699 a9bb 8b71 a1bd 336e ccbd
00000360: 64e8 e7bd 60db 043d 313a 813b 8c5f 9d3d
00000370: 2c05 9e3d 213a b3bd a040 433c ff75 403d
00000380: 59a7 69bd b75a 96bd 0bc5 773c ea82 543c
00000390: 14d5 e2bd c91d e6bd eccb a63c fe13 303d
000003a0: 0e41 be3d 25c4 343d e0af a8bd be6b 36bd
000003b0: f5c2 00bd 9f39 a7bd 0d8d fb3b b5eb 333c
000003c0: 5df5 e8bd d302 ba3d 67fe ffbb 4e44 b53d
000003d0: 91c7 443c c39c 9bbd 59c3 c43d 2bb6 8e3d
000003e0: f47d 743d 0f60 79bd 3557 6dbd 2778 943d
000003f0: be8b 213d 4073 c4bc 4c87 c13b 6e0d b83d

conv1.bias f4 [10]
-0.009428973 -0.07845245 0.10551602 0.022326145 0.055816915 0.01365293 0.067888685 0.0016384441
-0.058150064 -0.02306103
00000000: fb7b 1abc aeab a0bd c818 d83d 52e5 b63c
00000010: 47a0 643d 8ab0 5f3c 3909 8b3d 10c1 d63a
00000020: c32e 6ebd 7cea bcbc

conv2.weight f4 [20, 10, 5, 5]
0.048108816 -0.023214009 -0.02690873 -0.03381823 0.055949908 0.027748816 -0.05307977 0.035214957
0.035603493 -0.015821774 -0.054369833 0.012922405 0.02152932 0.012303533 -0.041680366 -0.023607286
-6.817143e-05 -0.015702076 -0.029304383 0.03884999 0.0313925 0.024797125 0.046083607 -0.016463412
-0.04667964 0.036879685 -0.010312754 -0.04597445 -0.005299167 -0.058218658 -0.044900015 0.06066843
-0.056587253 -0.013315134 0.017526174 -0.005859831 0.0005604439 -0.011083421 0.060527634 -0.03626513
0.05637741 0.017615339 0.060763706 -0.025520012 -0.011999066 0.055837512 0.0002027731 -0.03087967
-0.01279509 -0.008235163 -0.038358163 -0.0065677236 0.029354513 -0.038208418 -0.051361017 -0.05488502
-0.033224873 -0.04069483 -0.03163641 0.017254556 0.055643633 -0.033876978 -0.05738017 0.026315335
0.058916993 -0.04163324 0.00070312415 0.0030562943 0.055678513 0.04160464 0.0055205985 -0.02750263
0.04518216 -0.0014816567 0.043269005 0.002760326 -0.04915348 -0.007090626 0.058205977 -0.034508977
-0.020316431 -0.05752129 0.01936355 0.039407805 -0.062331505 -0.038176056 -0.045712806 0.018381163
-0.04691254 0.055177744 0.05625131 0.03457776 -0.04894753 0.055517055 -0.017795125 -0.0008539077
-0.042213198 -0.05871223 0.046665736 0.03942645 -0.027012851 0.023495492 0.025217555 -0.034071002
-0.039771404 -0.056558922 -0.030034807 -0.038204953 0.030497743 -0.02433523 -0.0016074751 0.053480323
0.0073084147 0.00010931864 0.03531692 -0.05691407 0.03157295 0.0023687885 0.014339915 0.027575608
-0.037078697 0.004655225 0.05729068 0.024925165 -0.009681663 0.029010437 0.01965445 -0.051102005
0.03261315 -0.03704807 -0.056965988 0.0016971698 -0.03251423 0.033676732 0.0599686 -0.021577997
0.001724999 0.04399782 0.03860297 -0.039105773 0.004010797 -0.024338622 -0.013441525 -0.059417035
0.026143894 0.015501822 -0.004232184 -0.023241194 -0.037873685 -0.048371296 -0.035918053 -0.03020656
-0.013759824 0.0051471344 0.027886229 0.0067664813 0.000662214 -0.012722849 -0.02911857 0.054413836
-0.010643574 0.005302859 0.041580476 0.026805058 -0.03990375 -0.025072573 -0.046796795 0.007307865
-0.05749775 0.037846055 -0.004425447 -0.014314422 -0.046598505 -0.017128827 -0.047274105 0.0046144547
0.037248798 0.0030713917 0.043336686 -0.041998234 0.016512936 -0.017055562 0.04615631 0.057980604
0.0026695642 -0.03835529 -0.012155628 -0.062441844 0.016940342 -0.04218495 0.017900981 0.025378875
0.0027925326 -0.025961103 -0.0042184982 -0.05253049 0.006976665 -0.026952347 -0.017036716 -0.015123398
0.060431212 -0.020767922 -0.047414497 -0.047254186 0.052685793 -0.010541617 -0.036288176 0.05752907
-0.04816352 -0.009476244 -0.003034983 0.038912054 0.05494998 -0.018622393 -0.037275955 0.021335458
-0.040286504 -0.0015981749 0.014350499 -0.032996796 0.0022968773 0.009503404 -0.06099398 -0.057000313
-0.0069794827 0.02898053 -0.061524693 0.011075332 -0.019744322 -0.006158303 -0.027445627 -0.01744192
-0.0018472618 0.02773125 -0.06168648 -0.03240284 -0.061359618 0.010229136 0.04079836 0.055205416
0.040341258 0.060556185 -0.006333385 -0.061716296 -0.020567894 0.00056466303 -0.022721132 -0.016725255
0.008645371 0.04171001 -0.0026137703 -0.021397537 -0.0004601394 0.053594206 0.021365924 -0.016401712
00000000: c00d 453d 4e2b bebc b26f dcbc fc84 0abd
00000010: bb2b 653d 7c51 e33c 2c6a 59bd 8f3d 103d
00000020: f8d4 113d aa9c 81bc e7b2 5ebd 7fb8 533c
00000030: 425e b03c c294 493c 08b9 2abd 1164 c1bc
00000040: 42f7 8eb8 a4a1 80bc bf0f f0bc 2b21 1f3d
00000050: 6c95 003d 5723 cb3c 2ac2 3c3d 47de 86bc
00000060: 2633 3fbd 270f 173d d3f6 28bc b44f 3cbd
00000070: a2a4 adbb b076 6ebd 14e9 37bd 767f 783d
00000080: 09c8 67bd b827 5abc 0d93 8f3c d303 c0bb
00000090: c1ea 123a 3d97 35bc d3eb 773d bf8a 14bd
000000a0: 00ec 663d 0b4e 903c 5de3 783d 580f d1bc
000000b0: bb97 44bc e0b5 643d 7d9f 5439 5df7 fcbc
000000c0: 7fa2 51bc c7ec 06bc 731d 1dbd 0f36 d7bb
000000d0: e078 f03c 6e80 1cbd ee5f 52bd 1dcf 60bd
000000e0: ce16 08bd 9faf 26bd 2e95 01bd 6d59 8d3c
000000f0: 94ea 633d 96c2 0abd 7807 6bbd 4293 d73c
00000100: f252 713d 9e87 2abd dd51 383a 1c4c 483b
00000110: 270f 643d a169 2a3d 23e6 b43b 324d e1bc
00000120: ee10 393d 2634 c2ba d73a 313d 96e6 343b
00000130: 2955 49bd 7b58 e8bb 6469 6e3d 4959 0dbd
00000140: a56e a6bc 729b 6bbd 4fa0 9e3c 146a 213d
00000150: 524f 7fbd 7f5e 1cbd 5a3d 3bbd 1894 963c
00000160: 5d27 40bd 0f02 623d c667 663d 69a1 0d3d
00000170: 357d 48bd da65 633d 15c7 91bc c7d8 5fba
00000180: bfe7 2cbd 3c7c 70bd 9224 3f3d a17d 213d
00000190: 0e4a ddbc 9e79 c03c 0c95 ce3c 098e 0bbd
000001a0: 57e7 22bd 54aa 67bd 8e0b f6bc cc7c 1cbd
000001b0: 67d6 f93c ad5a c7bc eab1 d2ba 2f0e 5b3d
000001c0: 6d7b ef3b ff41 e538 7aa8 103d ba1e 69bd
000001d0: a352 013d ad3d 1b3b f6f1 6a3c 3ee6 e13c
000001e0: d5df 17bd dc8a 983b a2a9 6a3d dc2f cc3c
000001f0: d69f 1ebc 4ca7 ed3c 5e02 a13c 5650 51bd
00000200: 5e95 053d b8bf 17bd 2b55 69bd 9273 de3a
00000210: a42d 05bd 9df0 093d a2a1 753d 57c4 b0bc
00000220: 5d19 e23a 0f37 343d 261e 1e3d 602d 20bd
00000230: 016d 833b ca61 c7bc d839 5cbc 475f 73bd
00000240: b82b d63c 5bfb 7d3c 22ae 8abb 5164 bebc
00000250: 7021 1bbd fb20 46bd cf1e 13bd bf73 f7bc
00000260: e370 61bc 4ba9 a83b a971 e43c 5cb9 dd3b
00000270: 6e98 2d3a 7f73 50bc 118a eebc 0be1 5e3d
00000280: 6362 2ebc 9bc3 ad3b 4a50 2a3d 4896 db3c
00000290: 1d72 23bd ff64 cdbc ffad 3fbd d176 ef3b
000002a0: c382 6bbd 7704 1b3d 5703 91bb 0a87 6abc
000002b0: 13de 3ebd c151 8cbc 7ea2 41bd da34 973b
000002c0: 3292 183d 6749 493b cf81 313d 5706 2cbd
000002d0: 2346 873c 1bb8 8bbc 660e 3d3d 127d 6d3d
000002e0: dbf3 2e3b 701a 1dbd 6628 47bc 05c3 7fbd
000002f0: 79c6 8a3c 20ca 2cbd 14a5 923c 5ce7 cf3c
00000300: ec02 373b 61ac d4bc 543b 8abb 362a 57bd
00000310: 829c e43b 2bcb dcbc 9590 8bbc 21c8 77bc
00000320: b886 773d 7d21 aabc b435 42bd 9b8d 41bd
00000330: 0fcd 573d bfb6 2cbc e9a2 14bd 9aa3 6b3d
00000340: 1c47 45bd 4042 1bbc 91e6 46bb 3f62 1f3d
00000350: 3b13 613d fd8d 98bc acae 18bd b3c7 ae3c
00000360: 7603 25bd da79 d1ba 5b1e 6b3c a627 07bd
00000370: 3587 163b 2ab4 1b3c d3d4 79bd 2979 69bd
00000380: 25b4 e4bb 9468 ed3c 5101 7cbd 4f75 353c
00000390: d8be a1bc 97cb c9bb a7d5 e0bc 5be2 8ebc
000003a0: d21f f2ba a52c e33c f6aa 7cbd d7b8 04bd
000003b0: 3954 7bbd 1b98 273c 2e1c 273d 131f 623d
000003c0: e03c 253d c309 783d 4988 cfbb 3aca 7cbd
000003d0: 007e a8bc e505 143a ab21 babc 6703 89bc
000003e0: 50a5 0d3c 1ed8 2a3d ca4b 2bbb e349 afbc
000003f0: dd3e f1b9 9985 5b3d 9707 af3c e25c 86bc

conv2.bias f4 [20]
0.007496062 -0.045752525 -0.058389526 0.021143058 0.022294216 0.021282528 0.02321133 0.06106282
-0.04290444 -0.05474821 -0.028021792 0.008274236 -0.038582694 0.022531217 0.053448256 -0.020910515
-0.008928024 -0.05002492 0.018505914 0.014005295
00000000: 87a1 f53b 0067 3bbd db29 6fbd 3534 ad3c
00000010: 5ca2 b63c b258 ae3c b025 be3c 021d 7a3d
00000020: 91bc 2fbd a93f 60bd f58d e5bc a990 073c
00000030: e308 1ebd 6393 b83c 8fec 5a3d 874c abbc
00000040: d946 12bc eee6 4cbd b799 973c 7776 653c

fc1.weight f4 [50, 500]
-0.026624698 -0.0019845278 0.013848534 -0.021402301 0.041393902 -0.0066350326 -0.035202894 0.027458366
0.008333474 -0.014075506 -0.02724389 0.030584235 0.018121537 -0.0053558545 0.029818118 0.03924826
0.020985063 -0.030324128 0.018582288 -0.044241037 -0.0066191303 -0.0069917925 0.017579632 -0.044305623
-0.0007851072 0.0074610375 0.04313473 -0.0054615736 0.04102433 0.035757523 0.04266454 0.039236415
-0.039796054 -0.040582933 -0.0040643066 0.03908312 -0.03259016 0.021190707 0.027463999 -0.008548688
0.024638172 0.040164594 -0.037432574 -0.027590381 0.024905864 0.030656258 -0.006067943 0.03495158
-0.035145007 -0.0034118108 -0.006818509 -0.025515458 0.013635633 -0.026422521 0.038236145 -0.018981246
-0.010462414 -0.022563448 0.041670077 0.022472076 -0.0106405355 -0.041544214 0.032790694 0.040344514
0.03423378 -0.032017574 0.028202612 -0.016822288 0.005419362 -0.016297515 -0.00806506 0.018602889
-0.024068195 0.017238135 -0.036239423 0.034194365 0.023646448 0.026173081 0.030380195 -0.011950725
-0.025610229 -0.03799625 -0.02551116 -0.021976873 -0.018806009 0.035828754 -0.03024559 0.0049451417
0.029661398 -0.018993586 -0.017819442 0.014726979 0.019654712 -0.009791157 -0.032184307 0.042638097
0.021516941 0.03273477 0.04102274 0.02614643 0.02552781 0.001844794 0.03969044 0.016085412
0.015850384 -0.023981092 -0.018846689 0.041437093 -0.03646566 0.040705394 -0.037748434 -0.0060003833
-0.0035120368 0.023288922 0.012420085 -0.04060772 0.014441063 0.0015063559 0.036899697 0.038344495
-0.0065312935 -0.004277788 -0.0039363764 0.020978836 -0.03441305 -0.023222659 -0.028326843 -0.030821875
-0.025083944 -0.005276262 -0.040036555 0.042446785 -0.0027941149 -0.01830412 0.02222279 -0.02553946
-0.021452675 -0.022807442 -0.03276535 0.0083097955 0.041886713 0.0285647 0.021118725 0.014409447
0.042757917 -0.0369664 0.008472813 0.029294161 0.012571076 0.026937593 0.017994018 0.037084103
0.026737537 -0.015138782 0.016541671 0.024148948 0.040127013 -0.025213312 -0.0149416225 -0.0041011353
0.021843078 -0.04173037 -0.017541837 -0.026580947 -0.039082278 -0.035265826 0.01104685 -0.032110527
0.01796966 -0.040472604 -0.039558582 0.017155662 0.025454955 0.0243354 0.00049189484 0.040938556
0.008790151 -0.0067770397 -0.022510532 -0.03743089 0.020980505 0.03252922 0.016309759 0.033057597
0.03292098 -0.0067478367 -0.037133627 0.020633522 -0.025875483 0.010297031 0.042948186 0.0002424309
0.008074602 0.0007879316 -0.038140748 0.0041859513 0.032814004 -0.006031043 -0.04251506 -0.033227343
-0.00922104 0.015723862 0.025670609 -0.021954553 0.03398922 0.025636835 -0.011768694 0.042708825
-0.034564372 -0.021425841 -0.0018431972 -0.04361476 0.02883865 0.028469969 0.00234901 0.007210851
0.009133011 0.039195962 0.041471034 0.027380412 -0.042181566 0.021990733 0.0036227666 0.036332875
-0.026983375 0.01636674 -0.038550574 0.01068275 -0.04370647 -0.021815574 0.007293755 0.009572796
-0.018386535 0.011983273 -0.01483823 0.015837427 -0.010033824 0.019366894 -0.0024610595 0.016521245
0.004009878 -0.028840117 -0.016433738 0.021484468 -0.0018640466 0.00035858143 -0.005547365 0.009742521
-0.017029136 0.0002895186 -0.029764473 -0.034433234 0.0022582903 0.03170816 -0.0318417 0.03288889
00000000: 0a1c dabc da0e 02bb f6e4 623c e153 afbc
00000010: a78c 293d b06a d9bb e930 10bd 5ef0 e03c
00000020: 2089 083c f39c 66bc 942e dfbc ca8b fa3c
00000030: 9e73 943c 2a80 afbb 2045 f43c c9c2 203d
00000040: dee8 ab3c 4e6a f8bc e239 983c 1736 35bd
00000050: 4ae5 d8bb 681b e5bb 2903 903c d079 35bd
00000060: a7cf 4dba b87b f43b 0bae 303d 00f7 b2bb
00000070: 2109 283d 7b76 123d 03c1 2e3d 5db6 203d
00000080: 3001 23bd 4a3a 26bd e02d 85bb 9f15 203d
00000090: 427d 05bd 2298 ad3c 2efc e03c cc0f 0cbc
000000a0: fed5 c93c a183 243d e652 19bd 3905 e2bc
000000b0: 6207 cc3c d522 fb3c 98d5 c6bb 6329 0f3d
000000c0: 36f4 0fbd b098 5fbb cd6d dfbb cb05 d1bc
000000d0: fd67 5f3c 0b74 d8bc 819d 1c3d 8f7e 9bbc
000000e0: 8b6a 2bbc fbd6 b8bc 3eae 2a3d 5c17 b83c
000000f0: a455 2ebc 442a 2abd 894f 063d 4a40 253d
00000100: b838 0c3d dc24 03bd 2a09 e73c e5ce 89bc
00000110: e794 b13b 5e82 85bc 5023 04bc 1665 983c
00000120: aa2a c5bc fd36 8d3c ca6f 14bd 640f 0c3d
00000130: 32b6 c13c ee68 d63c e3df f83c f9cc 43bc
00000140: 8bcc d1bc f5a1 1bbd c8fc d0bc d808 b4bc
00000150: 0f0f 9abc 2cc1 123d 99c5 f7bc db0a a23b
00000160: 76fc f23c 7098 9bbc 14fa 91bc 6d49 713c
00000170: eb02 a13c 176b 20bc b1d3 03bd 49a5 2e3d
00000180: 4c44 b03c e514 063d 7607 283d 0a31 d63c
00000190: b31f d13c 04cd f13a 7192 223d 8ec5 833c
000001a0: aad8 813c ff73 c4bc 5f64 9abc f1b9 293d
000001b0: 045d 15bd b3ba 263d 1a9e 1abd dd9e c4bb
000001c0: 332a 66bb 69c8 be3c 9d7d 4b3c 4854 26bd
000001d0: 359a 6c3c eb70 c53a 2324 173d 1e0f 1d3d
000001e0: 7604 d6bb b02c 8cbb b8fc 80bb cfdb ab3c
000001f0: b3f4 0cbd 723d bebc b20d e8bc 287e fcbc
00000200: d87c cdbc 7ee4 acbb 5ffd 23bd aedc 2d3d
00000210: 781d 37bb 86f2 95bc 920c b63c 2138 d1bc
00000220: 85bd afbc acd6 babc f634 06bd cf25 083c
00000230: 6791 2b3d 8500 ea3c 2d01 ad3c 9a15 6c3c
00000240: ed22 2f3d 146a 17bd 8ed1 0a3c 4ffa ef3c
00000250: eaf6 4d3c 3aac dc3c 3168 933c 80e5 173d
00000260: ae08 db3c a708 78bc 6682 873c 04d4 c53c
00000270: 395c 243d 268c cebc b5cd 74bc d162 86bb
00000280: 41f0 b23c 77ed 2abd e6b3 8fbc 49c0 d9bc
00000290: bd14 20bd e672 10bd d9fd 343c 5486 03bd
000002a0: 1c35 933c 9ac6 25bd 2e08 22bd 088a 8c3c
000002b0: e986 d03c 085b c73c 81f2 003a 30af 273d
000002c0: 9104 103c ee11 debb 0268 b8bc 2251 19bd
000002d0: 4fdf ab3c 5c3d 053d 0b9c 853c 6767 073d
000002e0: 26d8 063d f51c ddbb 6e19 18bd a207 a93c
000002f0: d2f8 d3bc e1b4 283c 70ea 2f3d 0d35 7e39
00000300: 564b 043c 328d 4e3a 7939 1cbd 4e2a 893b
00000310: fa67 063d 0ea0 c5bb 4624 2ebd 6519 08bd
00000320: d813 17bc 54cf 803c 2b4b d23c 09da b3bc
00000330: 4838 0b3d 5704 d23c 7bd1 40bc 73ef 2e3d
00000340: 5f93 0dbd 3f85 afbc 6f97 f1ba 64a5 32bd
00000350: 083f ec3c da39 e93c d9f1 193b 0149 ec3b
00000360: a0a2 153c f28b 203d 88dd 293d e34c e03c
00000370: 94c6 2cbd e925 b43c f06b 6d3b c8d1 143d
00000380: 3d0c ddbc 8b13 863c 35e7 1dbd b306 2f3c
00000390: 8e05 33bd 93b6 b2bc 7400 ef3b 37d7 1c3c
000003a0: 5c9f 96bc 7d55 443c 0c1c 73bc 7ebd 813c
000003b0: e864 24bc 52a7 9e3c ba49 21bb 9057 873c
000003c0: 4b65 833b 1c42 ecbc 0ca0 86bc 3200 b03c
000003d0: 0653 f4ba fcff bb39 acc6 b5bb 189f 1f3c
000003e0: b080 8bbc 87ca 9739 a0d4 f3bc dd09 0dbd
000003f0: d3ff 133b 6ae0 013d 716c 02bd 80b6 063d

fc1.bias f4 [50]
0.013828688 0.045588166 0.027928997 -0.014688891 -0.0014504787 -0.034010988 0.026779331 -0.028398538
-0.012006528 0.028152086 -0.012008716 0.029522233 -0.0065359287 -0.020994209 -0.001424426 -0.013629241
0.004448342 0.017718462 0.040784642 0.025365748 0.012877399 0.00924627 0.032197125 -0.039146073
0.0347098 0.0041000084 -0.024662912 0.021097561 -0.0011667066 0.012172421 -0.03054024 0.027181104
0.0044184667 0.027974315 -0.03359926 -0.041908506 0.0027601768 0.03508434 0.035748508 -0.0009254935
-0.00020802594 -0.037995663 -0.0009926987 -0.002564979 0.0041384986 0.0037455445 -0.0006877178 -0.00080557226
0.00717472 0.018437743
00000000: b991 623c a8ba 3a3d 5acb e43c ada9 70bc
00000010: fd1d beba 1b4f 0bbd 5460 db3c 0da4 e8bc
00000020: 07b7 44bc 349f e63c 35c0 44bc 9cd8 f13c
00000030: 582b d6bb 0cfc abbc ceb3 baba 2e4d 5fbc
00000040: 66c3 913b 4f26 913c cc0d 273d d4cb cf3c
00000050: bafb 523c ab7d 173c 22e1 033d a257 20bd
00000060: dd2b 0e3d 5d59 863b e009 cabc cbd4 ac3c
00000070: 2dec 98ba d66e 473c 872f fabc e8aa de3c
00000080: c9c8 903b 642a e53c 619f 09bd 41a8 2bbd
00000090: 15e4 343b 99b4 0f3d 076d 123d d19c 72ba
000000a0: 8a21 5ab9 57a1 1bbd 711d 82ba 3519 28bb
000000b0: 3e9c 873b cf77 753b f647 34ba 0a2d 53ba
000000c0: ea19 eb3b c00a 973c

fc2.weight f4 [9, 50]
-0.05918027 0.12697685 0.11248415 -0.062233713 0.1302764 0.04497998 0.06406986 0.0030354853
-0.08004229 -0.072656855 -0.032863397 9.165373e-05 -0.1008818 -0.082622916 -0.10552213 0.113020346
-0.06233373 -0.07942674 0.10195238 -0.023570739 -0.044944942 0.059518464 0.079147324 -0.10367379
-0.023511421 -0.06561561 -0.067964226 -0.13004945 0.135473 -0.002503721 0.11359827 -0.060147133
-0.043584656 -0.05520792 0.055671554 0.036426306 -0.029043863 0.09351941 0.11947236 0.042288132
0.13925359 0.08425811 0.10069594 0.018432364 -0.063237004 0.028949946 0.081750065 -0.046728216
-0.034425516 -0.11807946 0.004157384 0.1357906 -0.045787044 -0.08790444 0.0500054 0.012895949
-0.082556345 -0.055038486 -0.1390763 0.060486052 0.08133591 -0.06871547 -0.056996685 -0.039562754
0.08593668 0.090039164 0.06488051 0.09630681 -0.13250929 -0.09019794 -0.030835778 -0.07238048
-0.12510824 -0.056252416 -0.008272687 -0.012527041 0.09529692 0.07887153 -0.08851455 -0.114767656
0.09176624 -0.0072789798 0.12555529 -0.122886 -0.080432184 -0.01972755 -0.024917696 0.07143088
-0.13328491 0.10257707 -0.05431435 -0.068215325 0.06737196 -0.02940877 -0.12032655 0.11367539
0.062648565 -0.029961972 -0.13326982 -0.052767977 -0.052364357 -0.030763276 -0.09152362 -0.12644789
-0.10322069 -0.05907417 0.12841268 -0.04996123 -0.10722302 -0.025121003 -0.02090624 -0.10511406
0.08217646 0.07544692 0.026430786 0.052167565 0.08666699 -0.046930283 0.0596959 0.08863823
0.12214209 0.08466922 0.061772957 -0.012383521 -0.10958697 0.08043413 0.115232244 0.080055654
-0.08876318 0.06806411 -0.089089826 0.071053 0.13022701 0.09787111 0.012679413 -0.09686646
-0.03299743 -0.048951693 -0.11653051 0.011922255 0.07504429 -0.0033496618 0.11262496 0.080643386
-0.13622843 0.0063924193 0.029720172 -0.007429257 -0.09329218 -0.054094188 0.015613854 -0.05820384
-0.03398528 -0.11258361 0.09176466 0.004958734 0.09860042 -0.056417048 -0.017347895 -0.04938493
-0.0144857615 -0.017628662 -0.022700682 -0.054903843 0.12947024 -0.13375577 0.076845184 0.1274908
-0.05731547 -0.07017427 0.12914671 -0.109547034 0.049809545 0.075592086 -0.11261096 0.026180968
-0.0597921 0.055984974 0.06432143 0.048489884 -0.06168738 -0.101193376 -0.022478953 0.08067967
0.03489259 0.04817514 0.113252595 0.07385747 0.11168037 -0.0105303675 0.058116764 -0.051318206
-0.008229494 -0.028200664 0.07909517 0.107988134 -0.089279726 0.010941148 -0.020878926 -0.034125783
0.06309003 -0.009502048 0.058762807 0.041553218 -0.008499943 0.037817627 0.116228744 0.061227884
-0.06018328 0.039817225 0.08429478 0.012100436 0.015748408 0.02929791 0.0759347 0.11424748
0.03510117 0.023148345 0.007571721 -0.057490233 0.008794056 -0.023123575 0.10994451 -0.13368765
0.035952047 -0.0023282578 0.0005694479 -0.017719032 -0.12370721 0.048993852 0.11518665 0.100619264
0.1104709 -0.034222636 -0.06235767 0.104176104 -0.05608858 -0.1379281 0.10886054 0.1382232
-0.01093391 -0.021100702 0.09640855 0.09809162 -0.014738378 0.015053059 -0.09734471 -0.13653956
-0.09366318 0.11774915 0.10635372 -0.123181544 -0.10909228 0.13677229 -0.10323389 -0.04885725
00000000: 0367 72bd 3806 023e 175e e63d c7e8 7ebd
00000010: 2d67 053e ed3c 383d 0f37 833d feee 463b
00000020: 36ed a3bd 1ecd 94bd c59b 06bd 3936 c038
00000030: 1e9b cebd 3436 a9bd fd1b d8bd 3677 e73d
00000040: a751 7fbd 7daa a2bd 69cc d03d 6c17 c1bc
00000050: 3018 38bd a2c9 733d fe17 a23d ed52 d4bd
00000060: 069b c0bc 7a61 86bd d430 8bbd af2b 05be
00000070: 6fb9 0a3e 7815 24bb 36a6 e83d d75c 76bd
00000080: d385 32bd b321 62bd db07 643d c033 153d
00000090: 65ed edbc 1b87 bf3d edad f43d 5236 2d3d
000000a0: 7e98 0e3e 848f ac3d ac39 ce3d 78ff 963c
000000b0: 6782 81bd 7028 ed3c 946c a73d 1666 3fbd
000000c0: c501 0dbd a5d3 f1bd aa3a 883b b10c 0b3e
000000d0: 328b 3bbd 3e07 b4bd 76d2 4c3d 8849 533c
000000e0: 4d13 a9bd 0970 61bd 056a 0ebe 39c0 773d
000000f0: 7193 a63d b2ba 8cbd 5b75 69bd 8e0c 22bd
00000100: 92ff af3d 7466 b83d 13e0 843d 813c c53d
00000110: 84b0 07be b3b9 b8bd 509b fcbc 383c 94bd
00000120: 601c 00be ef68 66bd 2a8a 07bc 383e 4dbc
00000130: 082b c33d 6687 a13d 1e47 b5bd 4e0b ebbd
00000140: f0ef bb3d 8284 eebb 9191 003e a8ab fbbd
00000150: a1b9 a4bd ac9b a1bc 3220 ccbc 5a4a 923d
00000160: d77b 08be ed13 d23d b978 5ebd 7ab4 8bbd
00000170: 4ffa 893d a9ea f0bc c46d f6bd a5ce e83d
00000180: e44d 803d cf72 f5bc e277 08be 3c23 58bd
00000190: 027c 56bd 4403 fcbc bc70 bbbd 8e7b 01be
000001a0: 5e65 d3bd c2f7 71bd 9d7e 033e 26a4 4cbd
000001b0: be97 dbbd 90ca cdbc 9043 abbc 0a46 d7bd
000001c0: 224c a83d ea83 9a3d 6085 d83c a8ad 553d
000001d0: 767e b13d f839 40bd b083 743d f687 b53d
000001e0: a225 fa3d 0e67 ad3d a405 7d3d 40e4 4abc
000001f0: 226f e0bd a6ba a43d e2fe eb3d 38f4 a33d
00000200: 78c9 b5bd 3265 8b3d ba74 b6bd 3c84 913d
00000210: 3b5a 053e a670 c83d 50bd 4f3c ec61 c6bd
00000220: 5028 07bd 9281 48bd 8ca7 eebd 9055 433c
00000230: d2b0 993d 0086 5bbb eaa7 e63d 5c28 a53d
00000240: 777f 0bbe 8077 d13b b877 f33c 2071 f3bb
00000250: f80f bfbd de91 5dbd 40d1 7f3c 2667 6ebd
00000260: 2634 0bbd 3c92 e6bd 1cef bb3d e07c a23b
00000270: 04ef c93d 9015 67bd 2c1d 8ebc da47 4abd
00000280: b055 6dbc fc69 90bc c8f6 b9bc dae2 60bd
00000290: d993 043e 46f7 08be 0261 9d3d f38c 023e
000002a0: a0c3 6abd 87b7 8fbd 093f 043e 325a e0bd
000002b0: 1805 4c3d 06d0 9a3d 93a0 e6bd 7879 d63c
000002c0: 90e8 74bd 8050 653d f4ba 833d 549d 463d
000002d0: e8ab 7cbd 793e cfbd c825 b8bc 623b a53d
000002e0: 88eb 0e3d 4c53 453d faf0 e73d 9642 973d
000002f0: aeb8 e43d 9087 2cbc d80b 6e3d 0a33 52bd
00000300: 00d5 06bc 1405 e7bc a6fc a13d e228 dd3d
00000310: 4ad8 b6bd 8042 333c 480a abbc 7ac7 0bbd
00000320: 5835 813d 7aae 1bbc 45b1 703d b533 2a3d
00000330: 5843 0bbc a8e6 1a3d 5609 ee3d 17ca 7a3d
00000340: be82 76bd 6317 233d bea2 ac3d e840 463c
00000350: ce02 813c 2c02 f03c a783 9b3d 95fa e93d
00000360: 3fc6 0f3d 99a1 bd3c 331c f83b e17a 6bbd
00000370: f214 103c a76d bdbc 962a e13d 6ae5 08be
00000380: 7442 133d af95 18bb 0047 153a 8127 91bc
00000390: 355a fdbd c7ad 483d fae6 eb3d 7911 ce3d
000003a0: 913e e23d 092d 0cbd c26a 7fbd 485a d53d
000003b0: 24bd 65bd 063d 0dbe 46f2 de3d 628a 0d3e
000003c0: 2424 33bc 61db acbc d971 c53d 42e4 c83d
000003d0: 3d79 71bc 1ba1 763c aa5c c7bd 07d1 0bbe
000003e0: 7bd2 bfbd 7726 f13d fbcf d93d 9b46 fcbd
000003f0: c66b dfbd 090e 0c3e 4a6c d3bd 8a1e 48bd

fc2.bias f4 [9]
0.09058579 0.05699116 -0.12503538 -0.13092124 -0.07842808 -0.066015005 0.014939776 0.07512657
-0.09472063
00000000: 0b85 b93d 906f 693d 4609 00be 3810 06be
00000010: e79e a0bd e032 87bd f6c5 743c f6db 993d
00000020: e4fc c1bd
