GameAIFinalProject/model/model_mymodel41.pth (torch_old, 126465 bytes, 8 tensors)

conv1.weight f4 [10, 3, 5, 5]
000000 b4 61 a5 bd 2a 60 94 3d 06 19 8c bd 86 03 10 bd
       -0.08075276 0.07244904 -0.0684071 -0.03515961
000010 1a 21 cd 3d ac 03 84 3d 1c cf ec 3d a4 b2 f4 3c
       0.10016079 0.06446013 0.115629405 0.029870339
000020 c7 3c a5 bd 00 06 68 bd 84 86 a9 bd 34 58 ba 3d
       -0.08068233 -0.056646347 -0.0827761 0.09098855
000030 d3 bd 20 bd e7 84 e2 3d 7e e6 a8 3d 9b 0b 6f 3d
       -0.03924353 0.11060505 0.08247088 0.058360677
000040 21 0d b0 3d 1d 51 8a bd 70 30 39 3d 41 24 0b 3d
       0.08596254 -0.067537524 0.04521221 0.03397012
000050 58 01 ae bd 7b 62 ca 3d 1a 81 45 bd 61 ad d6 bd
       -0.0849635 0.09882065 -0.048218824 -0.10482288
000060 5f 34 78 bd 43 18 b2 bd a7 d8 e0 bd 90 59 b5 3d
       -0.06059682 -0.08696034 -0.10978823 0.08854973
000070 87 66 99 bc c9 43 b2 bb 8c 9f 75 bd a6 78 a3 3d
       -0.018725647 -0.0054402095 -0.05996661 0.07981996
000080 61 9a 90 3d 9b e8 a4 bd 4a 4f 99 3d 19 e8 ae 3c
       0.070606954 -0.080521785 0.07485826 0.021350907
000090 33 3b 2c 3c e0 68 02 bd 6c cf dd bd ab 2a 64 bc
       0.010512161 -0.031838298 -0.10830578 -0.013926188
0000a0 41 87 83 bc a8 9f 41 3b 39 08 09 bd 79 24 96 3c
       -0.016055705 0.0029544625 -0.033455107 0.018327938
0000b0 08 85 54 bd 7f 00 43 3a f0 3c 81 bd 9a 54 7b 3d
       -0.05188468 0.00074387336 -0.06310451 0.06135998
0000c0 be bf e2 bc 5c 40 0f 3c d9 18 c4 ba 5a 1c 91 3d
       -0.02767932 0.008743372 -0.0014961018 0.07085486
0000d0 71 b0 49 ba 77 c8 ac bc 0e ce 92 3d a7 c9 49 3b
       -0.00076938333 -0.021091683 0.07168208 0.003079036
0000e0 d6 3a b7 bd 44 48 8f 3d f9 f4 10 3d 4f 38 a9 bc
       -0.08946769 0.069962054 0.035389874 -0.020656733
0000f0 f6 25 38 bd 2a f0 4e 3d c7 8b 93 3c 38 94 b3 3d
       -0.044958077 0.050522007 0.018010987 0.08768505
000100 1f e7 a5 3d e7 e5 b1 3d fc 11 70 bc 70 b3 1c bc
       0.081007235 0.086864285 -0.014652725 -0.009564266
000110 45 29 b5 bd f1 8a 22 3d 40 bf cb bd ce 7c 88 bc
       -0.08845762 0.039683286 -0.099485874 -0.016661074
000120 b5 c5 2e bd 87 ec 95 3c 81 ec 7b bd 39 2a 07 3c
       -0.042669017 0.018301262 -0.061504845 0.008249813
000130 ff a5 19 3d 5e dd 6f bd bf da be 3d 1a 38 cb 3d
       0.03751182 -0.05856072 0.09319066 0.0992281
000140 36 74 f0 bc 8a 00 dd bd 73 06 88 bd 52 c8 bd 3d
       -0.029352289 -0.107911184 -0.06641855 0.09266724
000150 1c 5d 9b bd d7 dd 82 bd f1 0c 9d 3d 10 d7 45 bd
       -0.075861186 -0.06389969 0.07668484 -0.048300803
000160 de c2 c1 3c d1 80 94 bd 56 5c e7 bd ac 08 bd 3d
       0.02365249 -0.07251132 -0.112969086 0.0923017
000170 12 fe f0 bb da 24 96 3d 80 38 25 3d 03 94 23 bd
       -0.0073545063 0.07331248 0.040337086 -0.039936077
000180 80 07 43 bd 37 89 72 bd c3 0f 00 3d ac b6 87 3c
       -0.047614574 -0.05921289 0.03126503 0.016566597
000190 34 b8 f0 bc 90 d5 9c 3d af 76 9c 3c da 02 c6 3d
       -0.02938471 0.07657921 0.019099561 0.09668513
0001a0 bb d7 84 bd 0d ee 9e bc dc 83 d4 bd 83 d9 95 3c
       -0.0648646 -0.01940062 -0.10376713 0.018292194
0001b0 b8 19 e0 3c 7f 20 76 bd ba 0d 0e 3c 97 d0 88 3d
       0.027356014 -0.060089584 0.008670265 0.0668041
0001c0 21 d7 e6 bc 85 72 e7 3d df c5 68 bd 2c cd 3e bc
       -0.028178753 0.1130114 -0.05682933 -0.0116455965
0001d0 b4 9f 59 bd f9 a8 e2 3d f1 3c dc 3d ac 12 8b 3d
       -0.05313082 0.11067385 0.10753811 0.06790671
0001e0 6d 8b 42 3d e8 0c d0 bd 90 3c e4 3b 1a 48 56 3d
       0.047496248 -0.10158712 0.0069652274 0.052314855
0001f0 ef c6 77 3c 53 9b 61 3d d2 b5 61 3c 21 cb d6 bd
       0.015123113 0.05507977 0.0137762595 -0.104879625
000200 71 40 90 bb 78 93 3b bd 69 17 42 3d c4 8d 84 bc
       -0.0044022133 -0.045794934 0.047385607 -0.01618088
000210 d1 11 e7 bd 02 61 bf 3d ec 29 31 3d c9 c3 ca bd
       -0.11282695 0.09344675 0.04325287 -0.09900624
000220 c0 1c db 3c 58 7d 35 3d a0 ed ce bd a4 d6 c8 3d
       0.026747108 0.04430899 -0.10103917 0.098065645
000230 44 84 83 bd 9a 8a a0 bc e3 1e c8 3d da 1c 8d bd
       -0.06421712 -0.01959734 0.09771516 -0.068902686
000240 9a e2 be bd 3c b2 bc 3d ba 68 66 bc fb 1b b7 3d
       -0.093205646 0.09213683 -0.014063055 0.08940884
000250 44 6c 96 bd c8 a8 63 bd ef 94 1c bd 79 98 a5 bd
       -0.07344869 -0.055580884 -0.03822797 -0.080857225
000260 b0 ee 08 bd ff 06 7e 3c 52 9d 96 bc e7 73 c7 bb
       -0.033430755 0.015504598 -0.018385563 -0.0060868147
000270 72 33 53 3d 69 ae 79 3d c7 f5 d8 3d d3 87 50 3d
       0.051562734 0.060957346 0.10593753 0.050910782
000280 f6 ce 9c bd a5 ce 9d 3d 96 bc 94 bd a0 7e b3 3c
       -0.07656662 0.0770543 -0.072625324 0.021910965
000290 e5 df 8a 3d d9 51 b8 3d 1d 67 d5 bd f1 68 97 bd
       0.06780986 0.08999986 -0.10420058 -0.07393063
0002a0 9a 73 77 3d 38 ed 34 3c f3 af cc bd ae f4 d7 3b
       0.06041298 0.0110428855 -0.09994497 0.0065904474
0002b0 e8 d5 be bd 99 6b 30 bd ff 8d e3 bd 9b b9 8a bd
       -0.09318143 -0.043071363 -0.11111068 -0.06773683
0002c0 d1 9b 68 bd 2b d7 b2 bd 33 ed dc 3d 20 b7 b9 3d
       -0.056789223 -0.08732446 0.1078743 0.090681314
0002d0 cc f6 a3 3c 88 cf a7 bc 7b c0 0a 3c fb 23 c1 3c
       0.020015143 -0.0204847 0.0084687425 0.023576727
0002e0 1f 05 87 bd 63 50 68 bd 3b 1b 7e bc c0 c8 99 3d
       -0.06592774 -0.056717288 -0.015509422 0.07508993
0002f0 2e 18 6a bd 62 13 8d bd 9d a2 04 bd 07 97 e7 bd
       -0.057151966 -0.068884626 -0.032381643 -0.11308103
000300 e2 c8 3d bb ee 94 af 3d d8 66 07 bd 2d 2d 1a bd
       -0.0028958847 0.08573328 -0.033057064 -0.03764074
000310 8c 93 8f bd b6 bb 3f 3c b1 e4 f8 bc 2c ff 52 3c
       -0.07010564 0.011702469 -0.030382486 0.0128782205
000320 b0 f1 61 bd bf af 8b 3d 90 a9 ba bd 46 16 40 bd
       -0.05516213 0.0682063 -0.09114373 -0.04689624
000330 d6 a9 c3 bd ce c0 a4 bc 4c ae bf bd 02 34 f4 3c
       -0.09553878 -0.020111468 -0.09359416 0.029809956
000340 64 ad 9a 3c 62 01 a5 bc 5e 49 e4 bc 97 1f 09 3d
       0.018881507 -0.020142261 -0.027867015 0.033477392
000350 95 f6 32 3d 57 97 aa bb ea 7e a1 bd 96 5d cc bd
       0.04369219 -0.0052060294 -0.07885535 -0.099787876
000360 5a d9 e7 bd 88 ec 04 3d 59 a5 80 3b 92 52 9d 3d
       -0.113207534 0.032452136 0.003925961 0.07681765
000370 c7 0a 9e 3d 06 30 b3 bd 63 71 43 3c 8f 60 40 3d
       0.07716899 -0.08749394 0.011928889 0.046967085
000380 5b c0 69 bd dd 63 96 bd 53 54 77 3c 36 b5 53 3c
       -0.05706821 -0.07343266 0.015095788 0.012921622
000390 65 e3 e2 bd 18 23 e6 bd 52 96 a6 3c c2 02 30 3d
       -0.11078528 -0.11237162 0.02033535 0.04297138
0003a0 08 3c be 3d d6 d2 34 3d 8a a1 a8 bd 73 85 36 bd
       0.09288794 0.04414638 -0.08233936 -0.04456086
0003b0 a3 c6 00 bd eb 2c a7 bd e5 ef fb 3b 79 60 34 3c
       -0.031439435 -0.08162864 0.0076885098 0.011009329
0003c0 17 fe e8 bd 40 0f ba 3d da ed fe bb ce 4b b5 3d
       -0.11376589 0.0908494 -0.007779819 0.08852349
0003d0 a6 1d 45 3c c7 91 9b bd c2 d6 c4 3d 2c cc 8e 3d
       0.0120309945 -0.07596164 0.09611274 0.069725364
0003e0 bc 83 74 3d 81 58 79 bd 4f 50 6d bd 35 75 94 3d
       0.059695944 -0.06087542 -0.057937916 0.07248918
0003f0 fd 71 21 3d 54 7e c4 bc 24 d8 c1 3b c0 0c b8 3d
       0.03941535 -0.02398602 0.0059156585 0.08986807

conv1.bias f4 [10]
000000 ad 0f 2a bc 88 27 a0 bd 5d d6 d7 3d 06 8c b6 3c
       -0.010379714 -0.0782004 0.105389334 0.022283565
000010 18 e9 64 3d eb 95 62 3c 7c 63 8a 3d 1c 24 cc 3a
       0.055886358 0.013829689 0.067572564 0.0015574726
000020 dd 75 6e bd 95 a9 bd bc
       -0.058217872 -0.023152152

conv2.weight f4 [20, 10, 5, 5]
000000 d4 01 45 3d c8 62 be bc 4e ca dc bc 71 92 0a bd
       0.048097447 -0.023240462 -0.026951935 -0.033831064
000010 b8 18 65 3d b5 20 e3 3c ee 87 59 bd 74 1e 10 3d
       0.055931777 0.027725557 -0.05310815 0.035185292
000020 f8 a4 11 3d 08 f0 81 bc d3 cd 5e bd 2b 7f 53 3c
       0.035557717 -0.015861526 -0.054395508 0.012908737
000030 61 33 b0 3c 9d 17 49 3c 1e d8 2a bd b0 85 c1 bc
       0.021508874 0.012273696 -0.04171001 -0.023623317
000040 73 1d aa b8 5c c3 80 bc 95 2d f0 bc 60 0c 1f 3d
       -8.111717e-05 -0.015718155 -0.02931861 0.03883016
000050 96 94 00 3d 22 fd ca 3c 92 b2 3c 3d 1b f4 86 bc
       0.031391703 0.024778906 0.046068735 -0.01647382
000060 10 3b 3f bd ee fa 16 3d ac 8e 29 bc b1 50 3c bd
       -0.046687186 0.0368604 -0.010348957 -0.04597539
000070 b3 26 ae bb 1d 84 6e bd f9 f8 37 bd 2d 70 78 3d
       -0.005314672 -0.05823146 -0.044915173 0.060653854
000080 e3 c7 67 bd 00 62 5a bc 66 8b 8f 3c a5 5a c0 bb
       -0.05658711 -0.013329029 0.017522525 -0.0058701807
000090 44 a9 10 3a 3c 9a 35 bc 0f e8 77 3d 37 8f 14 bd
       0.00055183866 -0.011084136 0.060524043 -0.036269393
0000a0 9e d6 66 3d b1 2d 90 3c 43 e2 78 3d 67 0c d1 bc
       0.05635702 0.017599912 0.060762655 -0.02551861
0000b0 a2 8f 44 bc 89 a1 64 3d 8e 05 46 39 b6 fb fc bc
       -0.011997135 0.055818114 0.00018884821 -0.030881744
0000c0 f6 b5 51 bc 5a eb 06 bc 58 1d 1d bd 2f 3a d7 bb
       -0.0127997305 -0.008234823 -0.038358063 -0.0065682153
0000d0 9b 8d f0 3c 3d 74 1c bd 5f 54 52 bd 07 cf 60 bd
       0.029364398 -0.03819679 -0.051349994 -0.054884937
0000e0 ce 16 08 bd 58 a1 26 bd 20 88 01 bd 8d 72 8d 3c
       -0.033224873 -0.040681213 -0.03162396 0.017266536
0000f0 59 e3 63 3d ce c4 0a bd 89 fd 6a bd 5f a9 d7 3c
       0.055636737 -0.033879094 -0.057370696 0.02632588
000100 a7 5a 71 3d 94 91 2a bd d4 6c 35 3a c4 c4 48 3b
       0.058924343 -0.04164274 0.00069208187 0.003063486
000110 5b 10 64 3d ed 69 2a 3d 9b 47 b4 3b af 6e e1 bc
       0.05567966 0.041604925 0.0055017 -0.027518598
000120 83 0f 39 3d 22 bf c2 ba 05 32 31 3d 7d b9 34 3b
       0.04518081 -0.0014857987 0.043260593 0.002757638
000130 24 55 49 bd 58 3b e8 bb 93 6f 6e 3d 21 54 0d bd
       -0.049153462 -0.0070871525 0.058211874 -0.03450406
000140 87 6e a6 bc 72 9b 6b bd bb ac 9e 3c 6e 70 21 3d
       -0.020316375 -0.05752129 0.019369474 0.039413862
000150 e4 49 7f bd 3e 5f 1c bd 68 46 3b bd 50 93 96 3c
       -0.062326327 -0.038176768 -0.04572144 0.018380791
000160 8d 20 40 bd 5e 06 62 3d c3 5e 66 3d cb 96 0d 3d
       -0.046906043 0.055181853 0.056242716 0.034567636
000170 c1 7a 48 bd c8 6b 63 3d 0a c4 91 bc b5 4a 61 ba
       -0.048945192 0.05552271 -0.017793674 -0.0008594201
000180 05 ec 2c bd bc 79 70 bd 9e 1e 3f 3d 5d 75 21 3d
       -0.042217273 -0.058709845 0.04666006 0.039418567
000190 32 48 dd bc a5 7c c0 3c 92 8e ce 3c 88 8b 0b bd
       -0.027011964 0.023496935 0.025214467 -0.034068614
0001a0 23 e2 22 bd a7 ad 67 bd 2e 00 f6 bc ca 73 1c bd
       -0.039766442 -0.056562092 -0.030029383 -0.038196363
0001b0 86 e1 f9 3c 19 51 c7 bc c7 f9 d2 ba 75 14 5b 3d
       0.030503046 -0.024330663 -0.0016096168 0.053486306
0001c0 ba c2 ef 3b 3e 58 ea 38 07 aa 10 3d 93 24 69 bd
       0.0073169144 0.00011174426 0.0353184 -0.056919646
0001d0 f1 53 01 3d 30 d8 1a 3b 90 e3 6a 3c 44 d6 e1 3c
       0.031574193 0.0023627393 0.014336482 0.02756799
0001e0 03 e9 17 bd 8a 5c 98 3b 32 a2 6a 3d 40 20 cc 3c
       -0.03708745 0.0046497034 0.057283588 0.024917722
0001f0 09 d5 1e bc ef a9 ed 3c 26 00 a1 3c 36 50 51 bd
       -0.009694346 0.029011695 0.019653391 -0.051101886
000200 af 8e 05 3d 37 cc 17 bd 70 57 69 bd d0 44 de 3a
       0.032606777 -0.03705999 -0.056968153 0.0016957764
000210 71 2a 05 bd d2 f3 09 3d 86 a3 75 3d af ca b0 bc
       -0.03251118 0.03367979 0.0599704 -0.021581022
000220 1a cb e2 3a aa 3a 34 3d bf 20 1e 3d 44 29 20 bd
       0.0017302961 0.04400126 0.038605448 -0.039101854
000230 64 6c 83 3b 49 6f c7 bc 85 67 5c bc 68 6b 73 bd
       0.004010724 -0.024345057 -0.013452415 -0.059428602
000240 88 11 d6 3c b5 e1 7d 3c 6b f2 8a bb d1 6c be bc
       0.026131406 0.015495707 -0.0042403243 -0.023245247
000250 ee 34 1b bd 1f 2f 46 bd c8 4e 13 bd 98 b2 f7 bc
       -0.037892275 -0.048384782 -0.035963804 -0.030236527
000260 f5 55 62 bc da bc a6 3b d4 29 e4 3c e8 56 dc 3b
       -0.013814439 0.005088431 0.027851976 0.006724227
000270 8a 3c 26 3a 7b 5c 51 bc 3c d8 ee bc 4d bf 5e 3d
       0.00063414185 -0.012778397 -0.029155843 0.054381657
000280 50 ba 2e bc a3 3c ad 3b 78 2e 2a 3d bc 5d db 3c
       -0.010664538 0.0052867695 0.041548222 0.026778094
000290 f0 8b 23 bd 9e 82 cd bc ac bc 3f bd 09 8e ee 3b
       -0.039928377 -0.025086697 -0.04681079 0.0072801155
0002a0 aa 94 6b bd 45 f3 1a 3d 3b f6 91 bb 2a 95 6a bc
       -0.057514824 0.037829656 -0.004454402 -0.01431779
0002b0 78 e3 3e bd 46 5d 8c bc f8 ab 41 bd 2d 5a 96 3b
       -0.04660365 -0.01713432 -0.047283143 0.0045883865
0002c0 73 78 18 3d 75 c5 48 3b 5c 67 31 3d 2e 12 2c bd
       0.037224244 0.0030635272 0.04331146 -0.042009525
0002d0 61 35 87 3c ed be 8b bc 92 02 3d 3d 96 6c 6d 3d
       0.016504945 -0.017058814 0.04614503 0.057964884
0002e0 e3 f6 2d 3b 66 1a 1d bd 4a 37 47 bc a8 c1 7f bd
       0.002654486 -0.038355254 -0.012159178 -0.062440544
0002f0 41 c3 8a 3c 46 cc 2c bd 32 a5 92 3c e6 df cf 3c
       0.016938807 -0.042186998 0.017901037 0.025375318
000300 57 05 37 3b e8 af d4 bc a8 34 8a bb 70 2c 57 bd
       0.0027926767 -0.025962785 -0.004217703 -0.052532613
000310 12 46 e4 3b dc ca dc bc 5d 8f 8b bc 7c d7 77 bc
       0.006966361 -0.0269522 -0.017036134 -0.015127059
000320 c2 77 77 3d e9 26 aa bc 4c 37 42 bd 41 9b 41 bd
       0.060416944 -0.020770507 -0.047416016 -0.047267202
000330 ea d4 57 3d 5b df 2c bc 9f a6 14 bd 6f 8d 6b 3d
       0.052693285 -0.010551299 -0.036291715 0.05750793
000340 85 59 45 bd 6a 4f 1b bc 8f 1a 47 bb e3 5f 1f 3d
       -0.048181076 -0.009479383 -0.003038082 0.038909804
000350 bc 03 61 3d ad af 98 bc f3 ba 18 bd e3 be ae 3c
       0.054935202 -0.018638456 -0.037287664 0.021331256
000360 c3 05 25 bd 32 d1 d1 ba 37 fe 6a 3c eb 32 07 bd
       -0.040288698 -0.001600778 0.014342836 -0.033007544
000370 31 bf 15 3b ce 89 1b 3c a1 d8 79 bd ac 79 69 bd
       0.0022849555 0.009493304 -0.06099761 -0.0570008
000380 7e f0 e4 bb 2f 62 ed 3c 9d fe 7b bd 07 89 35 3c
       -0.0069866767 0.028977482 -0.061522115 0.011080033
000390 b6 c6 a1 bc 6f df c9 bb 21 e9 e0 bc de df 8e bc
       -0.019748073 -0.0061606686 -0.027454915 -0.017440733
0003a0 e1 ae f2 ba 0c 0b e3 3c 4b c4 7c bd 26 c1 04 bd
       -0.0018515253 0.027715228 -0.061710637 -0.032410763
0003b0 04 57 7b bd 16 7d 27 3c 66 06 27 3d a2 02 62 3d
       -0.06136228 0.010222694 0.040777586 0.055178292
0003c0 ba 29 25 3d 9b 07 78 3d 62 9a cf bb df cb 7c bd
       0.040322997 0.06055413 -0.0063355425 -0.061717864
0003d0 8a 9a a8 bc 8b 07 0f 3a 61 22 ba bc 24 03 89 bc
       -0.020581502 0.0005456141 -0.022721471 -0.01672513
0003e0 54 84 0d 3c 3d d2 2a 3d e3 34 2b bb 4e 3e af bc
       0.0086375065 0.041704405 -0.0026124052 -0.021392014
0003f0 90 3d ef b9 70 88 5b 3d c6 06 af 3c 31 55 86 bc
       -0.000456315 0.053596914 0.021365535 -0.016398044

conv2.bias f4 [20]
000000 cb 1f f4 3b c0 6e 3b bd 76 20 6f bd df b6 ad 3c
       0.007450079 -0.045759916 -0.058380567 0.021205364
000010 1f 36 bc 3c aa b4 ab 3c f4 23 b8 3c fe 79 7a 3d
       0.022975026 0.02096017 0.022478081 0.061151497
000020 4e e8 2f bd de 47 60 bd b5 f6 e6 bc 14 96 fd 3b
       -0.042946152 -0.054756038 -0.028193811 0.007738838
000030 46 a2 19 bd 00 95 b9 3c 31 36 5e 3d 63 c0 a5 bc
       -0.03750827 0.022654057 0.0542509 -0.020233339
000040 c7 be 18 bc 6a 8e 4d bd 2d 0e 99 3c 6c b5 4d 3c
       -0.009322829 -0.050184645 0.018683517 0.012555461

fc1.weight f4 [50, 500]
000000 0a 1c da bc 20 1a 02 bb 7a e4 62 3c e1 53 af bc
       -0.026624698 -0.0019851997 0.013848418 -0.021402301
000010 a7 8c 29 3d b0 6a d9 bb e9 30 10 bd 5e f0 e0 3c
       0.041393902 -0.0066350326 -0.035202894 0.027458366
000020 20 89 08 3c ac 97 66 bc 94 2e df bc ca 8b fa 3c
       0.008333474 -0.014074247 -0.02724389 0.030584235
000030 ba 72 94 3c ff 7e af bb 93 48 f4 3c c9 c2 20 3d
       0.018121112 -0.0053557153 0.029819762 0.03924826
000040 de e8 ab 3c 8b 6a f8 bc a1 3b 98 3c 0e 36 35 bd
       0.020985063 -0.030324241 0.01858312 -0.044241004
000050 3c ec d8 bb 68 1b e5 bb bc 01 90 3c 01 80 35 bd
       -0.006619958 -0.0069917925 0.017578952 -0.044311527
000060 e0 66 4e ba b8 7b f4 3b 2e ad 30 3d 0c f5 b2 bb
       -0.0007873606 0.0074610375 0.043133907 -0.005461341
000070 21 09 28 3d 7b 76 12 3d 47 c0 2e 3d a0 b5 20 3d
       0.04102433 0.035757523 0.04266384 0.03923571
000080 f2 01 23 bd 4a 3a 26 bd e0 2d 85 bb 9f 15 20 3d
       -0.039796777 -0.040582933 -0.0040643066 0.03908312
000090 42 7d 05 bd 22 98 ad 3c 2e fc e0 3c cc 0f 0c bc
       -0.03259016 0.021190707 0.027463999 -0.008548688
0000a0 fe d5 c9 3c a1 83 24 3d e6 52 19 bd 39 05 e2 bc
       0.024638172 0.040164594 -0.037432574 -0.027590381
0000b0 62 07 cc 3c 5e 22 fb 3c 98 d5 c6 bb 63 29 0f 3d
       0.024905864 0.030656036 -0.006067943 0.03495158
0000c0 36 f4 0f bd b0 98 5f bb 8e 82 df bb 8c 0f d1 bc
       -0.035145007 -0.0034118108 -0.0068209833 -0.025520109
0000d0 04 57 5f 3c e7 70 d8 bc f1 aa 1c 3d 04 84 9b bc
       0.013631586 -0.026421024 0.03824896 -0.018983848
0000e0 91 6b 2b bc fb d6 b8 bc ff ae 2a 3d ce 28 b8 3c
       -0.010462658 -0.022563448 0.041670796 0.022480395
0000f0 a4 55 2e bc 44 2a 2a bd 89 4f 06 3d be 41 25 3d
       -0.0106405355 -0.041544214 0.032790694 0.0403459
000100 d5 3e 0c 3d dc 24 03 bd 2a 09 e7 3c e5 ce 89 bc
       0.03423961 -0.032017574 0.028202612 -0.016822288
000110 3f a9 b1 3b 49 7d 85 bc 50 22 04 bc 16 65 98 3c
       0.005421787 -0.016295092 -0.008064821 0.018602889
000120 aa 2a c5 bc 02 26 8d 3c d6 75 14 bd fe 10 0c 3d
       -0.024068195 0.017230038 -0.03624519 0.034195893
000130 bb b5 c1 3c 3a 72 d6 3c 96 ba f8 3c aa fa 43 bc
       0.023646226 0.026177514 0.030362409 -0.011961618
000140 12 cb d1 bc b4 a3 1b bd 52 08 d1 bc c3 25 b4 bc
       -0.025609527 -0.037997916 -0.025516663 -0.021990662
000150 94 20 9a bc ab c2 12 3d 31 c9 f7 bc 14 1b a2 3b
       -0.018814363 0.03583018 -0.030247303 0.0049470756
000160 66 00 f3 3c 80 92 9b bc 2c f7 91 bc d4 44 71 3c
       0.029663276 -0.018990755 -0.017818056 0.014725883
000170 79 06 a1 3c a3 76 20 bc 4c c9 03 bd d7 a7 2e 3d
       0.019656407 -0.00979391 -0.032174394 0.042640533
000180 c9 3d b0 3c a8 11 06 3d b1 02 28 3d 40 41 d6 3c
       0.021513836 0.032731682 0.04101819 0.02615416
000190 c0 14 d1 3c 5c 09 f1 3a b0 80 22 3d 59 ac 83 3c
       0.02552259 0.001838963 0.039673507 0.016073393
0001a0 2c b3 81 3c 4c 6e c4 bc 81 67 9a bc 18 b0 29 3d
       0.015832506 -0.023978375 -0.018848183 0.0414277
0001b0 91 5f 15 bd e6 b5 26 3d 2c a8 1a bd c2 a0 c4 bb
       -0.036468092 0.040700816 -0.037758037 -0.006000609
0001c0 64 12 66 bb 6f c8 be 3c 18 7b 4b 3c 1a 5f 26 bd
       -0.0035106177 0.023288934 0.012419485 -0.04061804
0001d0 45 8a 6c 3c bf 68 c5 3a 23 24 17 3d 6f 11 1d 3d
       0.014437263 0.0015061124 0.036899697 0.038346704
0001e0 2b 27 d6 bb 3d 7f 8c bb b8 fc 80 bb 4c d4 ab 3c
       -0.006535431 -0.004287629 -0.0039363764 0.020975254
0001f0 00 f1 0c bd c8 cc bd bc 5a 79 e7 bc 0c e9 fb bc
       -0.034409523 -0.023168936 -0.028256107 -0.030750774
000200 d5 fc cc bc 95 98 aa bb dd b4 23 bd 6d 37 2e 3d
       -0.025022903 -0.0052061775 -0.039967407 0.042533327
000210 9f 51 32 bb 4f 7f 95 bc 21 a5 b6 3c 90 a9 d0 bc
       -0.0027209294 -0.018249182 0.022295536 -0.025471479
000220 f8 24 af bc b5 56 ba bc 67 12 06 bd fc f2 08 3c
       -0.021379933 -0.022746423 -0.032732394 0.008358713
000230 a1 d4 2b 3d 0e b5 ea 3c da ad ad 3c 9a df 6c 3c
       0.041950826 0.028650787 0.021201063 0.014457608
000240 1b 5e 2f 3d 39 31 17 bd 27 1a 0c 3c c0 85 f0 3c
       0.042814355 -0.036912177 0.008551157 0.029360652
000250 b8 30 4f 3c 9a 06 dd 3c e8 b9 93 3c 71 0e 18 3d
       0.012645893 0.026980687 0.018032983 0.037123147
000260 f6 50 db 3c 23 92 77 bc 3a b5 87 3c f7 4f c6 3c
       0.026772004 -0.015110525 0.016565908 0.024208052
000270 80 88 24 3d f9 5b ce bc b3 55 74 bc 41 d7 84 bb
       0.04016924 -0.02519034 -0.01491301 -0.0040539806
000280 73 46 b3 3c bb a9 2a bd 61 56 8f bc 32 8d d9 bc
       0.021884179 -0.041665774 -0.017497243 -0.026556585
000290 8c ea 1f bd 8c 48 10 bd 5c d9 35 3c 9e 45 03 bd
       -0.03904204 -0.035225436 0.011099186 -0.032048814
0002a0 12 68 93 3c 79 9f 25 bd 14 eb 21 bd 72 cd 8c 3c
       0.01799396 -0.040435288 -0.03953083 0.017187808
0002b0 15 00 d1 3c 35 ad c7 3c 10 9e 05 3a 70 ad 27 3d
       0.025512734 0.024374584 0.00050971005 0.040936887
0002c0 ec fb 0f 3c f1 3e de bb 6a 75 b8 bc dc 5a 19 bd
       0.00878809 -0.0067824055 -0.022516925 -0.037440166
0002d0 31 e2 ab 3c 21 39 05 3d 19 a4 85 3c 40 68 07 3d
       0.02098188 0.032525185 0.0163136 0.033058405
0002e0 66 d9 06 3d c8 37 dd bb 6e 19 18 bd a2 07 a9 3c
       0.03292217 -0.0067510344 -0.037133627 0.020633522
0002f0 d2 f8 d3 bc 84 c5 28 3c c5 ef 2f 3d b8 99 80 39
       -0.025875483 0.010300998 0.04295327 0.00024528592
000300 e8 4a 04 3c a3 78 4e 3a 96 32 1c bd e7 00 89 3b
       0.0080745 0.00078762526 -0.03813418 0.004181016
000310 0e 68 06 3d 3d a5 c5 bb f8 24 2e bd ab 13 08 bd
       0.032814078 -0.006031661 -0.042515725 -0.03322188
000320 45 ec 16 bc ab e6 80 3c 01 5e d2 3c 83 c5 b3 bc
       -0.0092116045 0.015734991 0.02567959 -0.021944767
000330 ce 42 0b 3d 2a 13 d2 3c dc c4 40 bc 73 ef 2e 3d
       0.033999257 0.025643904 -0.011765685 0.042708825
000340 5f 93 0d bd 94 6c af bc d9 cb f1 ba 55 ac 32 bd
       -0.034564372 -0.021414079 -0.0018447592 -0.04362138
000350 fa 3e ec 3c ea 36 e9 3c eb 31 1a 3b 1f 4d ec 3b
       0.028838623 0.028468568 0.0023528289 0.007211342
000360 6a a4 15 3c d5 85 20 3d f8 d6 29 3d 95 46 e0 3c
       0.009133438 0.039190132 0.041464776 0.027377406
000370 52 cb 2c bd 3a 41 b4 3c 38 13 6d 3b 7e c3 14 3d
       -0.04218609 0.022003759 0.0036174785 0.03631925
000380 4d 10 dd bc be 0c 86 3c 2f e7 1d bd 00 fb 2e 3c
       -0.026985312 0.016363498 -0.038550552 0.01067996
000390 59 0a 33 bd c2 d7 b2 bc d5 fc ee 3b 19 d6 1c 3c
       -0.04371104 -0.021831397 0.0072933235 0.009572529
0003a0 e0 a1 96 bc 65 52 44 3c 76 23 73 bc 10 ae 81 3c
       -0.018387735 0.011982535 -0.0148399975 0.01583007
0003b0 e8 64 24 bc 52 a7 9e 3c bc 27 21 bb d8 57 87 3c
       -0.010033824 0.019366894 -0.0024590334 0.01652138
0003c0 c2 22 83 3b 1c 42 ec bc 0c a0 86 bc ed 02 b0 3c
       0.004001946 -0.028840117 -0.016433738 0.02148577
0003d0 c4 5b f4 ba 3a 75 ba 39 ac c6 b5 bb 18 9f 1f 3c
       -0.0018643071 0.00035564025 -0.005547365 0.009742521
0003e0 07 91 8b bc 37 ac 93 39 d6 c9 f3 bc 95 dd 0c bd
       -0.017036928 0.00028166335 -0.029759329 -0.034391005
0003f0 4c 46 17 3b bd 16 02 3d b8 47 02 bd 9b ce 06 3d
       0.0023082672 0.031759966 -0.031806678 0.032911878

fc1.bias f4 [50]
000000 33 2a 65 3c f9 f2 2b 3d 89 bd dd 3c 1d 06 5b bc
       0.013987112 0.041979764 0.027067916 -0.013368157
000010 46 cb 78 bb d2 4c 0b bd 00 6a db 3c d6 3e e7 bc
       -0.0037962957 -0.03400881 0.026783943 -0.028228205
000020 cf 93 3d bc 0a d4 e9 3c ad ff 48 bc cf 50 f8 3c
       -0.011570885 0.02854349 -0.012267989 0.03031197
000030 19 6b a3 bb c9 c9 a6 bc 23 88 8e ba d8 a3 6e bc
       -0.0049871323 -0.02035989 -0.0010874312 -0.014565431
000040 82 a3 91 3b 95 c9 90 3c ef 02 28 3d 0a 49 d4 3c
       0.0044445405 0.017674247 0.041018423 0.025913734
000050 b5 bc 62 3c e0 e2 19 3c e4 0a 05 3d cd de 1e bd
       0.013838937 0.00939247 0.03248109 -0.038786698
000060 71 0e 13 3d 78 e0 8c 3b 69 2d c9 bc 21 44 b3 3c
       0.035902444 0.0042992197 -0.024557786 0.021883072
000070 4c 1c af ba b0 78 57 3c 80 33 05 bd 82 68 ea 3c
       -0.0013359874 0.013151333 -0.032519817 0.028614286
000080 66 98 54 3b d4 ba f0 3c 75 d6 07 bd 29 0c 2c bd
       0.003243947 0.029385962 -0.033163507 -0.042003784
000090 94 1a 52 3b c9 73 05 3d bd fd 10 3d d9 3c c0 ba
       0.0032059299 0.032581124 0.035398234 -0.0014666572
0000a0 5b ff 0f ba 62 8b 1b bd 73 b4 b7 ba 17 cb 25 bb
       -0.0005493068 -0.037974723 -0.001401557 -0.0025298053
0000b0 fc a2 91 3b 7f 6d 2e 3b f7 11 c3 ba 3e 88 2d ba
       0.004444478 0.0026615558 -0.0014882673 -0.0006619728
0000c0 c5 42 07 3c ff a9 9b 3c
       0.008255665 0.019001959

fc2.weight f4 [9, 50]
000000 ab 56 75 bd 11 58 00 3e b1 9f e2 3d b7 87 80 bd
       -0.059897106 0.12533595 0.11065615 -0.062758856
000010 39 44 04 3e bf 32 38 3d fb 7c 81 3d c9 e4 43 3b
       0.1291665 0.04497027 0.06322666 0.0029891005
000020 ea 19 a4 bd d6 90 96 bd 5f 25 07 bd 67 8a 09 bb
       -0.08012755 -0.07351844 -0.032994624 -0.0020987035
000030 f3 39 d0 bd 3e 47 aa bd 90 e4 d8 bd 4e 8e e6 3d
       -0.10167303 -0.083143696 -0.1059047 0.11257611
000040 c4 c8 7f bd bb e8 a2 bd 3b e0 cd 3d 67 7d c7 bc
       -0.062447324 -0.07954546 0.10052534 -0.024351789
000050 95 ac 3d bd df ef 72 3d 5a 33 a1 3d 61 a6 d4 bd
       -0.046307165 0.05931079 0.07871123 -0.10383297
000060 80 5d c7 bc 9f d9 86 bd 81 66 8b bd 91 ba 06 be
       -0.024336576 -0.06584477 -0.068066604 -0.13157107
000070 58 9b 0a 3e 23 5f 5d bb 43 18 e6 3d e5 bd 79 bd
       0.13535821 -0.003377863 0.11235096 -0.060972113
000080 40 b1 35 bd 8b 8f 64 bd bc 19 61 3d 1b d2 14 3d
       -0.044358492 -0.055800956 0.054956183 0.036333185
000090 1a 83 fb bc 50 bc ba 3d fd 4a f2 3d a5 af 2b 3d
       -0.030702163 0.09117949 0.11830709 0.041915555
0000a0 2f 51 0e 3e a6 88 ac 3d fd 0b ce 3d 05 86 96 3c
       0.13898157 0.08424501 0.1006088 0.018374452
0000b0 81 a7 81 bd 61 eb e3 3c e7 11 a6 3d e7 02 42 bd
       -0.06330777 0.027822198 0.08108883 -0.04736605
0000c0 87 24 0f bd 32 36 f2 bd 90 3e 5f 3b 5b a6 09 3e
       -0.034946945 -0.11826743 0.003406439 0.13442366
0000d0 19 90 41 bd d1 fc b4 bd ae e1 48 3d d6 21 53 3c
       -0.047256563 -0.088372834 0.04904335 0.012886485
0000e0 4a 62 aa bd 7e b0 61 bd df 7b 0e be e8 d4 74 3d
       -0.083195284 -0.055099957 -0.1391444 0.059773356
0000f0 a9 34 a6 3d dc ca 8f bd 91 06 6b bd 1e 98 22 bd
       0.08115513 -0.07021114 -0.05737931 -0.03969585
000100 2b a5 af 3d e1 f7 b7 3d 5e 7a 84 3d b9 12 c5 3d
       0.08576425 0.08982826 0.06468652 0.09622712
000110 8b d0 08 be 1b 0c ba bd 9e 28 02 bd cc c0 94 bd
       -0.13360803 -0.0908434 -0.031777017 -0.072633356
000120 72 89 00 be 20 bd 66 bd a3 37 15 bc 6b 3b 4e bc
       -0.12552431 -0.056332707 -0.009107503 -0.012587409
000130 67 17 c3 3d 22 1a 9f 3d 41 7f b5 bd a5 02 ec bd
       0.09525948 0.07768656 -0.088621624 -0.11523942
000140 d9 cf b9 3d 51 10 04 bc 90 aa ff 3d b4 8b fc bd
       0.09072847 -0.008060531 0.12483704 -0.12331334
000150 ba 90 a5 bd 9f 92 a2 bc dd 14 d6 bc 8d 2b 8f 3d
       -0.08084245 -0.019845305 -0.026132995 0.069907285
000160 fe ea 08 be 34 7c d1 3d ec cd 5f bd a7 ba 8b bd
       -0.13370892 0.10228768 -0.05463974 -0.068227105
000170 91 d7 89 3d 7d 13 f1 bc a8 99 f6 bd df bc e6 3d
       0.06730569 -0.029428238 -0.12041026 0.11266493
000180 1f 9a 7e 3d ae e0 fa bc 6d c4 08 be c0 83 58 bd
       0.0621587 -0.030624714 -0.1335618 -0.05286002
000190 02 7c 56 bd 44 03 fc bc bc 70 bb bd 8e 7b 01 be
       -0.052364357 -0.030763276 -0.09152362 -0.12644789
0001a0 5e 65 d3 bd c2 f7 71 bd 9d 7e 03 3e 26 a4 4c bd
       -0.10322069 -0.05907417 0.12841268 -0.04996123
0001b0 be 97 db bd 90 ca cd bc 90 43 ab bc 0a 46 d7 bd
       -0.10722302 -0.025121003 -0.02090624 -0.10511406
0001c0 22 4c a8 3d ea 83 9a 3d 60 85 d8 3c a8 ad 55 3d
       0.08217646 0.07544692 0.026430786 0.052167565
0001d0 76 7e b1 3d f8 39 40 bd b0 83 74 3d f6 87 b5 3d
       0.08666699 -0.046930283 0.0596959 0.08863823
0001e0 a2 25 fa 3d 0e 67 ad 3d a4 05 7d 3d 40 e4 4a bc
       0.12214209 0.08466922 0.061772957 -0.012383521
0001f0 22 6f e0 bd a6 ba a4 3d e2 fe eb 3d 38 f4 a3 3d
       -0.10958697 0.08043413 0.115232244 0.080055654
000200 78 c9 b5 bd 32 65 8b 3d ba 74 b6 bd 3c 84 91 3d
       -0.08876318 0.06806411 -0.089089826 0.071053
000210 3b 5a 05 3e a6 70 c8 3d 50 bd 4f 3c ec 61 c6 bd
       0.13022701 0.09787111 0.012679413 -0.09686646
000220 50 28 07 bd 92 81 48 bd 8c a7 ee bd 90 55 43 3c
       -0.03299743 -0.048951693 -0.11653051 0.011922255
000230 d2 b0 99 3d 00 86 5b bb ea a7 e6 3d 5c 28 a5 3d
       0.07504429 -0.0033496618 0.11262496 0.080643386
000240 77 7f 0b be 80 77 d1 3b b8 77 f3 3c 20 71 f3 bb
       -0.13622843 0.0063924193 0.029720172 -0.007429257
000250 f8 0f bf bd de 91 5d bd 40 d1 7f 3c 26 67 6e bd
       -0.09329218 -0.054094188 0.015613854 -0.05820384
000260 26 34 0b bd 3c 92 e6 bd 1c ef bb 3d e0 7c a2 3b
       -0.03398528 -0.11258361 0.09176466 0.004958734
000270 04 ef c9 3d 90 15 67 bd 2c 1d 8e bc da 47 4a bd
       0.09860042 -0.056417048 -0.017347895 -0.04938493
000280 b0 55 6d bc fc 69 90 bc c8 f6 b9 bc da e2 60 bd
       -0.0144857615 -0.017628662 -0.022700682 -0.054903843
000290 d9 93 04 3e 46 f7 08 be 02 61 9d 3d f3 8c 02 3e
       0.12947024 -0.13375577 0.076845184 0.1274908
0002a0 a0 c3 6a bd 87 b7 8f bd 09 3f 04 3e 32 5a e0 bd
       -0.05731547 -0.07017427 0.12914671 -0.109547034
0002b0 18 05 4c 3d 06 d0 9a 3d 93 a0 e6 bd 78 79 d6 3c
       0.049809545 0.075592086 -0.11261096 0.026180968
0002c0 90 e8 74 bd 80 50 65 3d f4 ba 83 3d 54 9d 46 3d
       -0.0597921 0.055984974 0.06432143 0.048489884
0002d0 e8 ab 7c bd 79 3e cf bd c8 25 b8 bc 62 3b a5 3d
       -0.06168738 -0.101193376 -0.022478953 0.08067967
0002e0 88 eb 0e 3d 4c 53 45 3d fa f0 e7 3d 96 42 97 3d
       0.03489259 0.04817514 0.113252595 0.07385747
0002f0 ae b8 e4 3d 90 87 2c bc d8 0b 6e 3d 0a 33 52 bd
       0.11168037 -0.0105303675 0.058116764 -0.051318206
000300 00 d5 06 bc 14 05 e7 bc a6 fc a1 3d e2 28 dd 3d
       -0.008229494 -0.028200664 0.07909517 0.107988134
000310 4a d8 b6 bd 80 42 33 3c 48 0a ab bc 7a c7 0b bd
       -0.089279726 0.010941148 -0.020878926 -0.034125783
000320 4d 3d 81 3d 97 84 1b bc 8d c1 70 3d 04 38 2a 3d
       0.0631052 -0.009492061 0.058778334 0.041557327
000330 11 31 0b bc cc e6 1a 3d c4 10 ee 3d e7 ca 7a 3d
       -0.008495585 0.03781776 0.116242915 0.06122866
000340 60 82 76 bd e7 1d 23 3d 8c a3 ac 3d 4b 7a 46 3c
       -0.06018293 0.03982344 0.084296316 0.012114118
000350 48 06 81 3c a9 09 f0 3c 04 84 9b 3d 43 ff e9 3d
       0.015750065 0.029301481 0.07593539 0.114256404
000360 ce c9 0f 3d f0 a1 bd 3c ce 4b f8 3b 32 70 6b bd
       0.035104565 0.023148507 0.007577396 -0.057480045
000370 e1 4e 10 3c 07 67 bd bc 52 2b e1 3d 47 e5 08 be
       0.008807869 -0.023120416 0.10994591 -0.13368712
000380 d3 4e 13 3d a5 5c 18 bb 00 47 15 3a dc 1b 91 bc
       0.035963845 -0.002324858 0.0005694479 -0.01771348
000390 e4 59 fd bd b2 b9 48 3d fb ee eb 3d f0 15 ce 3d
       -0.12370661 0.049005218 0.11520191 0.10062778
0003a0 03 44 e2 3d ce 26 0c bd c6 62 7f bd 48 5a d5 3d
       0.110481285 -0.034216695 -0.062350057 0.104176104
0003b0 9d b6 65 bd cd 3a 0d be 9e f8 de 3d ef 8b 0d 3e
       -0.056082357 -0.13791962 0.10887264 0.13822912
0003c0 e0 17 33 bc 08 db ac bc 4a 73 c5 3d 24 e5 c8 3d
       -0.010930985 -0.021100536 0.0964113 0.0980933
0003d0 71 77 71 bc 18 ed 76 3c c1 59 c7 bd af cf 0b be
       -0.01473795 0.015071176 -0.09733916 -0.13653444
0003e0 4f d0 bf bd 1d 28 f1 3d fa d3 d9 3d bf 45 fc bd
       -0.093659036 0.11775229 0.106361344 -0.123179905
0003f0 4a 6b df bd 28 0f 0c 3e 4a 6c d3 bd 8a 1e 48 bd
       -0.10909136 0.13677657 -0.10323389 -0.04885725

fc2.bias f4 [9]
000000 7c 92 9a 3d 09 63 38 3d 46 09 00 be 38 10 06 be
       0.07547471 0.045016322 -0.12503538 -0.13092124
000010 f5 6a a0 bd 47 1d 87 bd 59 55 8b 3c 7f 92 a3 3d
       -0.078329004 -0.06597381 0.01700847 0.07986926
000020 e4 fc c1 bd
       -0.09472063
