GameAIFinalProject/model/model_mymodel71.pth (torch_old, 126465 bytes, 8 tensors)

conv1.weight f4 [10, 3, 5, 5]
0	0xbda3112b	-0.07962259
1	0x3d96cd37	0.073633604
2	0xbd899372	-0.06717576
3	0xbd0b18ab	-0.033959072
4	0x3dcfc33e	0.10144661
5	0x3d868235	0.06567804
6	0x3def6cca	0.11690672
7	0x3cff6fd4	0.031181253
8	0xbda2b3bd	-0.079444386
9	0xbd62bd7d	-0.05535649
10	0xbda6eaf6	-0.08150284
11	0x3dbd0c30	0.0923084
12	0xbd1b8573	-0.037969064
13	0x3de51277	0.111851625
14	0x3dab842e	0.08374821
15	0x3d740896	0.0595785
16	0x3db29675	0.08720104
17	0xbd87ef18	-0.066374004
18	0x3d3df096	0.04637202
19	0x3d103e7c	0.03521584
20	0xbdaba9d3	-0.08382001
21	0x3dccaee6	0.09994297
22	0xbd412c55	-0.04716142
23	0xbdd48544	-0.10376981
24	0xbd73766c	-0.059439108
25	0xbdb0ba28	-0.086292565
26	0xbddf67ff	-0.109085076
27	0x3db6e146	0.08929686
28	0xbc9334c9	-0.017969506
29	0xbb959ab3	-0.0045655607
30	0xbd7291d0	-0.05922109
31	0x3da51943	0.08061459
32	0x3d924f4f	0.07144033
33	0xbda33e37	-0.07970851
34	0x3d9b1ede	0.07574247
35	0x3cb58a59	0.022160696
36	0x3c39f13b	0.011349018
37	0xbcfe5230	-0.03104505
38	0xbddc25fc	-0.107494324
39	0xbc55ba7a	-0.013044948
40	0xbc7a4bbc	-0.015276846
41	0x3b7516da	0.0037397654
42	0xbd061a4c	-0.032739922
43	0x3c9c15f9	0.019053446
44	0xbd510bad	-0.051036526
45	0x3ac151a9	0.0014749068
46	0xbd7fa20e	-0.062410407
47	0x3d7df628	0.06200233
48	0xbcdd6cb6	-0.027029376
49	0x3c1c1d62	0.00952849
50	0xba888330	-0.0010415073
51	0x3d92160e	0.07133113
52	0xb9831de2	-0.00025008532
53	0xbca85c2d	-0.020551765
54	0x3d942a61	0.07234646
55	0x3b6cefdc	0.003615371
56	0xbdb610b1	-0.088899024
57	0x3d908585	0.07056717
58	0x3d136b4e	0.035991006
59	0xbca3ab38	-0.019979104
60	0xbd35b8c4	-0.04436566
61	0x3d516fc1	0.051131967
62	0x3c9838ca	0.018581767
63	0x3db4cc6f	0.08828055
64	0x3da747d5	0.08167998
65	0x3db310de	0.087434515
66	0xbc66bd74	-0.014083255
67	0xbc1447b9	-0.009050303
68	0xbdb416f1	-0.08793438
69	0x3d253015	0.040329058
70	0xbdcaa288	-0.098942816
71	0xbc8466aa	-0.016162235
72	0xbd2ce445	-0.042209882
73	0x3c99c3af	0.018770067
74	0xbd79749d	-0.060902227
75	0x3c03ac05	0.008036618
76	0x3d18a270	0.037264287
77	0xbd70dfb0	-0.058807075
78	0x3dbe3d4b	0.092890345
79	0x3dca8119	0.09887905
80	0xbcf2627e	-0.02958798
81	0xbddda672	-0.108227625
82	0xbd88b2c9	-0.066747256
83	0x3dbd1a74	0.09233561
84	0xbd9c0787	-0.07618623
85	0xbd834e29	-0.06411392
86	0x3d9c5d43	0.07634976
87	0xbd4783b7	-0.048709597
88	0x3cbe757d	0.023249382
89	0xbd954a0d	-0.07289515
90	0xbde7aadc	-0.11311886
91	0x3dbc806f	0.09204184
92	0xbbfe035c	-0.0077518653
93	0x3d953e7b	0.07287308
94	0x3d2370d9	0.03990254
95	0xbd240e24	-0.040052548
96	0xbd43ac4f	-0.04777175
97	0xbd73bc41	-0.059505705
98	0x3cfcf989	0.030880706
99	0x3c83fde4	0.016112275
100	0xbcf27e96	-0.029601377
101	0x3d9c52ee	0.07633005
102	0x3c9a4b05	0.0188346
103	0x3dc55a4f	0.096363656
104	0xbd859291	-0.06522096
105	0xbca0a7e4	-0.019611306
106	0xbdd51ac5	-0.104054965
107	0x3c9344d7	0.017977161
108	0x3cdd6365	0.027024934
109	0xbd776c79	-0.060406182
110	0x3c0b2640	0.008493006
111	0x3d883b9b	0.06651994
112	0xbce9ce34	-0.028540708
113	0x3de6ac3c	0.1126332
114	0xbd6a476e	-0.057197027
115	0xbc40ac01	-0.011759759
116	0xbd5a8e97	-0.05335864
117	0x3de1f2f0	0.11032665
118	0x3ddb6c1b	0.10713979
119	0x3d8a3fd5	0.06750456
120	0x3d422f3a	0.04740832
121	0xbdd054d8	-0.10172433
122	0x3bdbfdf1	0.006713622
123	0x3d54ef77	0.051986184
124	0x3c712495	0.0147181945
125	0x3d60db76	0.054896794
126	0x3c5e2265	0.013558005
127	0xbdd74c07	-0.10512548
128	0xbb9a47e7	-0.0047082785
129	0xbd3cee96	-0.04612597
130	0x3d416c45	0.047222394
131	0xbc867b95	-0.01641635
132	0xbde7a20b	-0.11310204
133	0x3dbec16f	0.09314238
134	0x3d2ff857	0.042961445
135	0xbdcb06a4	-0.09913376
136	0x3cd952c6	0.026528727
137	0x3d343fde	0.04400622
138	0xbdcf9e92	-0.10137667
139	0x3dc8254c	0.09772739
140	0xbd83ac32	-0.06429328
141	0xbca1fd2f	-0.019774048
142	0x3dc7893f	0.097429745
143	0xbd8dcf0b	-0.06924256
144	0xbdbf9fbf	-0.09356641
145	0x3dbc930c	0.092077345
146	0xbc682205	-0.014168267
147	0x3db6aeff	0.089200966
148	0xbd96fb34	-0.07372132
149	0xbd65164d	-0.05592947
150	0xbd1c8e00	-0.03822136
151	0xbda58f6c	-0.08083996
152	0xbd08db2c	-0.033412144
153	0x3c7e77b9	0.015531474
154	0xbc9653fc	-0.018350594
155	0xbbc7333f	-0.006079107
156	0x3d533f4c	0.051574036
157	0x3d79be30	0.060972393
158	0x3dd901b6	0.105960295
159	0x3d50a205	0.050935764
160	0xbd9cc99c	-0.076556414
161	0x3d9dd400	0.077064514
162	0xbd94b06a	-0.07260211
163	0x3cb3e08d	0.02195766
164	0x3d8af861	0.06785656
165	0x3db8524f	0.09000074
166	0xbdd56a9c	-0.10420725
167	0xbd976780	-0.07392788
168	0x3d779bc1	0.060451273
169	0x3c35b49a	0.011090422
170	0xbdcca5e4	-0.099925786
171	0x3bd81c89	0.0065951985
172	0xbdbecfe6	-0.09316997
173	0xbd30426f	-0.043032106
174	0xbde37847	-0.111069255
175	0xbd8abb02	-0.0677395
176	0xbd6891de	-0.056779735
177	0xbdb2d0de	-0.087312445
178	0x3ddcf740	0.10789347
179	0x3db9c354	0.09070459
180	0x3ca3f264	0.020013042
181	0xbca7c6e9	-0.02048059
182	0x3c0aec2a	0.008479157
183	0x3cc146ff	0.023593424
184	0xbd86fcae	-0.065911636
185	0xbd685366	-0.05672016
186	0xbc7e10a9	-0.015506902
187	0x3d99d1a1	0.07510687
188	0xbd69ef53	-0.057113003
189	0xbd8cfe61	-0.068844564
190	0xbd04af05	-0.032393474
191	0xbde79ddc	-0.11309406
192	0xbb3dde57	-0.0028971636
193	0x3dafa4d9	0.08576364
194	0xbd073c81	-0.033016685
195	0xbd1a26b3	-0.037634563
196	0xbd8f95ae	-0.07010971
197	0x3c3fccdf	0.01170656
198	0xbcf8a0ff	-0.030350206
199	0x3c5391e2	0.012913199
200	0xbd62038a	-0.055179156
201	0x3d8bade8	0.06820279
202	0xbdbaa962	-0.091143385
203	0xbd401202	-0.046892174
204	0xbdc3a7c3	-0.095534824
205	0xbca4e10b	-0.02012684
206	0xbdbfb1e3	-0.09360101
207	0x3cf43481	0.029810192
208	0x3c9ab482	0.018884901
209	0xbca5066d	-0.020144666
210	0xbce46dad	-0.027884329
211	0x3d0919df	0.03347194
212	0x3d32fd11	0.043698374
213	0xbba9c405	-0.005180838
214	0xbda173f7	-0.07883447
215	0xbdcc698f	-0.09981071
216	0xbde7e3dd	-0.11322758
217	0x3d04e27a	0.032442547
218	0x3b812d85	0.003942194
219	0x3d9d5e13	0.07683959
220	0x3d9e0649	0.077160425
221	0xbdb337b7	-0.08750861
222	0x3c435561	0.011922211
223	0x3d407341	0.046984915
224	0xbd69a7a2	-0.057044633
225	0xbd965eb2	-0.073422804
226	0x3c77a2c6	0.015114492
227	0x3c5455e2	0.012959929
228	0xbde2d7bc	-0.11076304
229	0xbde61d7d	-0.11236093
230	0x3ca6b9ac	0.020352207
231	0x3d300ea7	0.042982724
232	0x3dbe409f	0.09289669
233	0x3d34c852	0.044136353
234	0xbda8ada8	-0.08236247
235	0xbd367132	-0.044541545
236	0xbd00c410	-0.03143698
237	0xbda73633	-0.081646346
238	0x3bfb9f90	0.0076789334
239	0x3c33fc7a	0.010985488
240	0xbde8f673	-0.113751315
241	0x3dba079b	0.09083482
242	0xbbff9133	-0.0077992915
243	0x3db548a5	0.088517465
244	0x3c44f707	0.0120217865
245	0xbd9b9716	-0.07597177
246	0x3dc4ccd3	0.096093796
247	0x3d8ec134	0.06970444
248	0x3d7487fb	0.059699994
249	0xbd795168	-0.06086865
250	0xbd6d5770	-0.057944715
251	0x3d947757	0.07249325
252	0x3d2187a8	0.039436013
253	0xbcc47061	-0.023979368
254	0x3bc1c40d	0.0059132637
255	0x3db80c8c	0.08986768

conv1.bias f4 [10]
0	0xbc1f0c25	-0.009707485
1	0xbda0959e	-0.07841037
2	0x3dd806c3	0.10548165
3	0x3cb6d2af	0.022317259
4	0x3d64c908	0.05585578
5	0x3c605e6e	0.013694389
6	0x3d8ad513	0.06778922
7	0x3ad19203	0.001598895
8	0xbd6e532a	-0.05818478
9	0xbcbd1487	-0.023081077

conv2.weight f4 [20, 10, 5, 5]
0	0x3d4506f6	0.04810234
1	0xbcbe436a	-0.023225505
2	0xbcdc9050	-0.026924282
3	0xbd0a8b43	-0.033824217
4	0x3d652291	0.05594117
5	0x3ce33c93	0.027738845
6	0xbd59760b	-0.05309109
7	0x3d1031e6	0.035203837
8	0x3d11c356	0.035586677
9	0xbc81bbbe	-0.015836593
10	0xbd5ebc1a	-0.054378606
11	0x3c539d8b	0.012915979
12	0x3cb04cb6	0.021520954
13	0x3c4964f1	0.012292133
14	0xbd2ac4f3	-0.04169173
15	0xbcc17178	-0.023613676
16	0xb89f39d7	-7.592484e-05
17	0xbc80b1ce	-0.015709784
18	0xbcf01c85	-0.029310474
19	0x3d1f191e	0.038842313
20	0x3d009183	0.03138877
21	0x3ccb0f00	0.024787426
22	0x3d3cbac9	0.04607657
23	0xbc86e955	-0.016468683
24	0xbd3f3720	-0.04668343
25	0x3d1708bd	0.036873568
26	0xbc292736	-0.01032429
27	0xbd3c4ff7	-0.045974698
28	0xbbadd218	-0.005304586
29	0xbd6e7b0b	-0.05822281
30	0xbd37ee73	-0.044905137
31	0x3d7879cf	0.06066304
32	0xbd67c827	-0.056587365
33	0xbc5a3c9c	-0.013320114
34	0x3c8f9024	0.017524786
35	0xbbc0297b	-0.00586432
36	0x3a11c646	0.0005560856
37	0xbc359aa5	-0.011084233
38	0x3d77ea28	0.060526043
39	0xbd148c52	-0.036266632
40	0x3d66e2c1	0.056368593
41	0x3c903fbc	0.017608516
42	0x3d78e2be	0.060763113
43	0xbcd10f8f	-0.025520114
44	0xbc4496e2	-0.011998864
45	0x3d64ace4	0.055828944
46	0x395035d8	0.00019856484
47	0xbcfcf8de	-0.030880388
48	0xbc51aa0a	-0.012796888
49	0xbc06ec97	-0.008235118
50	0xbd1d1db7	-0.038358416
51	0xbbd737b3	-0.006567919
52	0x3cf07e06	0.029356968
53	0xbd1c7d5a	-0.038205482
54	0xbd525d13	-0.051358294
55	0xbd60cf85	-0.054885406
56	0xbd0816ce	-0.033224873
57	0xbd26ac22	-0.040691502
58	0xbd019256	-0.031633697
59	0x3c8d5f8c	0.017257474
60	0x3d63e79c	0.0556408
61	0xbd0ac31e	-0.033877485
62	0xbd6b0567	-0.0573782
63	0x3cd797b8	0.026317462
64	0x3d71548f	0.058918532
65	0xbd2a8b91	-0.041637007
66	0x3a375859	0.0006994061
67	0x3b486282	0.0030576293
68	0x3d640e50	0.055677712
69	0x3d2a6885	0.041603584
70	0x3bb4b15c	0.005514307
71	0xbce158ec	-0.027508222
72	0x3d390f30	0.0451805
73	0xbac28adc	-0.0014842409
74	0x3d313688	0.043264896
75	0x3b34d580	0.0027593076
76	0xbd495583	-0.049153816
77	0xbbe84f48	-0.007089529
78	0x3d6e6ade	0.058207385
79	0xbd0d5811	-0.034507815
80	0xbca66f37	-0.020316703
81	0xbd6b9b72	-0.05752129
82	0x3c9ea326	0.019364905
83	0x3d216bad	0.03940933
84	0xbd7f4e03	-0.062330257
85	0xbd1c5eb8	-0.03817627
86	0xbd3b3fb5	-0.045715053
87	0x3c96939f	0.018380938
88	0xbd4025bb	-0.046910983
89	0x3d62031f	0.055178758
90	0x3d66658c	0.056249186
91	0x3d0d9ee7	0.03457537
92	0xbd487ce1	-0.04894722
93	0x3d63671e	0.055518262
94	0xbc91c66d	-0.017794812
95	0xba603c0f	-0.00085538713
96	0xbd2ce8dc	-0.04221426
97	0xbd707bac	-0.058711693
98	0x3d3f222f	0.04666346
99	0x3d217a27	0.039423134
100	0xbcdd49f6	-0.027012806
101	0x3cc079c3	0.02349556
102	0x3cce91f5	0.025216082
103	0xbd0b8dd0	-0.03407079
104	0xbd22e623	-0.039770257
105	0xbd67ab7c	-0.056560025
106	0xbcf6084c	-0.030033253
107	0xbd1c7b00	-0.03820324
108	0x3cf9d89e	0.030498799
109	0xbcc7585e	-0.024334129
110	0xbad2cc83	-0.0016082678
111	0x3d5b0f4a	0.053481378
112	0x3bef8593	0.0073096245
113	0x38e58c9d	0.00010945762
114	0x3d10a87a	0.03531692
115	0xbd692089	-0.056915794
116	0x3d0152d9	0.03157315
117	0x3b1b175e	0.002366505
118	0x3c6aec78	0.014338605
119	0x3ce1e14b	0.027573248
120	0xbd17e2df	-0.037081596
121	0x3b987b71	0.0046533872
122	0x3d6aa6cf	0.057287987
123	0x3ccc2a3d	0.024922485
124	0xbc1eb148	-0.009685822
125	0x3ceda729	0.029010372
126	0x3ca0ff75	0.019653061
127	0xbd515080	-0.05110216
128	0x3d059338	0.032611102
129	0xbd17c3dc	-0.03705202
130	0xbd6955e4	-0.056966677
131	0x3ade60e8	0.0016966136
132	0xbd052d5b	-0.032513957
133	0x3d09f128	0.03367725
134	0x3d75a204	0.059968963
135	0xbcb0c647	-0.021578921
136	0x3ae21d53	0.0017251171
137	0x3d343689	0.04399732
138	0x3d1e1d71	0.038602296
139	0xbd202d6a	-0.03910581
140	0x3b836c7d	0.0040107355
141	0xbcc76632	-0.024340723
142	0xbc5c454a	-0.013444254
143	0xbd736288	-0.05942014
144	0x3cd6254c	0.026140831
145	0x3c7df1b6	0.015499523
146	0xbb8ac53a	-0.004234937
147	0xbcbe6743	-0.023242598
148	0xbd1b27da	-0.037879802
149	0xbd4624e5	-0.04837503
150	0xbd133338	-0.035937518
151	0xbcf79089	-0.030220287
152	0xbc61cdd6	-0.013781985
153	0x3ba7ec01	0.0051245694
154	0x3ce45342	0.027871732
155	0x3bdd233b	0.0067485846
156	0x3a2a3baa	0.0006493876
157	0xbc50cd9c	-0.012744334
158	0xbceea99d	-0.029133612
159	0x3d5ed2f9	0.054400418
160	0xbc2e96fa	-0.010656113
161	0x3bad65f4	0.005291695
162	0x3d2a40a0	0.041565537
163	0x3cdb7bbd	0.026792401
164	0xbd237e39	-0.039915297
165	0xbccd7a4a	-0.025082726
166	0xbd3fb727	-0.046805527
167	0x3bef06cb	0.007294511
168	0xbd6b8ba5	-0.057506222
169	0x3d1afbac	0.03783767
170	0xbb9177da	-0.0044393362
171	0xbc6a9b54	-0.01431926
172	0xbd3ee365	-0.04660358
173	0xbc8c5aa9	-0.017133074
174	0xbd41a842	-0.047279604
175	0x3b96f0d7	0.004606347
176	0x3d188a38	0.03724119
177	0x3b49286c	0.003069426
178	0x3d317967	0.04332867
179	0xbd2c09dc	-0.04200159
180	0x3c874186	0.016510736
181	0xbc8bba45	-0.017056594
182	0x3d3d09be	0.04615187
183	0x3d6d76df	0.057974692
184	0x3b2e9ed1	0.0026644955
185	0xbd1d1aab	-0.03835551
186	0xbc473166	-0.012157774
187	0xbd7fc2b5	-0.062441546
188	0x3c8ac4f5	0.01693962
189	0xbd2ccad0	-0.042185605
190	0x3c92a137	0.017899139
191	0x3ccfe2a7	0.025376631
192	0x3b36fe0a	0.0027922415
193	0xbcd4ae5d	-0.02596205
194	0xbb8a394b	-0.0042182556
195	0xbd572cab	-0.052532833
196	0x3be481f8	0.0069735013
197	0xbcdccb3c	-0.026952378
198	0xbc8b9075	-0.017036656
199	0xbc77cdb5	-0.015124728
200	0x3d7781aa	0.06042639
201	0xbcaa237d	-0.020768875
202	0xbd42374e	-0.047416024
203	0xbd419333	-0.04725952
204	0x3d57cf07	0.05268767
205	0xbc2cc5c9	-0.0105452025
206	0xbd14a434	-0.03628941
207	0x3d6b9b69	0.057521258
208	0xbd454dc3	-0.048169862
209	0xbc1b469f	-0.009477287
210	0xbb47032e	-0.0030366885
211	0x3d1f610c	0.03891091
212	0x3d610dd4	0.05494483
213	0xbc989a73	-0.018628335
214	0xbd18b2fa	-0.03728006
215	0x3caec15a	0.021332432
216	0xbd250434	-0.04028721
217	0xbad1a5f0	-0.0015994888
218	0x3c6b12d3	0.01434775
219	0xbd072b87	-0.033000495
220	0x3b163191	0.0022917727
221	0x3c1ba494	0.009499688
222	0xbd79d65c	-0.060995445
223	0xbd69797c	-0.057000622
224	0xbbe4ca0e	-0.0069820946
225	0x3ced662d	0.028979385
226	0xbd7c006f	-0.06152385
227	0x3c3578ed	0.011076194
228	0xbca1c21e	-0.019745883
229	0xbbc9d19b	-0.00615902
230	0xbce0de00	-0.027449608
231	0xbc8ee20d	-0.017441774
232	0xbaf26bec	-0.0018495298
233	0x3ce320f9	0.027725684
234	0xbd7cb37c	-0.061694607
235	0xbd04bc78	-0.0324063
236	0xbd7b5533	-0.06136055
237	0x3c278c25	0.010226284
238	0x3d27148c	0.04079108
239	0x3d621563	0.055196177
240	0x3d253627	0.040334847
241	0x3d780906	0.06055548
242	0xbbcf97a7	-0.006335217
243	0xbd7ccaf7	-0.061717
244	0xbca8885f	-0.02057284
245	0x3a123689	0.00055775844
246	0xbcba2501	-0.022722723
247	0xbc890607	-0.016726507
248	0x3c0d992a	0.008642474
249	0x3d2ad582	0.041707523
250	0xbb2b5f4b	-0.0026149328
251	0xbcaf48eb	-0.021397075
252	0xb9f12ae1	-0.0004599905
253	0x3d5b854f	0.05359393
254	0x3caf0578	0.021364912
255	0xbc865ad7	-0.016400738

conv2.bias f4 [20]
0	0x3bf4e222	0.007473246
1	0xbd3b6ab0	-0.045756042
2	0xbd6f25ea	-0.058385767
3	0x3cad7d6f	0.021177975
4	0x3cb7d32f	0.022439567
5	0x3cadb905	0.021206388
6	0x3cbc6e35	0.02300177
7	0x3d7a40de	0.06109702
8	0xbd2fd240	-0.04292512
9	0xbd604898	-0.05475673
10	0xbce6094a	-0.028080601
11	0x3c051339	0.008122259
12	0xbd1cb81d	-0.03826152
13	0x3cb8e0c1	0.022568109
14	0x3d5b85b3	0.053594302
15	0xbca9993c	-0.02070295
16	0xbc13df9d	-0.0090254815
17	0xbd4d0e51	-0.05006248
18	0x3c97844b	0.0184957
19	0x3c5eb9d1	0.013594107

fc1.weight f4 [50, 500]
0	0xbcda1c0a	-0.026624698
1	0xbb02111b	-0.0019846621
2	0x3c62e4f6	0.013848534
3	0xbcaf53e1	-0.021402301
4	0x3d298ca7	0.041393902
5	0xbbd96ab0	-0.0066350326
6	0xbd1030e9	-0.035202894
7	0x3ce0f05e	0.027458366
8	0x3c088920	0.008333474
9	0xbc669c70	-0.014075384
10	0xbcdf2e94	-0.02724389
11	0x3cfa8bca	0.030584235
12	0x3c947377	0.018121464
13	0xbbaf802a	-0.0053558545
14	0x3cf44584	0.029818304
15	0x3d20c2c9	0.03924826
16	0x3cabe8de	0.020985063
17	0xbcf86a54	-0.030324139
18	0x3c983a0c	0.018582366
19	0xbd353617	-0.044241037
20	0xbbd8e713	-0.006619343
21	0xbbe51b68	-0.0069917925
22	0x3c9002c7	0.01757945
23	0xbd357b6b	-0.044307154
24	0xba4df8dd	-0.0007857213
25	0x3bf47bb8	0.0074610375
26	0x3d30adc0	0.04313445
27	0xbbb2f69d	-0.0054615275
28	0x3d280921	0.04102433
29	0x3d12767b	0.035757523
30	0x3d2ec0e3	0.04266442
31	0x3d20b636	0.03923627
32	0xbd230157	-0.0397962
33	0xbd263a4a	-0.040582933
34	0xbb852de0	-0.0040643066
35	0x3d20159f	0.03908312
36	0xbd057d42	-0.03259016
37	0x3cad9822	0.021190707
38	0x3ce0fc2e	0.027463999
39	0xbc0c0fcc	-0.008548688
40	0x3cc9d5fe	0.024638172
41	0x3d2483a1	0.040164594
42	0xbd1952e6	-0.037432574
43	0xbce20539	-0.027590381
44	0x3ccc0762	0.024905864
45	0x3cfb22b9	0.030656205
46	0xbbc6d598	-0.006067943
47	0x3d0f2963	0.03495158
48	0xbd0ff436	-0.035145007
49	0xbb5f98b0	-0.0034118108
50	0xbbdf74b8	-0.006819334
51	0xbcd10871	-0.02551672
52	0x3c5f6490	0.013634816
53	0xbcd8733c	-0.026422136
54	0x3d1ca182	0.038239963
55	0xbc9b804d	-0.018982077
56	0xbc2b6adb	-0.010462488
57	0xbcb8d6fb	-0.022563448
58	0x3d2aae60	0.041670203
59	0x3cb81ae8	0.022473767
60	0xbc2e55a4	-0.0106405355
61	0xbd2a2a44	-0.041544214
62	0x3d064f89	0.032790694
63	0x3d25407d	0.040344704
64	0x3d0c39ed	0.03423493
65	0xbd0324dc	-0.032017574
66	0x3ce7092a	0.028202612
67	0xbc89cee5	-0.016822288
68	0x3bb197cc	0.005419707
69	0xbc858192	-0.016297136
70	0xbc0422f8	-0.008064978
71	0x3c986516	0.018602889
72	0xbcc52aaa	-0.024068195
73	0x3c8d327e	0.01723599
74	0xbd147181	-0.03624106
75	0x3d0c0f59	0.034194324
76	0x3cc1b4f1	0.02364585
77	0x3cd66a3b	0.026173702
78	0x3cf8d685	0.030375728
79	0xbc43d97b	-0.011953707
80	0xbcd1cb88	-0.025609747
81	0xbd1ba24e	-0.037996583
82	0xbcd0fffc	-0.025512688
83	0xbcb411cc	-0.021981142
84	0xbc9a1458	-0.018808529
85	0x3d12c247	0.03582981
86	0xbcf7c5cd	-0.030245686
87	0x3ba20be4	0.004945265
88	0x3cf2fbe9	0.029661136
89	0xbc9b93c6	-0.018991362
90	0xbc91f9dc	-0.017819338
91	0x3c714889	0.014726766
92	0x3ca10294	0.01965455
93	0xbc206fb4	-0.009792257
94	0xbd03d10d	-0.03218179
95	0x3d2ea669	0.04263917
96	0x3cb04399	0.021516608
97	0x3d061435	0.032734115
98	0x3d2805e0	0.041021228
99	0x3cd6358c	0.02614858
100	0x3cd11b0d	0.025525594
101	0x3af1d4db	0.0018450277
102	0x3d228fe1	0.039687995
103	0x3c83c15d	0.016083414
104	0x3c81cff8	0.015846238
105	0xbcc47447	-0.023981227
106	0xbc9a6673	-0.01884768
107	0x3d29b74d	0.041434575
108	0xbd155daf	-0.036466297
109	0x3d26b97d	0.04070424
110	0xbd1aa12a	-0.037751354
111	0xbbc49f84	-0.006000461
112	0xbb662863	-0.0035119287
113	0x3cbec869	0.023288922
114	0x3c4b7e71	0.012420283
115	0xbd2657d9	-0.04061112
116	0x3c6c9768	0.014440395
117	0x3ac570db	0.0015063541
118	0x3d172423	0.036899697
119	0x3d1d0fd9	0.03834519
120	0xbbd60abc	-0.0065320414
121	0xbb8c417d	-0.0042802677
122	0xbb80fcb8	-0.0039363764
123	0x3cabd9fd	0.020977968
124	0xbd0cf397	-0.034411993
125	0xbcbe2851	-0.023212584
126	0xbce7efe1	-0.028312625
127	0xbcfc5f78	-0.030807242
128	0xbccd651c	-0.025072627
129	0xbbac6c05	-0.0052619004
130	0xbd23ed4d	-0.04002123
131	0x3d2df077	0.042465653
132	0xbb363796	-0.0027804128
133	0xbc95e15a	-0.018295933
134	0x3cb62648	0.02223505
135	0xbcd11b63	-0.025525754
136	0xbcaf9e37	-0.021437747
137	0xbcbabe4e	-0.022795822
138	0xbd06317d	-0.03276204
139	0x3c083e7e	0.008315681
140	0x3d2b9e3a	0.041898943
141	0x3cea25e6	0.028582525
142	0x3cad203c	0.021133535
143	0x3c6c327b	0.014416332
144	0x3d2f29a5	0.042764325
145	0xbd175f18	-0.036955923
146	0x3c0b1471	0.00848876
147	0x3cf0122f	0.029305546
148	0x3c4e2e5c	0.012584295
149	0x3cdcb6f4	0.026942708
150	0x3c9380dc	0.01800578
151	0x3d17f110	0.03709513
152	0x3cdb1de2	0.026747648
153	0xbc77eaec	-0.015131693
154	0x3c879203	0.016549116
155	0x3cc5f3a9	0.024164038
156	0x3d2466c6	0.040137075
157	0xbcce7ce4	-0.025206037
158	0xbc74acaa	-0.014933744
159	0xbb860486	-0.0040898947
160	0x3cb3043b	0.021852603
161	0xbd2adc39	-0.041713927
162	0xbc8f9c5f	-0.017530618
163	0xbcd9b22a	-0.026574213
164	0xbd200b41	-0.039073233
165	0xbd1067a7	-0.0352551
166	0x3c35387f	0.011060833
167	0xbd037647	-0.03209522
168	0x3c93430d	0.017976308
169	0xbd25be5e	-0.04046475
170	0xbd21ffe8	-0.03955069
171	0x3c8c9dfb	0.017165175
172	0x3cd0a471	0.025469037
173	0x3cc77109	0.024345892
174	0x3a020ffa	0.0004961487
175	0x3d27aef2	0.040938325
176	0x3c100290	0.008789673
177	0xbbde1e5f	-0.006778523
178	0xbcb86b00	-0.02251196
179	0xbd1953c9	-0.03743342
180	0x3cabddec	0.020979844
181	0x3d053c1e	0.032528035
182	0x3c85a01b	0.016311696
183	0x3d0767c8	0.033057958
184	0x3d06d885	0.032921333
185	0xbbdd2628	-0.0067489333
186	0xbd18196e	-0.037133627
187	0x3ca907a2	0.020633522
188	0xbcd3f8d2	-0.025875483
189	0x3c28b9f3	0.01029824
190	0x3d2fed53	0.04295094
191	0x397eae32	0.0002428822
192	0x3c044b01	0.008074523
193	0x3a4e9aa8	0.0007881322
194	0xbd1c3768	-0.038138777
195	0x3b891e6b	0.0041845343
196	0x3d066874	0.032814458
197	0xbbc59f42	-0.006030948
198	0xbd2e245c	-0.042515144
199	0xbd081828	-0.033226162
200	0xbc170ae8	-0.009218909
201	0x3c80d1ae	0.015724983
202	0x3cd24a54	0.025670208
203	0xbcb3d94a	-0.021954197
204	0x3d0b39be	0.033990614
205	0x3cd20936	0.025639158
206	0xbc40cd11	-0.011767642
207	0x3d2eef73	0.042708825
208	0xbd0d935f	-0.034564372
209	0xbcaf8301	-0.021424772
210	0xbaf1826f	-0.0018425713
211	0xbd32a5bc	-0.043615088
212	0x3cec3efc	0.028838627
213	0x3ce9394e	0.028469708
214	0x3b19ebda	0.0023486526
215	0x3bec4ba6	0.0072111664
216	0x3c15a577	0.009133688
217	0x3d208a39	0.03919432
218	0x3d29dc62	0.04146994
219	0x3ce04958	0.027378723
220	0xbd2cc8fa	-0.042183854
221	0x3cb42ccf	0.021994023
222	0x3b6d4e72	0.0036210087
223	0x3d14ce93	0.036329817
224	0xbcdd0f68	-0.026984885
225	0x3c861206	0.016366016
226	0xbd1de735	-0.038550574
227	0x3c2f03bd	0.010682044
228	0xbd3306fd	-0.043707836
229	0xbcb2bf9d	-0.021819884
230	0x3bef0004	0.007293703
231	0x3c1cd737	0.009572796
232	0xbc969f8b	-0.018386623
233	0x3c4455eb	0.011983375
234	0xbc731f96	-0.014839074
235	0x3c81b98e	0.01583555
236	0xbc2464e8	-0.010033824
237	0x3c9ea752	0.019366894
238	0xbb214491	-0.002460752
239	0x3c8756e0	0.016520917
240	0x3b8354a2	0.0040078918
241	0xbcec421c	-0.028840117
242	0xbc86a00c	-0.016433738
243	0x3cb0009e	0.02148467
244	0xbaf45265	-0.0018640278
245	0x39bba679	0.0003579145
246	0xbbb5c6ac	-0.005547365
247	0x3c1f9f18	0.009742521
248	0xbc8b87eb	-0.017032584
249	0x399683b4	0.00028708356
250	0xbcf3d01f	-0.029762326
251	0xbd0cfe4b	-0.0344222
252	0x3b14d1c4	0.0022708038
253	0x3d01ec7f	0.03171968
254	0xbd0262c2	-0.031832464
255	0x3d06bcbd	0.03289484

fc1.bias f4 [50]
0	0x3c632efb	0.0138661815
1	0x3d36dd4f	0.04464465
2	0x3ce31daa	0.027724106
3	0xbc6b5763	-0.014364096
4	0xbb067025	-0.002051362
5	0xbd0b50e8	-0.034012705
6	0x3cdb9d4d	0.026808405
7	0xbce85d15	-0.028364697
8	0xbc42c2aa	-0.011887232
9	0x3ce73c4d	0.028226996
10	0xbc461c3a	-0.012091691
11	0x3cf3a11b	0.029739907
12	0xbbca5931	-0.006175183
13	0xbcaad0ed	-0.020851577
14	0xbaafd0f6	-0.0013413716
15	0xbc63ab6c	-0.013895851
16	0x3b91a88d	0.0044451416
17	0x3c9118c9	0.017712014
18	0x3d27601d	0.040863145
19	0x3cd108d1	0.0255169
20	0x3c56a776	0.013101449
21	0x3c185dd6	0.009299716
22	0x3d044eb3	0.032301616
23	0xbd1ff875	-0.039055306
24	0x3d0f6140	0.035004854
25	0x3b87c4f2	0.0041433508
26	0xbcc9bb36	-0.024625402
27	0x3cae517e	0.021279093
28	0xbaa00f3f	-0.0012211575
29	0x3c4bd1d0	0.01244016
30	0xbcfe8c00	-0.031072617
31	0x3ce19751	0.027537974
32	0x3b871550	0.0041224137
33	0x3ce826a6	0.028338742
34	0xbd0910a7	-0.033463147
35	0xbd2bbfcd	-0.041930962
36	0x3b3b9d4a	0.0028627687
37	0x3d0cf478	0.03441283
38	0x3d12426d	0.03570788
39	0xba8c67b8	-0.0010712063
40	0xb98b5520	-0.0002657557
41	0xbd1ba339	-0.037997458
42	0xba8d877c	-0.0010797824
43	0xbb278270	-0.0025559925
44	0x3b89a50d	0.004200584
45	0x3b625ad5	0.0034539003
46	0xba6caeb7	-0.000902872
47	0xba4864b5	-0.0007644401
48	0x3bf3e97b	0.0074436045
49	0x3c9805d0	0.01855746

fc2.weight f4 [9, 50]
0	0xbd72e565	-0.0593008
1	0x3e018f5d	0.12652345
2	0x3de55d23	0.11199405
3	0xbd7f69e5	-0.06235685
4	0x3e0514b1	0.12996174
5	0x3d383a1d	0.044977296
6	0x3d82dd40	0.06389856
7	0x3b45e445	0.0030195874
8	0xbda3f51e	-0.08005737
9	0xbd95414a	-0.072878435
10	0xbd06bbda	-0.032893993
11	0xb9ff6a5e	-0.0004871664
12	0xbdcef8e4	-0.10106066
13	0xbda96f97	-0.08273237
14	0xbdd85431	-0.10562933
15	0x3de736ce	0.1128975
16	0xbd7f6c15	-0.062358934
17	0xbda2ba36	-0.07945673
18	0x3dcffa1b	0.10155126
19	0xbcc28c8c	-0.023748659
20	0xbd392945	-0.045205373
21	0x3d738ab6	0.059458457
22	0x3da1ea53	0.07906022
23	0xbdd4608f	-0.103699796
24	0xbcc25847	-0.023723735
25	0xbd867f4a	-0.06567247
26	0xbd8b439f	-0.06800007
27	0xbe0590f0	-0.1304357
28	0x3e0aaf90	0.13543534
29	0xbb2fa3e9	-0.002680058
30	0x3de7f16a	0.11325343
31	0xbd775384	-0.06038238
32	0xbd338098	-0.04382381
33	0xbd62ba8d	-0.05535369
34	0x3d634b73	0.055491876
35	0x3d151977	0.03640124
36	0xbcf13e42	-0.029448632
37	0x3dbe3c21	0.092888124
38	0x3df40f64	0.11916998
39	0x3d2cd505	0.04219534
40	0x3e0e8475	0.13917716
41	0x3dac8e22	0.08425547
42	0x3dce3353	0.10068383
43	0x3c96dd86	0.018416177
44	0xbd8188db	-0.06324931
45	0x3cea5007	0.028602613
46	0x3da71b74	0.08159533
47	0xbd400a64	-0.04688491
48	0xbd0d793b	-0.034539443
49	0xbdf1e3a3	-0.118109964
50	0x3b814504	0.003944995
51	0x3e0a9635	0.13533862
52	0xbd3d51a6	-0.046220444
53	0xbdb44be3	-0.08803537
54	0x3d4b8e7b	0.049696427
55	0x3c534255	0.012894233
56	0xbda9770f	-0.08274662
57	0xbd617c35	-0.055050094
58	0xbe0e710c	-0.13910311
59	0x3d76faa9	0.060297642
60	0x3da671cb	0.08127173
61	0xbd8d9987	-0.06914049
62	0xbd69d496	-0.057087503
63	0xbd22442e	-0.039615802
64	0x3dafe62a	0.08588822
65	0x3db83c63	0.08995893
66	0x3d84cc6f	0.06484305
67	0x3dc5315e	0.09628557
68	0xbe07fde3	-0.13280444
69	0xbdb909ec	-0.090350956
70	0xbcff2efa	-0.03115033
71	0xbd946136	-0.07245104
72	0xbe003aa9	-0.12522377
73	0xbd6688e2	-0.056282885
74	0xbc0b60ff	-0.008507012
75	0xbc4dc2d7	-0.0125586605
76	0x3dc326ec	0.09528908
77	0x3da0da35	0.0785412
78	0xbdb55495	-0.08854023
79	0xbdeb5dcc	-0.114925
80	0x3dbb47b1	0.091445334
81	0xbbf44c93	-0.0074554174
82	0x3e005f87	0.12536441
83	0xbdfbecf0	-0.123010516
84	0xbda507b9	-0.080581136
85	0xbca1d65a	-0.019755531
86	0xbccf0b08	-0.025273815
87	0x3d914d73	0.070948504
88	0xbe08a1a7	-0.13342915
89	0x3dd1e62f	0.10248982
90	0xbd5ef31d	-0.05443107
91	0xbd8bb557	-0.06821697
92	0x3d89f1b1	0.06735552
93	0xbcf0f3c0	-0.029413104
94	0xbdf67579	-0.12034125
95	0x3de83ba9	0.11339504
96	0x3d8008fb	0.06251713
97	0xbcf747b8	-0.030185565
98	0xbe088dbb	-0.13335316
99	0xbd583f5a	-0.05279479
100	0xbd567c02	-0.052364357
101	0xbcfc0344	-0.030763276
102	0xbdbb70bc	-0.09152362
103	0xbe017b8e	-0.12644789
104	0xbdd3655e	-0.10322069
105	0xbd71f7c2	-0.05907417
106	0x3e037e9d	0.12841268
107	0xbd4ca426	-0.04996123
108	0xbddb97be	-0.10722302
109	0xbccdca90	-0.025121003
110	0xbcab4390	-0.02090624
111	0xbdd7460a	-0.10511406
112	0x3da84c22	0.08217646
113	0x3d9a83ea	0.07544692
114	0x3cd88560	0.026430786
115	0x3d55ada8	0.052167565
116	0x3db17e76	0.08666699
117	0xbd4039f8	-0.046930283
118	0x3d7483b0	0.0596959
119	0x3db587f6	0.08863823
120	0x3dfa25a2	0.12214209
121	0x3dad670e	0.08466922
122	0x3d7d05a4	0.061772957
123	0xbc4ae440	-0.012383521
124	0xbde06f22	-0.10958697
125	0x3da4baa6	0.08043413
126	0x3debfee2	0.115232244
127	0x3da3f438	0.080055654
128	0xbdb5c978	-0.08876318
129	0x3d8b6532	0.06806411
130	0xbdb674ba	-0.089089826
131	0x3d91843c	0.071053
132	0x3e055a3b	0.13022701
133	0x3dc870a6	0.09787111
134	0x3c4fbd50	0.012679413
135	0xbdc661ec	-0.09686646
136	0xbd072850	-0.03299743
137	0xbd488192	-0.048951693
138	0xbdeea78c	-0.11653051
139	0x3c435590	0.011922255
140	0x3d99b0d2	0.07504429
141	0xbb5b8600	-0.0033496618
142	0x3de6a7ea	0.11262496
143	0x3da5285c	0.080643386
144	0xbe0b7f77	-0.13622843
145	0x3bd17780	0.0063924193
146	0x3cf377b8	0.029720172
147	0xbbf37120	-0.007429257
148	0xbdbf0ff8	-0.09329218
149	0xbd5d91de	-0.054094188
150	0x3c7fd140	0.015613854
151	0xbd6e6726	-0.05820384
152	0xbd0b3426	-0.03398528
153	0xbde6923c	-0.11258361
154	0x3dbbef1c	0.09176466
155	0x3ba27ce0	0.004958734
156	0x3dc9ef04	0.09860042
157	0xbd671590	-0.056417048
158	0xbc8e1d2c	-0.017347895
159	0xbd4a47da	-0.04938493
160	0xbc6d55b0	-0.0144857615
161	0xbc9069fc	-0.017628662
162	0xbcb9f6c8	-0.022700682
163	0xbd60e2da	-0.054903843
164	0x3e0493d9	0.12947024
165	0xbe08f746	-0.13375577
166	0x3d9d6102	0.076845184
167	0x3e028cf3	0.1274908
168	0xbd6ac3a0	-0.05731547
169	0xbd8fb787	-0.07017427
170	0x3e043f09	0.12914671
171	0xbde05a32	-0.109547034
172	0x3d4c0518	0.049809545
173	0x3d9ad006	0.075592086
174	0xbde6a093	-0.11261096
175	0x3cd67978	0.026180968
176	0xbd74e890	-0.0597921
177	0x3d655080	0.055984974
178	0x3d83baf4	0.06432143
179	0x3d469d54	0.048489884
180	0xbd7cabe8	-0.06168738
181	0xbdcf3e79	-0.101193376
182	0xbcb825c8	-0.022478953
183	0x3da53b62	0.08067967
184	0x3d0eeb88	0.03489259
185	0x3d45534c	0.04817514
186	0x3de7f0fa	0.113252595
187	0x3d974296	0.07385747
188	0x3de4b8ae	0.11168037
189	0xbc2c8790	-0.0105303675
190	0x3d6e0bd8	0.058116764
191	0xbd52330a	-0.051318206
192	0xbc06d500	-0.008229494
193	0xbce70514	-0.028200664
194	0x3da1fca6	0.07909517
195	0x3ddd28e2	0.107988134
196	0xbdb6d84a	-0.089279726
197	0x3c334280	0.010941148
198	0xbcab0a48	-0.020878926
199	0xbd0bc77a	-0.034125783
200	0x3d81388f	0.06309616
201	0xbc1b9e02	-0.009498121
202	0x3d70b744	0.058768526
203	0x3d2a35cf	0.041555222
204	0xbc0b3cc6	-0.008498376
205	0x3d1ae6a8	0.037817627
206	0x3dee0d44	0.11623624
207	0x3d7aca17	0.061227884
208	0xbd768260	-0.06018293
209	0x3d2318ec	0.03981869
210	0x3daca308	0.08429533
211	0x3c465a12	0.012106435
212	0x3c81050d	0.015749479
213	0x3cf00705	0.029300222
214	0x3d9b83f5	0.07593528
215	0x3de9fcc1	0.11425162
216	0x3d0fc6f8	0.03510186
217	0x3cbda199	0.023148345
218	0x3bf8324e	0.007574356
219	0xbd6b76c5	-0.057486314
220	0x3c102ff3	0.0088004945
221	0xbcbd68dc	-0.02312129
222	0x3de12ad7	0.10994499
223	0xbe08e551	-0.13368727
224	0x3d13470e	0.035956435
225	0xbb188114	-0.0023270296
226	0x3a154700	0.0005694479
227	0xbc912272	-0.01771662
228	0xbdfd5a28	-0.123707116
229	0x3d48b380	0.04899931
230	0x3debe9c2	0.11519195
231	0x3dce12a6	0.10062151
232	0x3de24024	0.1104739
233	0xbd0c2a90	-0.03422028
234	0xbd7f66a9	-0.062353764
235	0x3dd55a48	0.104176104
236	0xbd65b9eb	-0.05608551
237	0xbe0d3be3	-0.13792376
238	0x3ddef5b1	0.10886706
239	0x3e0d8b45	0.13822658
240	0xbc332226	-0.010933435
241	0xbcacdb61	-0.021100702
242	0x3dc5729b	0.09641
243	0x3dc8e50e	0.09809314
244	0xbc71793d	-0.014738378
245	0x3c76bf34	0.015060235
246	0xbdc75b41	-0.09734202
247	0xbe0bd071	-0.13653733
248	0xbdbfd1d2	-0.09366192
249	0x3df1271c	0.11775038
250	0x3dd9d16e	0.10635649
251	0xbdfc4663	-0.12318113
252	0xbddf6b4a	-0.10909136
253	0x3e0c0e5e	0.13677356
254	0xbdd36c4a	-0.10323389
255	0xbd481e8a	-0.04885725

fc2.bias f4 [9]
0	0x3db1d1ee	0.08682619
1	0x3d5c3e3e	0.053770296
2	0xbe000946	-0.12503538
3	0xbe061038	-0.13092124
4	0xbda089a3	-0.07838752
5	0xbd872965	-0.06599692
6	0x3c7cc453	0.015427667
7	0x3d9c45b2	0.07630481
8	0xbdc1fce4	-0.09472063
