GameAIFinalProject/model/model_mymodel11.pth (torch_old, 126465 bytes, 8 tensors)

conv1.weight f4 [10, 3, 5, 5]
0.10893909 0.101160906 -0.08002827 -0.081102826 0.10185095 -0.10034378 0.022406967 -0.06934028
0.039359134 0.021168927 0.018204607 0.0531883 -0.047629982 -0.06942564 -0.06620427 -0.08825902
0.031550918 0.10173543 -0.04293523 -0.056808826 -0.07244824 0.038103674 0.020277077 0.02926302
-0.08472319 0.033965692 -0.08022767 -0.052530877 -0.022741893 -0.0035569363 0.0044175778 -0.07307744
0.063498944 0.10837806 -0.063081644 0.060976222 0.0018910853 0.031965908 -0.040248185 -0.007997008
0.08095227 -0.048096158 -0.103229724 0.031773746 0.09364131 0.068862855 -0.07226698 0.04129818
-0.102206066 -0.08650487 0.039858114 0.08782688 0.024335137 -0.02280896 0.04400324 0.066914156
-0.04925017 -0.027098907 0.0019318808 0.06709488 -0.038431346 0.09712522 0.044405505 0.02437499
-0.08723546 0.039260317 -0.0050447774 -0.063521735 0.0026316864 0.059807915 0.10524679 0.11194712
-0.014372776 -0.024547687 -0.06504311 0.08117271 0.05121139 -0.059032336 0.043879468 -0.041193265
0.097946264 -0.015155825 -0.11485523 0.04435388 -0.09293252 -0.09090398 0.002776742 0.06953379
-0.0659241 -0.057666585 0.0719104 0.023793053 -0.06940119 0.045194224 0.08865193 -0.015044753
-0.09306612 -0.042186044 -0.080603935 0.024338856 -0.0043748273 -0.007610842 -0.102483615 -0.022225792
0.011845767 -0.020038351 0.02850551 0.10016677 0.10824381 -0.080705255 0.07653425 0.08773687
0.09075165 -0.040224466 -0.103039265 -0.04262409 -0.08632372 -0.11366104 -0.04810634 -0.09604951
0.053629495 -0.1108178 0.073212266 0.012795977 -0.037505027 0.052986152 -0.06138765 -0.11314787
-0.090953365 -0.10013882 0.085395895 -0.05270073 -0.095105626 -0.09253096 0.06686769 -0.001998516
-0.022004709 0.09090178 0.086517036 0.070587374 0.11169397 0.060462832 0.0092335185 0.06735063
-0.0011033313 -0.07683587 0.029014904 0.03211153 0.08098692 0.047415387 -0.04133615 0.056033682
0.04274311 0.04775238 -0.10660875 -0.05398914 -0.060029123 0.016333362 -0.108515054 0.050320715
-0.051683467 0.02027087 -0.00096966873 -0.062150773 -0.04266782 0.113683455 0.020794464 0.10300228
0.09613875 0.08793528 0.03673115 -0.0034555574 0.092309155 0.0712222 0.087486416 0.07110065
0.08920204 -0.039632566 -0.08485862 -0.06476919 0.07545022 0.052739054 0.11207484 0.027615791
-0.097920515 0.1083566 -0.08229759 0.114621885 0.04918222 -0.11464423 -0.0874408 -0.054731436
0.04926889 0.0021268656 -0.04856465 -0.09884621 0.0641237 -0.04927306 0.050328575 7.6981865e-05
-0.0027029307 -0.091420166 -0.038406793 -0.021004455 0.10458274 -0.075347446 -0.0071705407 -0.03213208
-0.056171633 -0.09174629 0.09798525 0.047157507 0.046666358 -0.06562688 -0.030676836 0.025408197
0.01807964 -0.0449266 0.010049078 -0.10102995 0.10825793 0.035795562 0.10974558 -0.0550182
-0.106134936 0.07089412 -0.1036459 0.1018929 0.049543653 0.015981501 0.03443135 0.0064642415
0.017019387 -0.021517918 0.080479234 -0.03819729 -0.054988746 0.06448068 0.012470334 0.074025
0.0877112 -0.07259682 0.10462987 0.039424952 -0.009531053 -0.057102337 -0.04430486 0.096975826
0.04881831 -0.105628066 0.02971406 -0.06620014 0.08841828 0.046272635 0.028031515 -0.11059127
00000000: 751b df3d 732d cf3d dde5 a3bd 3d19 a6bd
00000010: 3b97 d03d 0a81 cdbd d18e b73c 4702 8ebd
00000020: 0b37 213d 756a ad3c d421 953c fadb 593d
00000030: a817 43bd 082f 8ebd 1b96 87bd 25c1 b4bd
00000040: 893b 013d aa5a d03d dadc 2fbd 5fb0 68bd
00000050: be5f 94bd 9912 1c3d 1d1c a63c 00b9 ef3c
00000060: 5a83 adbd 9c1f 0b3d 684e a4bd 9e2a 57bd
00000070: 354d babc 7d1b 69bb 54c1 903b a0a9 95bd
00000080: bc0b 823d 51f5 dd3d f330 81bd 34c2 793d
00000090: 4bde f73a afee 023d 48db 24bd e205 03bc
000000a0: 4eca a53d 7a00 45bd 1b6a d3bd 3025 023d
000000b0: 04c7 bf3d f807 8d3d b600 94bd 4828 293d
000000c0: 6a51 d1bd 7729 b1bd 4342 233d 94de b33d
000000d0: 7b5a c73c dbd9 babc be3c 343d 4a0a 893d
000000e0: 8cba 49bd 87fe ddbc 2a37 fd3a 0a69 893d
000000f0: 306a 1dbd 96e9 c63d 8ce2 353d 0fae c73c
00000100: 81a8 b2bd 6dcf 203d a94e a5bb af17 82bd
00000110: 5f78 2c3b 25f9 743d a18b d73d 8844 e53d
00000120: cb7b 6bbc 3b18 c9bc 5235 85bd e13d a63d
00000130: 09c3 513d e4cb 71bd f5ba 333d 45ba 28bd
00000140: 0d98 c83d 2350 78bc 3839 ebbd 6aac 353d
00000150: 6853 bebd de2b babd 00fa 353b bb67 8e3d
00000160: 3703 87bd cc33 6cbd c345 933d a6e9 c23c
00000170: 3622 8ebd 941d 393d 258f b53d 457e 76bc
00000180: 7399 bebd 46cb 2cbd ad13 a5bd 4862 c73c
00000190: b65a 8fbb 5f64 f9bb eee2 d1bd dd12 b6bc
000001a0: bf14 423c 7827 a4bc 6384 e93c 3c24 cd3d
000001b0: eeae dd3d cc48 a5bd fdbd 9c3d 63af b33d
000001c0: 00dc b93d 69c2 24bd 4006 d3bd 9996 2ebd
000001d0: 7eca b0bd 1fc7 e8bd 270b 45bd 9bb5 c4bd
000001e0: 9aaa 5b3d 71f4 e2bd 50f0 953d 38a6 513c
000001f0: df9e 19bd 0208 593d 9e71 7bbd 12ba e7bd
00000200: c245 babd 9515 cdbd 0be4 ae3d b8dc 57bd
00000210: bdc6 c2bd df80 bdbd edf1 883d 89f9 02bb
00000220: 3843 b4bc b62a ba3d d82f b13d 1d90 903d
00000230: cfbf e43d e0a7 773d 2f48 173c 21ef 893d
00000240: a89d 90ba 205c 9dbd aab0 ed3c 6187 033d
00000250: 78dc a53d a336 423d 1850 29bd 9383 653d
00000260: 6613 2f3d 0098 433d b055 dabd b723 5dbd
00000270: 19e1 75bd 8bcd 853c 243d debd 181d 4e3d
00000280: 0bb2 53bd 180f a63c 5e31 7eba cf91 7ebd
00000290: 74c4 2ebd dfd2 e83d 2759 aa3c dcf2 d23d
000002a0: 65e4 c43d 6917 b43d 6773 163d a276 62bb
000002b0: 950c bd3d f2dc 913d 142c b33d 389d 913d
000002c0: 8faf b63d c255 22bd 5bca adbd b6a5 84bd
000002d0: a585 9a3d e804 583d 7e87 e53d 833a e23c
000002e0: 8d8a c8bd 11ea dd3d a48b a8bd e1be ea3d
000002f0: 4c73 493d 98ca eabd 2a14 b3bd 122e 60bd
00000300: 2dce 493d e262 0b3b baeb 46bd e26f cabd
00000310: 4953 833d 8cd2 49bd 5625 4e3d 5371 a138
00000320: a723 31bb 7f3a bbbd 7150 1dbd 8911 acbc
00000330: 7a2f d63d c34f 9abd dbf6 eabb ee9c 03bd
00000340: 3a14 66bd 7be5 bbbd 7eac c83d 3b28 413d
00000350: 3925 3f3d 6367 86bd fd4d fbbc da24 d03c
00000360: c11b 943c f404 38bd e3a4 243c cae8 cebd
00000370: 55b6 dd3d 5e9e 123d 4ac2 e03d c45a 61bd
00000380: 465d d9bd f030 913d 4d44 d4bd 3aad d03d
00000390: 49ee 4a3d a3eb 823c e307 0d3d fdd1 d33b
000003a0: 3e6c 8b3c 5846 b0bc 4cd2 a43d c374 1cbd
000003b0: e13b 61bd 720e 843d 5f50 4c3c 6b9a 973d
000003c0: eea1 b33d a4ad 94bd 2f48 d63d 0f7c 213d
000003d0: 2228 1cbc 24e4 69bd 0379 35bd 439b c63d
000003e0: b5f5 473d 8753 d8bd e66a f33c f093 87bd
000003f0: a514 b53d 6088 3d3d 59a2 e53c ad7d e2bd

conv1.bias f4 [10]
-0.0065642446 0.09297762 0.05753891 0.06186664 0.028182808 -0.04185997 0.05043156 0.06804775
0.041585363 0.05532107
00000000: e018 d7bb 0d6b be3d ecad 6b3d e067 7d3d
00000010: a2df e63c 5c75 2bbd 5391 4e3d 9e5c 8b3d
00000020: 6a55 2a3d 5998 623d

conv2.weight f4 [20, 10, 5, 5]
0.024584811 0.027983753 -0.03585068 -0.024467623 -0.028477605 -0.054680336 -0.047967635 0.040603988
-0.005579341 0.035513323 0.0012585428 0.061733402 0.061793108 -0.026184542 -0.021643424 -0.04213273
0.019917224 -0.062468108 0.0029029977 0.06038804 -0.0023324045 0.048793703 0.020685917 -0.05807263
-0.040914766 -0.04040166 -0.05954026 0.03562721 -0.05265022 0.027494589 0.048993547 -0.021028934
0.04707837 0.021592349 -0.050396603 0.0106983045 0.01367012 -0.018400673 0.050677676 -0.042216
-0.04674817 -0.027599096 -0.023622893 0.02862464 0.06181438 0.00067315146 -0.050431762 0.035840075
-0.06162084 -0.05961461 -0.005000494 0.01936117 0.01795025 0.034089863 0.056823485 0.043180905
-0.016672084 0.05451353 -0.015273666 0.057682544 -0.0061836448 -0.029114474 -0.001992565 -0.034249276
-0.04346549 -0.014795004 0.034853157 0.062798835 0.017695185 -0.014690227 -0.009598133 -0.014850524
-0.049174685 -0.060224347 0.02272744 -0.04325409 0.036117386 0.034509003 0.045999125 -0.0622572
-0.046632014 -0.02782484 0.044337273 0.054889917 0.028203905 -0.0543933 -0.059471976 -0.041146055
0.01639528 -0.030351171 0.018760325 0.030737262 -0.019312132 -0.011304222 0.009336591 0.03187204
-0.06287208 -0.045365646 -0.016971225 0.0065799197 -0.04308426 0.055666856 0.021790447 -0.015653819
-0.035090424 0.023661226 0.03328993 0.032874823 -0.0033938529 0.063239954 -0.014286886 0.022372257
0.021101557 -0.030643687 0.060189802 -0.017062707 0.023720432 0.05769052 0.027747935 -0.052545335
0.06300256 -0.036748953 -0.01375012 0.009369141 0.057469532 0.052578535 -0.02849223 -0.028755415
0.0095452685 0.056134127 0.04276346 -0.036374617 -0.02848517 -0.02669078 0.06156331 -0.046693508
-0.031149415 -0.025984302 -0.045282755 -0.03316112 -0.028577747 0.00804052 0.03694725 -0.026408924
-0.061989598 0.002739936 -0.02000214 0.052039955 -0.061271157 -0.035042197 0.0129406825 0.048321545
0.021845192 0.00988419 -0.003858222 -0.016751757 -0.055229086 7.320044e-05 -0.0034451343 0.006643039
-0.010579575 -0.025669694 -0.01411212 0.021738894 0.016493268 0.017371679 -0.0033723256 0.0015503613
0.029308254 0.052339986 0.03282152 -0.017498076 0.05029979 -0.05966553 0.06313907 0.024745025
0.060190856 -0.008490933 -0.0013305311 -0.03897193 -0.033992097 -0.033807937 0.0011266734 -0.016248016
-0.0572938 0.043478064 -0.04801557 0.0050104875 0.059241917 0.06034388 0.010023865 -0.009037976
-0.014936882 0.009940038 0.011554765 -0.04822389 -0.03666306 0.05773853 0.023545453 0.00038446893
-0.011460024 -0.03045215 0.05463725 0.027359704 -0.017089058 -0.02164545 -0.025616746 0.05544483
0.062741786 -0.0058019254 -9.837003e-07 -0.021036115 -0.0024184622 -0.03783165 -0.0028519558 -0.061722945
0.0320928 0.0412127 0.026063817 0.029460935 -0.02063331 0.0376785 -0.017945383 0.018620417
0.030344052 -0.005957894 0.058475442 -0.0049673235 -0.051763937 0.04647384 -0.013119735 0.017690478
-0.014779922 -0.0062946375 0.028774515 0.04735272 0.016496014 0.024833394 0.062639154 -0.044237427
0.022412386 -0.016090866 -0.018918157 0.021231659 0.04942384 0.02077137 -0.02456849 -0.025380202
-0.0069761444 -0.016295915 -0.01018873 -0.055887256 0.025078433 -0.014084098 -0.013331003 0.00042973965
00000000: 1666 c93c 2f3e e53c 2ad8 12bd 5370 c8bc
00000010: de49 e9bc 7df8 5fbd b679 44bd 5e50 263d
00000020: e8d2 b6bb 6b76 113d b0f5 a43a 2adc 7c3d
00000030: c51a 7d3d f780 d6bc 8d4d b1bc 5f93 2cbd
00000040: 7229 a33c 8fde 7fbd 3840 3e3b 7359 773d
00000050: 41db 18bb e8db 473d 8375 a93c 91dd 6dbd
00000060: 3e96 27bd 367c 25bd 7de0 73bd d6ed 113d
00000070: c2a7 57bd 553c e13c 75ad 483d df44 acbc
00000080: 40d5 403d 70e2 b03c ab6c 4ebd f147 2f3c
00000090: a4f8 5f3c 02bd 96bc 6593 4f3d afea 2cbd
000000a0: 027b 3fbd 8017 e2bc cc84 c1bc 397e ea3c
000000b0: 1331 7d3d 6e76 303a 8991 4ebd 0bcd 123d
000000c0: 2266 7cbd 732e 74bd 2fdb a3bb 519b 9e3c
000000d0: 670c 933c d0a1 0b3d bebf 683d 76de 303d
000000e0: e593 88bc 9449 5f3d 663e 7abc 8844 6c3d
000000f0: 2ca0 cabb 7a81 eebc b295 02bb f848 0cbd
00000100: df08 32bd bf66 72bc 2fc2 0e3d ad9c 803d
00000110: 7ef5 903c 47af 70bc 7d41 1dbc 9d4f 73bc
00000120: 656b 49bd cead 76bd e52e ba3c 332b 31bd
00000130: d3ef 133d 5059 0d3d 9469 3c3d 6801 7fbd
00000140: 3601 3fbd ebf0 e3bc 009b 353d 40d4 603d
00000150: e00b e73c 82cb 5ebd e398 73bd c488 28bd
00000160: 654f 863c 05a3 f8bc 41af 993c b6cc fb3c
00000170: 7a34 9ebc 5835 39bc 80f8 183c 428c 023d
00000180: 14c3 80bd 54d1 39bd 3d07 8bbc 5e9c d73b
00000190: 1f79 30bd ee02 643d e181 b23c 703c 80bc
000001a0: faba 0fbd 30d5 c13c 065b 083d c0a7 063d
000001b0: 676b 5ebb f383 813d 8b13 6abc 0646 b73c
000001c0: 2cdd ac3c 7808 fbbc 9589 763d 17c7 8bbc
000001d0: 5a51 c23c e54c 6c3d a34f e33c c739 57bd
000001e0: 7c07 813d 1286 16bd 2f48 61bc 0781 193c
000001f0: 2c65 6b3d 975c 573d 8a68 e9bc 7a90 ebbc
00000200: c263 1c3c e6ec 653d bd28 2f3d 8dfd 14bd
00000210: bb59 e9bc 9fa6 dabc cf29 7c3d b141 3fbd
00000220: 0f2d ffbc 08dd d4bc 697a 39bd f4d3 07bd
00000230: e11b eabc 63bc 033c 0056 173d 8757 d8bc
00000240: cee8 7dbd 8090 333b 87db a3bc d927 553d
00000250: 77f7 7abd 6888 0fbd 2805 543c d0ec 453d
00000260: b0f4 b23c 4cf1 213c 39da 7cbb fb3a 89bc
00000270: e537 62bd 3083 9938 c3c7 61bb daad d93b
00000280: f455 2dbc 4049 d2bc 8536 67bc c415 b23c
00000290: e41c 873c 0d4f 8e3c 3c02 5dbb 7e35 cb3a
000002a0: dd17 f03c 7462 563d dc6f 063d 2058 8fbc
000002b0: 2707 4e3d d863 74bd 0f4f 813d 14b6 ca3c
000002c0: b08a 763d 8e1d 0bbc 3765 aeba 08a1 1fbd
000002d0: 4c3b 0bbd 317a 0abd e3ac 933a 8f1a 85bc
000002e0: e7ac 6abd 0e16 323d f9ab 44bd 042f a43b
000002f0: a7a7 723d 252b 773d 233b 243c 0514 14bc
00000300: d3b9 74bc 8bdb 223c 3250 3d3c 6a86 45bd
00000310: 012c 16bd 3d7f 6c3d 65e2 c03c 8c92 c939
00000320: d3c2 3bbc ca76 f9bc 4fcb 5f3d 7521 e03c
00000330: 5afe 8bbc cc51 b1bc 36da d1bc 1e1a 633d
00000340: c47e 803d 141e bebb af07 84b5 ee53 acbc
00000350: 107f 1ebb 5cf5 1abd e1e7 3abb 33d1 7cbd
00000360: bd73 033d a6ce 283d c983 d53c 0f58 f13c
00000370: 3007 a9bc c554 1a3d 3202 93bc d889 983c
00000380: 1794 f83c 703a c3bb f283 6f3d eec4 a2bb
00000390: 6c06 54bd 5a5b 3e3d 28f4 56bc 9feb 903c
000003a0: 7c27 72bc 3f43 cebb 88b8 eb3c edf4 413d
000003b0: a622 873c 676f cb3c f548 803d 4e32 35bd
000003c0: 2e9a b73c fed0 83bc 40fa 9abc 04ee ad3c
000003d0: a770 4a3d b828 aa3c dc43 c9bc 24ea cfbc
000003e0: 2498 e4bb 037f 85bc a2ee 26bc 09ea 64bd
000003f0: 4971 cd3c fdc0 66bc 476a 5abc ae4e e139

conv2.bias f4 [20]
-0.059312686 0.05265211 -0.034700487 -0.040969387 -0.0046390053 0.058609035 0.040742908 -0.046066802
-0.060068723 -0.05012909 -0.0281516 0.044758122 0.053545427 -0.016580636 0.062477615 -0.016024835
-0.059992746 0.03799869 0.043231603 0.0023934362
00000000: dcf1 72bd bda9 573d 1922 0ebd 84cf 27bd
00000010: cc02 98bb 0710 703d 09e2 263d 8bb0 3cbd
00000020: 9f0a 76bd 2954 4dbd 2f9e e6bc 4b54 373d
00000030: 7352 5b3d 1dd4 87bc 87e8 7f3d 8446 83bc
00000040: f4ba 75bd 84a4 1b3d 9f13 313d 32db 1c3b

fc1.weight f4 [50, 500]
0.00041005324 -0.009618537 -0.03089401 -0.028097335 -0.03321546 -0.028880345 -0.03997958 -0.021158276
0.011490315 0.021385968 -0.03010323 -0.03790264 0.0072105867 0.035040755 -0.035967045 -0.043764338
0.03028536 -0.037914194 0.004734681 0.04131555 0.030055087 -0.01704686 0.0029328743 -0.003330024
0.020666542 -0.010653459 0.03686437 0.001569669 0.01421493 -0.025666222 0.016730707 0.02433577
-0.039088678 -0.026985608 -0.044098638 -0.0043755844 -0.0304232 0.030696861 0.021714022 -0.013594296
-0.01854809 0.025734536 0.015843855 -0.016275626 0.03128463 0.037548028 -0.03242196 -0.035315942
-0.009718196 -0.032982007 0.0016879576 -0.001300416 0.019464225 0.03948655 0.0030369577 0.023772733
0.04060453 0.017684411 -0.014636425 -0.008002098 0.0060708495 0.017968187 0.03753702 0.021840889
0.012969463 0.015765738 0.04204233 -0.038996264 -0.043633055 -0.043608643 0.010794418 -0.023176432
0.023421213 -0.04005852 -0.028167255 0.001646035 -0.039096024 -0.036111906 0.011964234 -0.011947616
0.02086526 0.0045147305 -0.025543094 -0.03268565 0.011380183 0.026824202 0.0055978317 -0.028379602
-0.019851126 -0.038043216 0.037652608 0.018053845 0.017401539 0.03278456 -0.009309253 0.0054992926
0.017721217 -0.021718334 0.004881227 0.038067006 0.0060620513 -0.03887732 0.03298426 0.044179875
-0.032708064 0.0127203455 0.040593352 0.035851818 0.0062168944 0.021811722 -0.017970065 0.03775168
-0.0025373185 -0.04017166 -0.010543018 -0.019722516 0.029917005 0.027719561 -0.0058802245 -0.026558876
0.009578382 0.03534265 -0.013903102 0.043129567 -0.034077015 0.043960016 0.002626625 0.0058400976
0.040881906 -0.02931794 0.024687344 0.028583473 0.0019865094 -0.019582294 -0.024892183 -0.030175446
-0.029617308 -0.01598965 0.03115269 0.012372389 0.040983394 -0.04026276 0.02091116 0.032082602
0.035435934 -0.00020487169 0.018783059 -0.014334835 0.017776951 -0.016734676 -0.04053281 0.008211191
0.014071656 -0.008354912 -0.010520569 0.034040574 0.00381782 0.0151683 0.0068324176 0.034776673
-0.016115611 -0.009908179 -0.036751404 0.03971291 0.030193072 -0.0050899815 -0.027461508 -0.010133128
-0.0054072095 -0.0133738415 -0.03542252 -0.0036562458 0.0328415 -0.01756703 -0.04455529 -0.019723777
-0.042833775 0.03377909 -0.019632611 0.036390405 -0.02832968 0.0054363646 -0.027184991 -0.039675117
0.0074176816 -0.027273286 -0.008698646 0.0138808 0.02903473 -0.0022824965 -0.027405815 0.023488428
0.032756697 0.040563498 -0.018357843 0.027246837 0.043826353 0.0231972 0.005930532 -0.03122674
-0.002494014 -0.03580472 0.039237984 -0.012528091 0.01314836 0.04348406 -0.02512473 -0.043962132
0.002275934 -0.037385516 -0.012432986 -0.0013025847 -0.02547451 0.013622347 -0.0405017 0.019169081
0.0030756437 0.030988267 -0.029852016 -0.004913972 0.02899743 0.028597202 0.039282557 0.02725313
0.01272398 -0.044436503 0.013627998 0.0066446266 -0.010824533 0.007824372 0.026914665 -0.028024022
0.03549581 0.015584155 -0.04072575 -0.039746843 -0.030188015 0.03472966 0.006408213 -0.0009061247
-0.010638462 0.031700246 -0.021837037 -0.006348646 0.029597696 -0.04087626 0.013324107 0.0044149095
0.0045034518 0.019610437 0.005031427 0.019929202 0.021175612 -0.021473862 0.0021095616 0.032570694
00000000: 6afc d639 1197 1dbc 6f15 fdbc 622c e6bc
00000010: ef0c 08bd 7996 ecbc a1c1 23bd 1f54 adbc
00000020: e041 3c3c a031 af3c 0d9b f6bc cc3f 1bbd
00000030: c946 ec3b e586 0f3d 2e52 13bd 3c42 33bd
00000040: 0119 f83c ea4b 1bbd 6225 9b3b 7f3a 293d
00000050: 1636 f63c dba5 8bbc 7735 403b 883c 5abb
00000060: e14c a93c d88b 2ebc 18ff 163d 5abd cd3a
00000070: bde5 683c f841 d2bc d60e 893c cf5b c73c
00000080: 731b 20bd ec10 ddbc c6a0 34bd 1061 8fbb
00000090: 133a f9bc fc77 fb3c 9be1 b13c 9cba 5ebc
000000a0: 2af2 97bc 3cd1 d23c f9ca 813c 7654 85bc
000000b0: 5024 003d f6cb 193d e4cc 04bd 73a7 10bd
000000c0: 1139 1fbc 2418 07bd 753e dd3a b872 aaba
000000d0: 7073 9f3c a6bc 213d b207 473b 09bf c23c
000000e0: f050 263d e6de 903c 9ecd 6fbc 3b1b 03bc
000000f0: faed c63b 0532 933c 6bc0 193d aaeb b23c
00000100: df7d 543c 2627 813c 9434 2c3d 8cba 1fbd
00000110: 93b8 32bd fa9e 32bd 12db 303c 80dc bdbc
00000120: d8dd bf3c 6714 24bd 04bf e6bc c5bf d73a
00000130: 2723 20bd 14ea 13bd a205 443c efbf 43bc
00000140: 9fed aa3c 4ef0 933b c03f d1bc 63e1 05bd
00000150: f273 3a3c 6ebe db3c 046e b73b 577c e8bc
00000160: d49e a2bc 34d3 1bbd 9f39 1a3d a8e5 933c
00000170: ac8d 8e3c 1a49 063d d685 18bc 6933 b43b
00000180: 162c 913c a6ea b1bc b3f2 9f3b 26ec 1b3d
00000190: 2ca4 c63b d33d 1fbd 811a 073d f5f5 343d
000001a0: e4f8 05bd ff68 503c 3745 263d 5bd9 123d
000001b0: 17b7 cb3b 7fae b23c f535 93bc 81a1 1a3d
000001c0: 2449 26bb 0a8b 24bd 9fbc 2cbc 1d91 a1bc
000001d0: 8214 f53c 2214 e33c e6ae c0bb 0092 d9bc
000001e0: a5ee 1c3c 74c3 103d d6c9 63bc a1a8 303d
000001f0: 5794 0bbd 6b0f 343d 7423 2c3b 4a5e bf3b
00000200: c973 273d 2d2c f0bc 1d3d ca3c e327 ea3c
00000210: 1930 023b 0c6b a0bc b1ea cbbc 7f32 f7bc
00000220: ff9f f2bc bafc 82bc ed33 ff3c 90b5 4a3c
00000230: 34de 273d 90ea 24bd e24d ab3c 0c69 033d
00000240: 4525 113d d3d2 56b9 eede 993c a8dc 6abc
00000250: f8a0 913c 2917 89bc bb05 26bd 3b88 063c
00000260: ce8c 663c 0ae3 08bc 775e 2cbc 216e 0b3d
00000270: 6434 7a3b 7684 783c 79e2 df3b fc71 0e3d
00000280: e304 84bc ea55 22bc a488 16bd 01aa 223d
00000290: 7657 f73c dcc9 a6bb f5f6 e0bc 6b05 26bc
000002a0: f62e b1bb f51d 5bbc 3417 11bd a09d 6fbb
000002b0: cf84 063d bbe8 8fbc 9c7f 36bd c293 a1bc
000002c0: 7872 2fbd f15b 0a3d 92d4 a0bc 1b0e 153d
000002d0: a513 e8bc 8823 b23b 0fb3 debc 6082 22bd
000002e0: 0610 f33b 3a6c dfbc c484 0ebc 4c6c 633c
000002f0: 3eda ed3c f095 15bb 2982 e0bc ce6a c03c
00000300: e32b 063d e925 263d 3063 96bc c234 df3c
00000310: 4383 333d 0e08 be3c e854 c23b 38cf ffbc
00000320: 9d72 23bb f8a7 12bd 02b8 203d 9f42 4dbc
00000330: 386c 573c 571c 323d 61d2 cdbc a311 34bd
00000340: d627 153b 8e21 19bd b9b3 4bbc 7dbb aaba
00000350: ebaf d0bc 4430 5f3c 1ce5 25bd 7a08 9d3c
00000360: bd90 493b 1bdb fd3c 378c f4bc 6305 a1bb
00000370: 058c ed3c ae44 ea3c bfe6 203d f541 df3c
00000380: 3d78 503c 0d03 36bd f747 5f3c 2bbb d93b
00000390: 6259 31bc cb31 003c 257c dc3c a292 e5bc
000003a0: 0e64 113d af54 7f3c 0bd0 26bd 96cd 22bd
000003b0: db4c f7bc b040 0e3d fdfb d13b 0089 6dba
000003c0: f24c 2ebc 1ed8 013d 96e3 b2bc 4d08 d0bb
000003d0: de76 f23c dd6d 27bd 5b4d 5a3c f2aa 903b
000003e0: b191 933b 11a6 a03c abde a43b 9142 a33c
000003f0: 7a78 ad3c f4e9 afbc 9240 0a3b d968 053d

fc1.bias f4 [50]
0.030202549 0.04109708 0.017407432 -0.043601964 -0.030566694 0.002465447 0.030954568 0.002021164
0.029647034 -0.039327517 0.026832417 -0.012225992 -0.025075687 0.03460945 -0.016663708 0.008786292
-0.024166536 -0.017031742 -0.01841758 0.013672355 0.018889295 0.0056237113 -0.013490057 0.014924392
-0.027590811 0.0429811 0.040103313 0.00971865 -0.019609936 0.04356993 0.033246096 -0.004444805
-0.041826162 -0.031678427 -0.017366828 0.023518793 -0.011462756 -0.036022928 0.02836608 0.026655458
0.031148419 -0.015807994 0.0149160465 -0.0002539347 0.026229754 0.012216621 -0.004170578 -0.043511335
-0.007703254 -0.011312012
00000000: 566b f73c 6955 283d 089a 8e3c f997 32bd
00000010: 0167 fabc 5693 213b 6f94 fd3c 8175 043b
00000020: 56de f23c e415 21bd a8cf db3c 874f 48bc
00000030: 876b cdbc a3c2 0d3d 5482 88bc 61f4 0f3c
00000040: e6f8 c5bc 2786 8bbc 77e0 96bc 0302 603c
00000050: b9bd 9a3c 1c47 b83b 6605 5dbc 7085 743c
00000060: 2006 e2bc f30c 303d 5f43 243d f93a 1f3c
00000070: 04a5 a0bc 6276 323d 0f2d 083d baa5 91bb
00000080: e951 2bbd 3dc1 01bd e144 8ebc 7caa c03c
00000090: 49ce 3bbc c78c 13bd fb5f e83c 8c5c da3c
000000a0: f82a ff3c c47f 81bc 6f62 743c 8a22 85b9
000000b0: c8df d63c 3928 483c 58a9 88bb f138 32bd
000000c0: 946b fcbb 0456 39bc

fc2.weight f4 [9, 50]
-0.105103366 -0.121499114 0.12858759 0.13134676 0.047336068 0.1208306 0.03472704 -0.109098695
-0.047366794 -0.06340316 -0.07621775 -0.054291002 -0.06561971 -0.064134866 0.01748926 0.10248123
-0.13637297 0.086894795 -0.12896831 0.09698598 -0.07142031 -0.009677479 -0.04482621 -0.1058681
0.013785163 0.019836769 0.123924255 -0.018863311 -0.05262532 -0.01140395 -0.050932672 0.018979087
-0.1219993 0.06923133 0.13071053 0.039156716 -0.08675703 -0.0010405747 0.123253636 -0.11401902
0.12883966 -0.06357158 0.10910043 0.08640295 -0.04685872 0.11903823 0.09905023 0.0080328565
-0.052399587 -0.011169929 -0.07585719 -0.009342113 -0.057149712 0.058292385 0.012016003 -0.022520913
-0.067395985 -0.022588972 -0.070134066 0.12968977 -0.029512847 0.10926425 0.053819586 0.08882767
0.07449517 0.05580795 -0.006964194 -0.08122794 -0.04253619 -0.03473841 -0.03768879 -0.02334373
-0.01718422 -0.0367543 0.084155396 0.02680757 -0.0031090698 0.04614837 -0.10741272 0.06269354
0.041203722 0.005714158 0.08362223 0.0019564633 -0.12930031 -0.12431505 0.05187428 -0.10627224
-0.066053644 -0.052464414 -0.024366288 0.035052706 0.112845466 -0.020541703 -0.017784692 -0.09294763
0.06462735 -0.083625674 -0.083800316 -0.08494351 -0.09066693 -0.00078078953 0.11628384 0.09762246
0.06421013 -0.109854095 0.05570829 -0.05105953 -0.052443482 0.09107257 -0.027285159 0.06580269
0.13863935 -0.011773384 -0.040280696 0.11672875 -0.021341372 -0.021585193 0.057650447 0.11785784
-0.12909426 -0.050285608 -0.0087476475 0.08977834 -0.008744133 -0.017442707 0.029350532 0.05912933
0.0734198 -0.0717832 0.11486043 0.02391885 -0.10242031 0.082291484 0.05522511 -0.052765112
-0.097340114 0.111629166 -0.045943793 -0.038550936 0.10403721 0.113993496 -0.10126654 0.017518787
-0.09267231 0.10164291 0.06969445 -0.12611742 -0.08314946 0.0010589779 -0.05962899 -0.14086658
-0.018325992 0.0904675 0.048014447 0.07347732 0.06487419 -0.10598965 -0.12686084 0.039131284
0.025611198 0.07169146 -0.12528577 -0.104349494 -0.06512953 0.122287795 -0.094625905 0.042277455
-0.11575956 0.055636186 0.07867597 0.027629385 -0.06596776 0.059993785 -0.015469315 0.13254358
-0.089680254 -0.01734248 -0.04419942 0.07482954 -0.05383835 -0.10561764 -0.1403176 0.11017044
-0.11325373 0.105163634 0.12919806 -0.0053055836 -0.06658501 0.08056708 -0.08736858 -0.05851008
-0.12530012 -0.14117385 -0.07493395 -0.020681268 0.036163535 0.05254647 -0.10959456 -0.09926787
0.0040080217 -0.066637374 -0.03927031 0.09503159 -0.11958903 -0.072530754 -0.053863864 -0.13337736
0.04429801 -0.041394375 0.029422352 -0.036275636 0.09635316 -0.0074266037 -0.12618954 -0.07858771
-0.09199759 -0.08105044 -0.058468357 0.11627414 0.06707988 -0.110511 -0.05803404 0.1088451
0.12695587 0.05577845 -0.076497175 -0.008418041 0.10840361 -0.13185792 0.12919532 -0.11031585
0.004490316 0.040952876 0.13312292 -0.11323854 0.123998806 0.0058136256 -0.049873076 -0.033532754
0.11062886 0.060128476 -0.13483416 -0.14007019 0.08836932 0.076504074 -0.13691753 -0.05005174
0.0063169664 0.0056758365 -0.048695628 -0.08594046 -0.12576924 0.033510562 0.07618718 0.058389734
00000000: 6f40 d7bd 87d4 f8bd 77ac 033e c47f 063e
00000010: 77e3 413d 0976 f73d f13d 0e3d 236f dfbd
00000020: af03 42bd 84d9 81bd 0d18 9cbd 3e60 5ebd
00000030: a063 86bd 2459 83bd a345 8f3c aee1 d13d
00000040: 5ba5 0bbe e6f5 b13d 4510 04be 96a0 c63d
00000050: d044 92bd 4a8e 1ebc b09b 37bd 60d1 d8bd
00000060: 2adb 613c b880 a23c 00cc fd3d 3b87 9abc
00000070: a68d 57bd a2d7 3abc c79e 50bd 087a 9b3c
00000080: c5da f9bd 28c9 8d3d fbd8 053e cb62 203d
00000090: abad b1bd e563 88ba 676c fc3d ce82 e9bd
000000a0: 8bee 033e d131 82bd 0c70 df3d 08f4 b03d
000000b0: eeee 3fbd 51ca f33d d9da ca3d 3e9c 033c
000000c0: f3a0 56bd 1402 37bc 045b 9bbd a90f 19bc
000000d0: d115 6abd ffc3 6e3d c5de 443c c77d b8bc
000000e0: e806 8abd 820c b9bc 73a2 8fbd 65cd 043e
000000f0: edc4 f1bc efc5 df3d ed71 5c3d 48eb b53d
00000100: ec90 983d e196 643d e533 e4bb d65a a6bd
00000110: 6e3a 2ebd dd49 0ebd 905f 1abd 5a3b bfbc
00000120: ecc5 8cbc ad8b 16bd aa59 ac3d 8d9b db3c
00000130: 89c1 4bbb 1306 3d3d 33fb dbbd 7865 803d
00000140: 3cc5 283d d53d bb3b 2242 ab3d 0238 003b
00000150: 4d67 04be e498 febd 207a 543d 43a5 d9bd
00000160: 2247 87bd ede4 56bd cf9b c7bc 6d93 0f3d
00000170: 861b e73d 1347 a8bc 34b1 91bc 545b bebd
00000180: 585b 843d f043 abbd 809f abbd ddf6 adbd
00000190: 95af b9bd e6ad 4cba 3926 ee3d 49ee c73d
000001a0: 9a80 833d 2ffb e0bd 602e 643d cc23 51bd
000001b0: face 56bd 4184 ba3d 2085 dfbc 90c3 863d
000001c0: 79f7 0d3e 27e5 40bc 5ffd 24bd 7c0f ef3d
000001d0: 1ad4 aebc 6ed3 b0bc e022 6c3d 745f f13d
000001e0: 4931 04be 48f8 4dbd 4b52 0fbc b5dd b73d
000001f0: 8d43 0fbc 02e4 8ebc 8770 f03c 9931 723d
00000200: 1f5d 963d 1203 93bd f23b eb3d 77f1 c33c
00000210: bdc1 d1bd 7088 a83d ba33 623d 3b20 58bd
00000220: 415a c7bd d59d e43d 8f2f 3cbd 96e7 1dbd
00000230: 7611 d53d 6c75 e93d d564 cfbd 8f83 8f3c
00000240: fbca bdbd 282a d03d f7bb 8e3d ed24 01be
00000250: 444a aabd 67cd 8a3a 873d 74bd 543f 10be
00000260: 6420 96bc 0647 b93d ccaa 443d 477b 963d
00000270: c2dc 843d 1a11 d9bd cfe7 01be 2048 203d
00000280: 93ce d13c f9d2 923d ea4a 00be 30b5 d5bd
00000290: a262 85bd 0672 fa3d 3acb c1bd 202b 2d3d
000002a0: 5913 edbd c5e2 633d de20 a13d 0557 e23c
000002b0: 1b1a 87bd 0bbc 753d 0373 7dbc 81b9 073e
000002c0: 48aa b7bd d111 8ebc 730a 35bd 3b40 993d
000002d0: 9a85 5cbd 104e d8bd 6baf 0fbe 0aa1 e13d
000002e0: 92f1 e7bd 0860 d73d 7f4c 043e 76da adbb
000002f0: b95d 88bd 5a00 a53d 4cee b2bd 44a8 6fbd
00000300: ad4e 00be e18f 10be f976 99bd c36b a9bc
00000310: 3720 143d f83a 573d 1d73 e0bd f44c cbbd
00000320: b955 833b 2d79 88bd e8d9 20bd ec9f c23d
00000330: 18eb f4bd 018b 94bd 5ba0 5cbd 1394 08be
00000340: d571 353d 268d 29bd 2507 f13c c395 14bd
00000350: ce54 c53d de5a f3bb d537 01be 98f2 a0bd
00000360: 3c69 bcbd c6fd a5bd 847c 6fbd 2321 ee3d
00000370: 2d61 893d 9753 e2bd 1ab5 6dbd 2eea de3d
00000380: b800 023e f277 643d 8daa 9cbd d3eb 09bc
00000390: b602 de3d c305 07be c74b 043e 47ed e1bd
000003a0: 8023 933b 34be 273d 6051 083e 9ce9 e7bd
000003b0: 16f3 fd3d 3a80 be3b b647 4cbd a459 09bd
000003c0: 6291 e23d 4749 763d f711 0abe 8f6e 0fbe
000003d0: f9fa b43d 2bae 9c3d 1c34 0cbe 0e03 4dbd
000003e0: 8efe ce3b 5efc b93b 1175 47bd 8d01 b0bd
000003f0: a7c9 00be 5f42 093d 0608 9c3d 132a 6f3d

fc2.bias f4 [9]
0.024155969 0.1269855 0.13958521 -0.09479766 -0.08953713 0.06098896 0.07150431 -0.045285113
0.009754899
00000000: bde2 c53c 7d08 023e 6def 0e3e 4725 c2bd
00000010: 3e5f b7bd 8fcf 793d da70 923d e27c 39bd
00000020: 03d3 1f3c
