GameAIFinalProject/model/model_mymodel91.pth (torch_old, 126465 bytes, 8 tensors)

conv1.weight f4 [10, 3, 5, 5]
00000000: 6549 a1bd deae 983d 4b99 87bd 132b 07bd
00000010: 62e3 d13d 3a7f 883d 5987 f13d 9710 043d
00000020: 549a a0bd d747 5ebd d0cf a4bd 8850 bf3d
00000030: ef1e 17bd 0038 e73d 66c1 ad3d 8d22 783d
00000040: 24b8 b43d 4dec 85bd edee 413d b886 143d
00000050: 5bbb a9bd 839c ce3d 5986 3dbd c4b2 d2bd
00000060: 1a78 6fbd 4ab0 afbd 8f4d debd a410 b83d
00000070: 625f 8ebc bbc8 7ebb 6822 70bd 0168 a63d
00000080: c3b2 933d 65de a1bd 6ba0 9c3d 69df ba3c
00000090: 46a1 453c c1a7 f8bc 2cba dabd 9b5f 49bc
000000a0: cee7 6fbc 5282 903b ab8c 03bd b139 a13c
000000b0: 9418 4ebd 19c1 073b d433 7dbd 1420 803d
000000c0: 6ec7 d8bc e11e 273c fcca 37ba 92d4 923d
000000d0: 952c 1c39 10fc a4bc 7430 953d 1578 843b
000000e0: 7f1e b5bd 718b 913d c970 153d 3120 9fbc
000000f0: a6ca 33bd 0098 533d 3168 9c3c 96d9 b53d
00000100: 7c75 a83d f801 b43d 32c4 5ebc 08db 0cbc
00000110: 0227 b3bd dc6e 273d 57bf c9bd 12ea 80bc
00000120: 483c 2bbd d922 9d3c 385e 77bd 121f 033c
00000130: bc66 183d 0112 71bd 181c be3d a747 ca3d
00000140: d3b3 f2bc cdd7 ddbd 12e2 88bd 01f1 bc3d
00000150: b235 9cbd f358 83bd 6f2d 9c3d 5e0b 48bd
00000160: c28c bd3c 7589 95bd f897 e7bd b271 bc3d
00000170: 74bd 00bc ff00 953d cbe3 223d 8ecf 23bd
00000180: 3187 43bd 0ce6 73bd fe38 fc3c 42d8 823c
00000190: a02a f3bc 081d 9c3d ac76 993c 0b1c c53d
000001a0: 98e2 85bd e02e a1bc 075b d5bd 0f3e 923c
000001b0: e26a dc3c 65ec 77bd 9d7e 0a3c da03 883d
000001c0: 9400 ebbc 4965 e63d b0e5 6abd 4b73 40bc
000001d0: abc7 5abd 77b5 e13d 7227 db3d b1ec 893d
000001e0: a656 423d 6e4f d0bd d554 da3b a48e 543d
000001f0: 8cc0 6e3c 707a 603d c342 5c3c 688c d7bd
00000200: 22fc 9ebb 66a0 3dbd 4728 413d 7580 87bc
00000210: 73e9 e7bd 8278 be3d 4464 2f3d f51b cbbd
00000220: 6d7e d83c b6a9 333d 37ea cfbd 2bce c73d
00000230: afa9 83bd 4e70 a2bc 0b4f c73d 5513 8ebd
00000240: 8ff8 bfbd 1fa0 bc3d b417 68bc 6894 b63d
00000250: a229 97bd c0ae 65bd 6988 1cbd 5987 a5bd
00000260: 69c8 08bd 62db 7e3c 4a25 96bc 8b0f c7bb
00000270: b445 533d 8ac5 793d ca09 d93d 1bb1 503d
00000280: e8c4 9cbd b1d5 9d3d ddad 94bd d618 b43c
00000290: 9008 8b3d a353 b83d a96d d5bd a36a 97bd
000002a0: acb0 773d c12d 363c 8599 ccbd 367c d83b
000002b0: d2cb bebd 552a 30bd f16c e3bd 31bb 8abd
000002c0: 3386 68bd e6c8 b2bd 1b01 dd3d 3bcb b93d
000002d0: c7ee a33c c1c1 a7bc e806 0b3c 2b61 c13c
000002e0: e0f7 86bd dc54 68bd eb16 7ebc c9d2 993d
000002f0: 30d8 69bd f6f0 8cbd cfb6 04bd 42a3 e7bd
00000300: 0959 3ebb 86ac af3d d924 07bd e618 1abd
00000310: a193 8fbd 90d7 3f3c c07b f8bc 41d3 533c
00000320: c20f 62bd d1ad 8b3d 04a7 babd ef0c 40bd
00000330: bea8 c3bd 73fa a4bc b4b5 bfbd 2f30 f43c
00000340: d3b6 9a3c 7414 a5bc 9e88 e4bc 3f11 093d
00000350: d7f7 323d bb65 a9bb d56e a1bd 1272 ccbd
00000360: 2fec e7bd eed4 043d 5e4f 813b 2a62 9d3d
00000370: df06 9e3d fb39 b3bd 683c 433c 0579 403d
00000380: 70a2 69bd 8d53 96bd f601 783c 9cc3 543c
00000390: 5fcf e2bd 6518 e6bd 5bee a63c 2a22 303d
000003a0: 0045 be3d 5bc6 343d 93ac a8bd 7a5e 36bd
000003b0: 60b9 00bd 1237 a7bd 21f3 fb3b f11d 343c
000003c0: a6ed e8bd 1d07 ba3d 19c5 ffbb ed4b b53d
000003d0: ef03 453c 449a 9bbd 9dc4 c43d 9bb7 8e3d
000003e0: 3d8c 743d 0552 79bd 0a51 6dbd bd7b 943d
000003f0: 9e92 213d 496f c4bc df87 c13b 1112 b83d
-0.07875327 0.07455228 -0.06621035 -0.033000063 0.10248448 0.066648915 0.11793394 0.032242384
-0.07841936 -0.05426773 -0.080474496 0.09341532 -0.036894735 0.11289978 0.084841534 0.060579825
0.088241845 -0.065392114 0.047346998 0.03626129 -0.08287688 0.10088446 -0.046270702 -0.10288003
-0.058464147 -0.08578546 -0.10854637 0.08987549 -0.017379466 -0.003887697 -0.058626562 0.08125306
0.072118305 -0.079037465 0.07647785 0.022811608 0.012062376 -0.030353429 -0.10680041 -0.0122908605
-0.014642669 0.0044100666 -0.032116573 0.01968083 -0.05031641 0.002071446 -0.061817005 0.062561184
-0.026462283 0.010200233 -0.0007011143 0.07169451 0.00014893927 -0.020139724 0.07284632 0.004042635
-0.08843707 0.071066745 0.036484513 -0.01942453 -0.043894432 0.05165863 0.019092651 0.08879392
0.08225533 0.08789438 -0.013596581 -0.008597143 -0.087476745 0.040877208 -0.09850948 -0.015736613
-0.041805536 0.019181656 -0.06039259 0.008003013 0.03720735 -0.05885506 0.09282702 0.09876948
-0.029626762 -0.10832176 -0.066837445 0.09225655 -0.07627429 -0.0641345 0.07625853 -0.048838966
0.023138408 -0.073016085 -0.113082826 0.09201373 -0.007857669 0.072755806 0.03976802 -0.03999286
-0.04773635 -0.05954556 0.030788895 0.01597226 -0.029683411 0.07622725 0.018733345 0.096244894
-0.0653736 -0.019675672 -0.10417753 0.017851857 0.026906434 -0.060528178 0.0084530385 0.066413596
-0.0286868 0.11249787 -0.057347953 -0.011746238 -0.053413074 0.1102094 0.10700883 0.067345984
0.047445916 -0.101714 0.006662945 0.051893845 0.014572274 0.054804265 0.013443652 -0.10524827
-0.004851834 -0.046295546 0.047157552 -0.016540745 -0.11323824 0.09300329 0.04282023 -0.09917442
0.026427472 0.04386302 -0.10152095 0.0975612 -0.06428849 -0.019828942 0.09731873 -0.06937281
-0.09373581 0.09210228 -0.0141658075 0.08915025 -0.07380988 -0.056074858 -0.03821603 -0.08082456
-0.03339425 0.015555235 -0.018328328 -0.006074851 0.051580146 0.060979404 0.1059757 0.05095015
-0.076547444 0.07706774 -0.07259724 0.021984499 0.067887425 0.090003274 -0.10421307 -0.07393386
0.06047122 0.011119307 -0.09990219 0.006606604 -0.093162194 -0.04300912 -0.11104763 -0.06773985
-0.056768607 -0.087297246 0.107912265 0.09071966 0.020011319 -0.020478131 0.008485533 0.023605904
-0.06590247 -0.056721553 -0.015508394 0.07510907 -0.057090938 -0.06881897 -0.032400902 -0.11310436
-0.0029044768 0.08577828 -0.032994125 -0.0376214 -0.0701058 0.011709109 -0.030332446 0.012928785
-0.05519081 0.06820262 -0.09113887 -0.046887334 -0.095536694 -0.020138955 -0.09360829 0.029808132
0.018886006 -0.020151354 -0.027897175 0.033463713 0.04369339 -0.005169598 -0.07882468 -0.09982695
-0.11324345 0.032429628 0.003946229 0.07684739 0.07716154 -0.08751293 0.011916257 0.046990413
-0.057039678 -0.07340155 0.015137186 0.01298609 -0.11074709 -0.11235122 0.020377329 0.04300133
0.092905045 0.04413448 -0.08236041 -0.044523694 -0.031426787 -0.08164801 0.0076888953 0.010993467
-0.11373453 0.09083388 -0.0078054783 0.08852372 0.012024864 -0.07597783 0.096078135 0.06968614
0.059704054 -0.060869236 -0.057938613 0.07250164 0.039446466 -0.023978846 0.0059060897 0.08987821

conv1.bias f4 [10]
00000000: ff3a 15bc 05bc a0bd 5a2c d83d 35f9 b63c
00000010: a382 643d 6663 5f3c 2f58 8b3d 4c90 d93a
00000020: ffc8 6dbd dca8 bcbc
-0.009108304 -0.07848362 0.105553344 0.022335628 0.055788647 0.013634538 0.06803929 0.001659879
-0.058053013 -0.023029737

conv2.weight f4 [20, 10, 5, 5]
00000000: 000c 453d 1d28 bebc f162 dcbc 8d81 0abd
00000010: 2b30 653d 6a55 e33c 4d68 59bd 8542 103d
00000020: 36df 113d b88d 81bc 1ab1 5ebd 68b9 533c
00000030: a867 b03c 10af 493c a2b3 2abd 8e5f c1bc
00000040: 6a3d 8cb8 829a 80bc 1f0b f0bc 8824 1f3d
00000050: 4092 003d c425 cb3c 50c3 3c3d a4dd 86bc
00000060: 8332 3fbd af11 173d e2e8 28bc 654f 3cbd
00000070: 9d8d adbb 5174 6ebd 7be6 37bd 1382 783d
00000080: 98c7 67bd 121c 5abc 6894 8f3c 9cf4 bfbb
00000090: 624b 133a 1f96 35bc 25eb 773d d289 14bd
000000a0: d4ed 663d 5b52 903c 95e3 783d a80f d1bc
000000b0: 9198 44bc 46b9 643d aac3 5639 94f6 fcbc
000000c0: 699e 51bc 59ec 06bc a61c 1dbd 4234 d7bb
000000d0: 5f71 f03c 4d85 1cbd aa64 52bd 08ce 60bd
000000e0: ce16 08bd fab4 26bd d399 01bd 8e4f 8d3c
000000f0: d9ec 633d f7c1 0abd bb0b 6bbd 5689 d73c
00000100: 034f 713d 1f85 2abd a4f9 383a 6810 483b
00000110: c00c 643d 9367 2a3d 7302 b53b 7748 e1bc
00000120: 300f 393d 006f c2ba cb39 313d dc02 353b
00000130: 3e54 49bd 9b67 e8bb cb66 6e3d a45b 0dbd
00000140: 1f6d a6bc 729b 6bbd b29b 9e3c 4b67 213d
00000150: bf51 7fbd 495e 1cbd 0d3c 3bbd 3391 963c
00000160: 382a 40bd c0ff 613d 3b69 663d ada2 0d3d
00000170: b57e 48bd 3263 633d a2ca 91bc af80 5fba
00000180: 84e7 2cbd 3f7d 70bd e324 3f3d 927e 213d
00000190: ec48 ddbc 527a c03c 2c96 ce3c 668f 0bbd
000001a0: e4e9 22bd 49a9 67bd 000f f6bc e97e 1cbd
000001b0: aed2 f93c 325e c7bc 3aa9 d2ba 6c0c 5b3d
000001c0: 776a ef3b e8c1 e238 62a7 103d fe1d 69bd
000001d0: a351 013d a827 1b3b 3bf1 6a3c 6ee7 e13c
000001e0: c3dd 17bd 6e8f 983b 4aaa 6a3d f131 cc3c
000001f0: 5c98 1ebc 3aa8 ed3c b605 a13c 2e50 51bd
00000200: 4796 053d 78bd 17bd 5254 69bd 3792 de3a
00000210: 532e 05bd c6ef 093d eba0 753d 20c3 b0bc
00000220: f003 e23a af36 343d 3a1e 1e3d cb2d 20bd
00000230: 3a6d 833b 915f c7bc d834 5cbc a15d 73bd
00000240: c12e d63c 2e03 7e3c 039f 8abb 6d63 bebc
00000250: df1d 1bbd f61e 46bd 791c 13bd 4e6f f7bc
00000260: 534a 61bc 77fe a83b 3f79 e43c 3cc6 dd3b
00000270: b8b3 2d3a a052 50bc c17e eebc fbe3 5e3d
00000280: ca5f 2ebc 17c1 ad3b fb52 2a3d a69f db3c
00000290: bb6e 23bd 9768 cdbc 46b1 3fbd ba82 ef3b
000002a0: 8281 6bbd cb06 1b3d c6fa 90bb 8287 6abc
000002b0: f1dd 3ebd 8551 8cbc 72a0 41bd c346 973b
000002c0: a394 183d 5860 493b 1687 313d ad04 2cbd
000002d0: 0a4a 873c ccb6 8bbc b611 3d3d 8481 6d3d
000002e0: d823 2f3b d119 1dbd 4823 47bc 43c3 7fbd
000002f0: 13c7 8a3c e3c9 2cbd 6fa7 923c fee9 cf3c
00000300: 2f07 373b feaa d4bc 953d 8abb 2d2a 57bd
00000310: dca4 e43b 1acb dcbc 2b91 8bbc 83c5 77bc
00000320: 3e89 773d c020 aabc 0f34 42bd b789 41bd
00000330: 28cb 573d 13ae 2cbc ffa1 14bd fca8 6b3d
00000340: 2a42 45bd c441 1bbc b0d7 46bb c662 1f3d
00000350: 0415 613d 2786 98bc d0ab 18bd f1c9 ae3c
00000360: 2203 25bd c47a d1ba 2c24 6b3c cc24 07bd
00000370: 8593 163b abba 1b3c 69d4 79bd ba79 69bd
00000380: 08a4 e4bb 8069 ed3c 7102 7cbd 386d 353c
00000390: ffbb a1bc 2bc9 c9bb e2d3 e0bc 3ae5 8ebc
000003a0: d231 f2ba 8834 e33c d3a4 7cbd dbb7 04bd
000003b0: 2554 7bbd 929a 273c 1b22 273d b826 623d
000003c0: f33f 253d 320a 783d 9084 cfbb d4c9 7cbd
000003d0: 8975 a8bc 7033 143a 9222 babc 6d02 89bc
000003e0: 08a8 0d3c 77d9 2a3d 1637 2bbb 2b4c afbc
000003f0: f0f0 f0b9 1a87 5b3d 430e af3c c260 86bc
0.048107147 -0.023212487 -0.026902648 -0.033814956 0.05595414 0.02775069 -0.053077985 0.035219688
0.03561326 -0.015814647 -0.054368116 0.012922622 0.021533802 0.012309805 -0.041675217 -0.023605134
-6.6871595e-05 -0.015698675 -0.029302178 0.0388532 0.031389475 0.024798281 0.046084702 -0.016463108
-0.04667903 0.0368821 -0.01030943 -0.045974154 -0.0052964226 -0.058216397 -0.044897538 0.060670923
-0.05658683 -0.013312357 0.01752682 -0.005858017 0.0005618838 -0.011083155 0.060526986 -0.03626425
0.056379154 0.017617395 0.060763914 -0.02552016 -0.011999265 0.055840753 0.00020481521 -0.030879296
-0.012794116 -0.008235061 -0.0383574 -0.006567509 0.029350935 -0.038213063 -0.051365532 -0.054883987
-0.033224873 -0.040699936 -0.03164084 0.017249849 0.055645797 -0.033876386 -0.057384234 0.026310604
0.058913242 -0.04163086 0.00070562423 0.0030527357 0.05567622 0.041602682 0.0055239736 -0.027500374
0.0451805 -0.0014834106 0.043268006 0.0027620113 -0.049152605 -0.007092429 0.0582035 -0.034511223
-0.020315705 -0.05752129 0.01936135 0.03940515 -0.06233382 -0.038175855 -0.045711566 0.018379783
-0.046915263 0.055175543 0.0562527 0.034578968 -0.048948962 0.055514522 -0.017796818 -0.000852595
-0.042212978 -0.058713194 0.046666037 0.039427347 -0.02701231 0.023495827 0.025218092 -0.034072302
-0.039773837 -0.056557927 -0.03003645 -0.03820697 0.030495968 -0.024336908 -0.0016072162 0.053478643
0.007306393 0.000108126376 0.03531588 -0.05691337 0.031571995 0.002367476 0.01433974 0.027576175
-0.037076723 0.00465577 0.057291307 0.024926158 -0.00967988 0.02901088 0.019656043 -0.051101856
0.03261402 -0.037045926 -0.05696518 0.0016980831 -0.03251488 0.03367593 0.059967916 -0.021577418
0.0017243605 0.043997463 0.038603045 -0.03910617 0.0040108236 -0.024337562 -0.013440333 -0.059415463
0.02614534 0.015503688 -0.0042303815 -0.02324077 -0.037870284 -0.04836937 -0.035915826 -0.030204441
-0.01375063 0.0051572877 0.027889846 0.006768016 0.00066262065 -0.012715012 -0.029113175 0.054416638
-0.010642955 0.005302559 0.041583043 0.026809525 -0.039900523 -0.025074286 -0.04679992 0.007309285
-0.057496555 0.037848275 -0.004424426 -0.014314534 -0.04659838 -0.017128715 -0.047272153 0.0046165898
0.037251126 0.0030727591 0.04334172 -0.041996647 0.016514797 -0.017054938 0.04615947 0.057984844
0.0026724245 -0.0383547 -0.012154408 -0.062442075 0.01694063 -0.04218472 0.017902104 0.02538013
0.0027927866 -0.025960442 -0.004218767 -0.052530456 0.0069776606 -0.026952315 -0.017036995 -0.015122774
0.06043362 -0.02076757 -0.04741293 -0.047250476 0.05268398 -0.010539549 -0.036287304 0.057534203
-0.048158802 -0.009476129 -0.0030340962 0.038912557 0.054951683 -0.018618656 -0.03727323 0.021336528
-0.04028619 -0.0015982022 0.014351886 -0.032994077 0.0022976112 0.009504954 -0.060993586 -0.057000853
-0.006977562 0.02898097 -0.061525766 0.011073403 -0.019742964 -0.0061580143 -0.027444784 -0.017443288
-0.0018477982 0.02773501 -0.061680626 -0.0324019 -0.061359543 0.0102297235 0.04080401 0.055212706
0.04034419 0.060556598 -0.0063329414 -0.061715916 -0.020563858 0.0005653417 -0.022721563 -0.01672479
0.008646019 0.041711297 -0.0026125363 -0.021398624 -0.0004595588 0.05359564 0.021369105 -0.01640356

conv2.bias f4 [20]
00000000: 82a2 f53b 875f 3bbd 7926 6fbd 3add ac3c
00000010: eaaf b43c 6f93 af3c e5e7 bf3c 1ff9 793d
00000020: 1ac3 2fbd d32b 60bd 4f61 e4bc 3962 093c
00000030: 0418 1fbd f093 b83c 1152 5a3d 8fed acbc
00000040: ec69 10bc 35b7 4cbd 5ca8 973c 3591 6d3c
0.007496179 -0.0457454 -0.0583863 0.021101583 0.022056539 0.021432607 0.023426006 0.061028596
-0.042910673 -0.054729294 -0.027878432 0.0083852345 -0.038841262 0.02253148 0.05330092 -0.02110937
-0.008814316 -0.049979407 0.018512897 0.014499952

fc1.weight f4 [50, 500]
00000000: 0a1c dabc 100e 02bb f6e4 623c e153 afbc
00000010: a78c 293d b06a d9bb e930 10bd 5ef0 e03c
00000020: 2089 083c d49e 66bc 942e dfbc ca8b fa3c
00000030: d073 943c 2a80 afbb cf43 f43c c9c2 203d
00000040: dee8 ab3c 4e6a f8bc 4f39 983c 1736 35bd
00000050: cfe3 d8bb 681b e5bb 5803 903c 0e79 35bd
00000060: f9b9 4dba af7b f43b a2ae 303d 34f7 b2bb
00000070: 2109 283d 7b76 123d 25c1 2e3d 92b6 203d
00000080: fc00 23bd 4a3a 26bd e02d 85bb 9f15 203d
00000090: 427d 05bd 2298 ad3c 2efc e03c cc0f 0cbc
000000a0: fed5 c93c a183 243d e652 19bd 3905 e2bc
000000b0: 6207 cc3c eb22 fb3c 98d5 c6bb 6329 0f3d
000000c0: 36f4 0fbd b098 5fbb 9866 dfbb 7b04 d1bc
000000d0: f569 5f3c 4c74 d8bc 8999 1c3d e17d 9bbc
000000e0: 686a 2bbc fbd6 b8bc fbad 2a3d 6213 b83c
000000f0: a455 2ebc 442a 2abd 894f 063d e23f 253d
00000100: 4137 0c3d dc24 03bd 2a09 e73c e5ce 89bc
00000110: d88e b13b be83 85bc b823 04bc 1665 983c
00000120: aa2a c5bc 0139 8d3c ff6e 14bd 510e 0c3d
00000130: beb5 c13c c761 d63c eae2 f83c 30c3 43bc
00000140: 2ace d1bc 39a1 1bbd 79fa d0bc 0d04 b4bc
00000150: d50d 9abc f5bf 123d c8c4 f7bc 090a a23b
00000160: 51fc f23c cc9d 9bbc 60fa 91bc d049 713c
00000170: 5501 a13c f469 20bc 27d9 03bd 50a6 2e3d
00000180: db45 b03c 9415 063d 1506 283d 6c27 d63c
00000190: df24 d13c 4958 f23a 0a9d 223d 1fd6 833c
000001a0: 99e8 813c 5776 c4bc 7e60 9abc d3bc 293d
000001b0: e85b 15bd b0bc 263d 639b 1abd 27a1 c4bb
000001c0: 3c2c 66bb 69c8 be3c 4e81 4b3c cd52 26bd
000001d0: 909d 6c3c eb70 c53a 2324 173d 100e 1d3d
000001e0: 88f0 d5bb e817 8cbb b8fc 80bb 06de ab3c
000001f0: 8ff5 0cbd 7e4f bebc e422 e8bc c891 fcbc
00000200: 2390 cdbc 5c4a adbb 5908 24bd 46cf 2d3d
00000210: c3a1 37bb 57fd 95bc aff8 b53c 9a4a d1bc
00000220: 21cf afbc b5e2 babc a834 06bd 3c16 083c
00000230: 4e89 2b3d dae8 e93c 07ee ac3c b00a 6c3c
00000240: a11e 2f3d ca70 17bd 39a7 0a3c ceeb ef3c
00000250: cad9 4d3c b0aa dc3c 7e5e 933c dae4 173d
00000260: b308 db3c 1802 78bc 1780 873c 29ca c53c
00000270: fb5c 243d 3880 cebc d1bd 74bc 896d 86bb
00000280: 05e9 b23c 95f0 2abd c8b4 8fbc 6eba d9bc
00000290: 8e12 20bd e376 10bd 56f4 343c 128b 03bd
000002a0: b039 933c adc3 25bd 0009 22bd 148b 8c3c
000002b0: 347c d03c 195d c73c a616 023a 9daf 273d
000002c0: f305 103c ef09 debb b265 b8bc b44e 19bd
000002d0: 39e0 ab3c 483f 053d 1a9a 853c 6467 073d
000002e0: cbd7 063d 4316 ddbb 6e19 18bd a207 a93c
000002f0: d2f8 d3bc bbb1 283c f5e9 2f3d 9a3c 7d39
00000300: 5c4c 043c e9b0 4e3a e13b 1cbd a937 893b
00000310: 6e68 063d b99d c5bb df23 2ebd ca1a 08bd
00000320: ee1a 17bc 89ca 803c ba48 d23c 63de b3bc
00000330: 3936 0b3d 7b01 d23c 90d4 40bc 73ef 2e3d
00000340: 5f93 0dbd 0e89 afbc 9aaa f1ba 8da4 32bd
00000350: 193f ec3c da39 e93c 36e9 193b 7946 ec3b
00000360: c99e 153c 188d 203d fbdd 293d fa4c e03c
00000370: 26c6 2cbd e41f b43c 797c 6d3b f9d4 143d
00000380: 9d0a ddbc 7514 863c 35e7 1dbd 9808 2f3c
00000390: ac03 33bd 6aae b2bc 7a00 ef3b 37d7 1c3c
000003a0: da9e 96bc 9158 443c 6719 73bc 15c0 813c
000003b0: e864 24bc 52a7 9e3c fa4c 21bb d357 873c
000003c0: 0670 833b 1c42 ecbc 0ca0 86bc edff af3c
000003d0: 674d f4ba dc37 bc39 acc6 b5bb 189f 1f3c
000003e0: fd7e 8bbc 7d86 9839 d4c2 f3bc 570b 0dbd
000003f0: f0dd 133b 2fdf 013d 826a 02bd f2ba 063d
-0.026624698 -0.0019844808 0.013848534 -0.021402301 0.041393902 -0.0066350326 -0.035202894 0.027458366
0.008333474 -0.0140759535 -0.02724389 0.030584235 0.01812163 -0.0053558545 0.02981749 0.03924826
0.020985063 -0.030324128 0.018582014 -0.044241037 -0.006618954 -0.0069917925 0.01757972 -0.0443049
-0.00078478415 0.0074610333 0.043135293 -0.005461598 0.04102433 0.035757523 0.042664666 0.039236613
-0.03979586 -0.040582933 -0.0040643066 0.03908312 -0.03259016 0.021190707 0.027463999 -0.008548688
0.024638172 0.040164594 -0.037432574 -0.027590381 0.024905864 0.030656299 -0.006067943 0.03495158
-0.035145007 -0.0034118108 -0.00681765 -0.025514832 0.013636102 -0.026422642 0.03823236 -0.018980922
-0.010462381 -0.022563448 0.041669827 0.02247018 -0.0106405355 -0.041544214 0.032790694 0.040344127
0.03423238 -0.032017574 0.028202612 -0.016822288 0.0054186396 -0.016298171 -0.008065157 0.018602889
-0.024068195 0.017239096 -0.036238667 0.03419334 0.023646232 0.02616967 0.030381639 -0.011948392
-0.025611002 -0.03799555 -0.02551006 -0.021974588 -0.018805424 0.035827596 -0.0302452 0.004945044
0.02966133 -0.018996142 -0.017819583 0.014727071 0.019653955 -0.009790886 -0.032189514 0.042639077
0.021517685 0.032735422 0.041021425 0.026141845 0.025530277 0.0018489446 0.039700545 0.016093312
0.015857982 -0.02398221 -0.01884484 0.041439842 -0.0364646 0.04070729 -0.037745845 -0.006000656
-0.003512158 0.023288922 0.012420965 -0.04060631 0.014441863 0.0015063559 0.036899697 0.03834349
-0.0065289177 -0.004275311 -0.0039363764 0.020979892 -0.03441387 -0.023231264 -0.02833695 -0.030831233
-0.025093144 -0.0052884053 -0.040047023 0.042434 -0.0028020001 -0.018309278 0.022213308 -0.025548268
-0.021461071 -0.02281318 -0.03276506 0.008306082 0.04187899 0.028553415 0.021109594 0.014406845
0.04275382 -0.0369728 0.008462721 0.029287245 0.012564132 0.026936859 0.017989393 0.037083484
0.026737547 -0.015137218 0.01654057 0.024144249 0.040127736 -0.025207624 -0.014937834 -0.004102413
0.021839628 -0.041733343 -0.017542258 -0.026578154 -0.039080195 -0.03526963 0.011044582 -0.03211505
0.017971843 -0.040469814 -0.039559364 0.017156161 0.02544985 0.024336385 0.00049624813 0.040938962
0.008790481 -0.0067760865 -0.02250943 -0.037428573 0.020980941 0.032531053 0.016308833 0.033057585
0.03292064 -0.0067470386 -0.037133627 0.020633522 -0.025875483 0.0102962805 0.04294773 0.00024150536
0.008074846 0.0007884638 -0.038143042 0.0041875434 0.032814436 -0.006030765 -0.042514678 -0.033228673
-0.009222729 0.015721576 0.025669444 -0.021956628 0.033987258 0.025635472 -0.011769429 0.042708825
-0.034564372 -0.021427657 -0.0018437684 -0.04361396 0.028838681 0.028469969 0.0023484952 0.0072105494
0.009132096 0.039197057 0.041471463 0.027380455 -0.042181157 0.021987863 0.0036237522 0.03633592
-0.0269826 0.016367177 -0.038550574 0.010683201 -0.043704674 -0.021811683 0.007293758 0.009572796
-0.018386293 0.0119840065 -0.014837599 0.015838662 -0.010033824 0.019366894 -0.0024612532 0.01652137
0.004011157 -0.028840117 -0.016433738 0.02148434 -0.001863879 0.00035899773 -0.005547365 0.009742521
-0.017028326 0.000290919 -0.029755987 -0.034434643 0.0022562705 0.031706985 -0.031839855 0.03289313

fc1.bias f4 [50]
00000000: cc70 623c 33ca 3e3d 73b0 e63c 8546 76bc
00000010: e4c9 56ba a94a 0bbd a92c db3c 6b31 e9bc
00000020: 8c3e 47bc 97f0 e53c bec3 43bc 1df6 ef3c
00000030: d60d e2bb 4541 adbc 27fb c3ba 6fcc 5abc
00000040: 7d15 913b d34a 913c a88f 263d 926a ce3c
00000050: 916c 4f3c 8e0c 173c a23b 033d 55b3 20bd
00000060: 4802 0d3d 5d01 853b 0d25 cabc 93e3 ab3c
00000070: 9d16 91ba 8a36 433c ab94 f5bc c6e6 db3c
00000080: 5b59 9c3b 594d e23c 9415 0abd 8a99 2bbd
00000090: 4e71 2d3b 3578 123d d982 123d fbd1 49ba
000000a0: 1493 f5b7 8ba1 1bbd a29e 69ba e2f3 28bb
000000b0: d610 853b 80a7 843b 9659 feb9 3429 60ba
000000c0: 1d2f e23b ab19 963c
0.013820838 0.04657955 0.02816031 -0.015031462 -0.0008193536 -0.03400675 0.026754694 -0.028465947
-0.012160908 0.028068824 -0.011948524 0.02929216 -0.006898622 -0.021149287 -0.0014952169 -0.013354405
0.0044276104 0.017735874 0.040664345 0.025197301 0.012660162 0.009219302 0.032039292 -0.039233524
0.034426004 0.0040590004 -0.02467587 0.02098254 -0.0011069361 0.011914859 -0.029978117 0.02684344
0.004771394 0.027624773 -0.033711985 -0.041894473 0.002646524 0.03575917 0.035769317 -0.0007698831
-2.9274765e-05 -0.037995856 -0.0008911883 -0.002578013 0.004060845 0.004048288 -0.00048513402 -0.00085510616
0.006902589 0.018322786

fc2.weight f4 [9, 50]
00000000: 81e0 71bd 7f9a 023e 4c9b e73d 9f7a 7ebd
00000010: e6ce 053e cb44 383d 8f9a 833d 8660 473b
00000020: dbe2 a3bd 8b55 94bd eb58 06bd fe5e 3e3a
00000030: e635 cebd a2ed a8bd d8db d7bd 11ba e73d
00000040: 0c28 7fbd 0b9a a2bd cf97 d13d aa87 bfbc
00000050: 6fea 36bd f81c 743d 1446 a23d b83b d4bd
00000060: 54e3 bebc 6d47 86bd 2825 8bbd 5cc2 04be
00000070: 4ec3 0a3e 90cb 17bb f987 e93d cc8f 75bd
00000080: 89ae 31bd c18a 61bd 33fb 643d b23c 153d
00000090: 4fff eabc 25f1 c03d 5461 f53d 3f96 2d3d
000000a0: e3b5 0e3e 6e90 ac3d 5e45 ce3d b911 973c
000000b0: b979 81bd 87ed ef3c 4dbb a73d b0b6 3ebd
000000c0: 8993 0cbd aac2 f1bd 0dff 8f3b 158f 0b3e
000000d0: 698c 39bd 0aae b3bd 7630 4e3d f74c 533c
000000e0: a5b3 a8bd 2660 61bd 2c61 0ebe c5a3 783d
000000f0: 2aa9 a63d 63b8 8bbd 93fb 68bd f6d3 21bd
00000100: a022 b03d d88d b83d 02f5 843d 954a c53d
00000110: e14f 07be ac5d b8bd fa69 fabc e719 94bd
00000120: eaeb ffbd a83f 66bd 267b 03bc 6aba 4cbc
00000130: 5931 c33d 2a47 a23d e733 b5bd bfc5 eabd
00000140: abbe bc3d fc39 e6bb 63cc 003e 207b fbbd
00000150: 9568 a4bd 9845 a1bc dcad c8bc 4f92 933d
00000160: 344a 08be 6d44 d23d 1a1c 5ebd cdb2 8bbd
00000170: 3604 8a3d 2cd3 f0bc 7660 f6bd 1666 e93d
00000180: b4a3 803d 9b58 f3bc a662 08be 0a03 58bd
00000190: 027c 56bd 4403 fcbc bc70 bbbd 8e7b 01be
000001a0: 5e65 d3bd c2f7 71bd 9d7e 033e 26a4 4cbd
000001b0: be97 dbbd 90ca cdbc 9043 abbc 0a46 d7bd
000001c0: 224c a83d ea83 9a3d 6085 d83c a8ad 553d
000001d0: 767e b13d f839 40bd b083 743d f687 b53d
000001e0: a225 fa3d 0e67 ad3d a405 7d3d 40e4 4abc
000001f0: 226f e0bd a6ba a43d e2fe eb3d 38f4 a33d
00000200: 78c9 b5bd 3265 8b3d ba74 b6bd 3c84 913d
00000210: 3b5a 053e a670 c83d 50bd 4f3c ec61 c6bd
00000220: 5028 07bd 9281 48bd 8ca7 eebd 9055 433c
00000230: d2b0 993d 0086 5bbb eaa7 e63d 5c28 a53d
00000240: 777f 0bbe 8077 d13b b877 f33c 2071 f3bb
00000250: f80f bfbd de91 5dbd 40d1 7f3c 2667 6ebd
00000260: 2634 0bbd 3c92 e6bd 1cef bb3d e07c a23b
00000270: 04ef c93d 9015 67bd 2c1d 8ebc da47 4abd
00000280: b055 6dbc fc69 90bc c8f6 b9bc dae2 60bd
00000290: d993 043e 46f7 08be 0261 9d3d f38c 023e
000002a0: a0c3 6abd 87b7 8fbd 093f 043e 325a e0bd
000002b0: 1805 4c3d 06d0 9a3d 93a0 e6bd 7879 d63c
000002c0: 90e8 74bd 8050 653d f4ba 833d 549d 463d
000002d0: e8ab 7cbd 793e cfbd c825 b8bc 623b a53d
000002e0: 88eb 0e3d 4c53 453d faf0 e73d 9642 973d
000002f0: aeb8 e43d 9087 2cbc d80b 6e3d 0a33 52bd
00000300: 00d5 06bc 1405 e7bc a6fc a13d e228 dd3d
00000310: 4ad8 b6bd 8042 333c 480a abbc 7ac7 0bbd
00000320: b634 813d 3cb9 1bbc 29ae 703d 6633 2a3d
00000330: 7c48 0bbc a8e6 1a3d de08 ee3d c3c9 7a3d
00000340: be82 76bd 7216 233d 4da2 ac3d f437 463c
00000350: ce02 813c 2c02 f03c a783 9b3d 95fa e93d
00000360: 84c5 0f3d 99a1 bd3c 2e17 f83b 787c 6bbd
00000370: 2e13 103c a76d bdbc 962a e13d 6ae5 08be
00000380: 3241 133d af95 18bb 0047 153a d829 91bc
00000390: 5f5a fdbd 22ad 483d 67e4 eb3d 6810 ce3d
000003a0: 2a3d e23d 092d 0cbd 3b6b 7fbd 485a d53d
000003b0: 5abd 65bd 3d3d 0dbe 46f2 de3d 628a 0d3e
000003c0: 9a25 33bc 61db acbc d971 c53d 42e4 c83d
000003d0: 3d79 71bc 0f96 763c 025d c7bd 1cd1 0bbe
000003e0: c1d2 bfbd 7726 f13d 79cf d93d d746 fcbd
000003f0: c66b dfbd f60d 0c3e 4a6c d3bd 8a1e 48bd
-0.059051994 0.12754248 0.113089174 -0.06212866 0.13067207 0.04498748 0.06425964 0.0030422523
-0.080022536 -0.072428785 -0.032799643 0.000726208 -0.10068874 -0.0824845 -0.10539979 0.11314786
-0.06229405 -0.079395376 0.10234033 -0.02338012 -0.044657167 0.05959794 0.079235226 -0.10362953
-0.023301758 -0.06556592 -0.06794196 -0.12964767 0.13551065 -0.0023162104 0.11402888 -0.05995159
-0.04337934 -0.055063967 0.055903625 0.036434837 -0.028686194 0.09420995 0.119814545 0.042379614
0.13936572 0.08425985 0.100718245 0.018441068 -0.06322045 0.029288067 0.08190022 -0.046560943
-0.034320388 -0.11804707 0.004394418 0.136288 -0.04529992 -0.0877343 0.050339185 0.012896768
-0.082373895 -0.055023335 -0.13904256 0.060703058 0.08137734 -0.06822278 -0.056880545 -0.039508782
0.08600354 0.090114295 0.06492044 0.09633366 -0.13214065 -0.090022415 -0.030568112 -0.07231503
-0.12496169 -0.05621305 -0.008024966 -0.012495616 0.09530897 0.0792373 -0.0884779 -0.11463498
0.092160545 -0.0070259552 0.12577967 -0.122793436 -0.0802776 -0.019686505 -0.024496965 0.072056405
-0.13309556 0.102669574 -0.05422602 -0.06821213 0.067390844 -0.02939757 -0.12030117 0.113964245
0.06281224 -0.029705336 -0.13318881 -0.052737273 -0.052364357 -0.030763276 -0.09152362 -0.12644789
-0.10322069 -0.05907417 0.12841268 -0.04996123 -0.10722302 -0.025121003 -0.02090624 -0.10511406
0.08217646 0.07544692 0.026430786 0.052167565 0.08666699 -0.046930283 0.0596959 0.08863823
0.12214209 0.08466922 0.061772957 -0.012383521 -0.10958697 0.08043413 0.115232244 0.080055654
-0.08876318 0.06806411 -0.089089826 0.071053 0.13022701 0.09787111 0.012679413 -0.09686646
-0.03299743 -0.048951693 -0.11653051 0.011922255 0.07504429 -0.0033496618 0.11262496 0.080643386
-0.13622843 0.0063924193 0.029720172 -0.007429257 -0.09329218 -0.054094188 0.015613854 -0.05820384
-0.03398528 -0.11258361 0.09176466 0.004958734 0.09860042 -0.056417048 -0.017347895 -0.04938493
-0.0144857615 -0.017628662 -0.022700682 -0.054903843 0.12947024 -0.13375577 0.076845184 0.1274908
-0.05731547 -0.07017427 0.12914671 -0.109547034 0.049809545 0.075592086 -0.11261096 0.026180968
-0.0597921 0.055984974 0.06432143 0.048489884 -0.06168738 -0.101193376 -0.022478953 0.08067967
0.03489259 0.04817514 0.113252595 0.07385747 0.11168037 -0.0105303675 0.058116764 -0.051318206
-0.008229494 -0.028200664 0.07909517 0.107988134 -0.089279726 0.010941148 -0.020878926 -0.034125783
0.06308882 -0.009504613 0.058759842 0.041552924 -0.008501168 0.037817627 0.11622785 0.06122757
-0.06018328 0.039816327 0.08429394 0.012098301 0.015748408 0.02929791 0.0759347 0.11424748
0.035100475 0.023148345 0.0075711226 -0.05749175 0.008793635 -0.023123575 0.10994451 -0.13368765
0.035950847 -0.0023282578 0.0005694479 -0.017720148 -0.123707525 0.048993237 0.11518174 0.10061723
0.11046822 -0.034222636 -0.062358122 0.104176104 -0.056088783 -0.13792892 0.10886054 0.1382232
-0.010934258 -0.021100702 0.09640855 0.09809162 -0.014738378 0.015050425 -0.09734537 -0.13653988
-0.0936637 0.11774915 0.106352754 -0.12318199 -0.10909228 0.136772 -0.10323389 -0.04885725

fc2.bias f4 [9]
00000000: bb30 c13d 0b32 783d 4609 00be 3810 06be
00000010: eaa5 a0bd 4335 87bd d7b6 6c3c 8375 973d
00000020: e4fc c1bd
0.09433123 0.0605946 -0.12503538 -0.13092124 -0.078441456 -0.06601956 0.014447889 0.073954605
-0.09472063
