GameAIFinalProject/model/model_mymodel31.pth (torch_old, 126465 bytes, 8 tensors)

conv1.weight f4 [10, 3, 5, 5]
00000000: cfce a5bd e7e3 933d 00a7 8cbd b031 11bd
00000010: fa79 cc3d 1785 833d e33e ec3d ac36 f23c
00000020: 0fdf a5bd 9361 69bd a711 aabd 15bc b93d
00000030: 35f7 21bd 8fe2 e13d 9839 a83d 1efc 6d3d
00000040: f37c af3d c6dc 8abd 5008 383d 0bd8 093d
00000050: d184 aebd 00de c93d 4583 46bd dd36 d7bd
00000060: de77 79bd d54d b2bd 8217 e1bd 2e0d b53d
00000070: d2c2 9abc a8ef b8bb 8c2c 76bd bd23 a33d
00000080: 003a 903d 4a50 a5bd aada 983d 099d ad3c
00000090: 7e3b 293c 8126 03bd 0637 debd 5ee2 67bc
000000a0: 1ecf 84bc b9b6 363b cdac 09bd 75bd 943c
000000b0: dc65 55bd d340 1a3a 098c 81bd 6dbd 7a3d
000000c0: 2910 e4bc ecbd 0b3c 479e cbba 35f9 903d
000000d0: 8bea 5fba 039f adbc 6f85 923d d9b6 433b
000000e0: 5874 b7bd 3c07 8f3d c065 103d 7287 aabc
000000f0: 6a99 38bd a169 4e3d 3787 923c aa4b b33d
00000100: dc8e a53d 40ac b13d 44f9 71bc 5e78 1ebc
00000110: b767 b5bd a4e2 213d 3cfb cbbd fa5a 89bc
00000120: 512f 2fbd 5af9 943c bc99 7cbd cf7a 083c
00000130: 7000 1a3d 1296 6fbd 8106 bf3d aa71 cb3d
00000140: 0eba efbc 92c8 dcbd fbd4 87bd b7fd bd3d
00000150: 4c26 9bbd 01ae 82bd a84d 9d3d 6356 45bd
00000160: 1ac4 c23c 4a40 94bd 8535 e7bd 593b bd3d
00000170: 9509 edbb dc69 963d d7c7 253d 4459 23bd
00000180: 25cb 42bd 8826 72bd 7a91 003d 63e0 883c
00000190: c109 f0bc d304 9d3d c919 9d3c 0734 c63d
000001a0: d898 84bd fa3a 9ebc cd4d d4bd d6a1 963c
000001b0: 2ffa e03c 73ad 75bd 726c 0f3c 8f0b 893d
000001c0: f5e3 e5bc 9ab2 e73d b443 68bd 18b3 3dbc
000001d0: 953e 59bd f1e4 e23d fe7f dc3d 6958 8b3d
000001e0: a7bf 423d f5ee cfbd 4e2b e73b 7ac0 563d
000001f0: 8aec 793c e1eb 613d d41f 633c 2ca2 d6bd
00000200: 3123 8dbb 7b17 3bbd 9d64 423d 09cf 83bc
00000210: b2e3 e6bd 4997 bf3d 6d99 313d 8a9e cabd
00000220: 69e8 db3c d1ea 353d c5b0 cebd 3a15 c93d
00000230: fc64 83bd 0edc 9fbc fe55 c83d fbde 8cbd
00000240: 29a1 bebd 4aca bc3d 288a 65bc 3348 b73d
00000250: 8535 96bd 812c 63bd 9895 1cbd 139a a5bd
00000260: 8feb 08bd 5031 7e3c 2687 96bc 7b88 c7bb
00000270: a332 533d 2db5 793d 2efb d83d b293 503d
00000280: a4d1 9cbd e3cd 9d3d deba 94bd 7d87 b33c
00000290: 4fe2 8a3d 8151 b83d eb64 d5bd c064 97bd
000002a0: 047a 773d 9c07 353c d3b2 ccbd a4f5 d73b
000002b0: 2fd4 bebd 0c6a 30bd e58a e3bd 94b7 8abd
000002c0: 129d 68bd 5ed5 b2bd aef2 dc3d 67bd b93d
000002d0: 1cfb a33c 43cd a7bc cbd7 0a3c 4c38 c13c
000002e0: 20ff 86bd 4850 68bd 4916 7ebc 78ca 993d
000002f0: ad14 6abd bb11 8dbd b69e 04bd d193 e7bd
00000300: 8944 3dbb e997 af3d 5e61 07bd d62f 1abd
00000310: ca92 8fbd 43cf 3f3c e7e0 f8bc c914 533c
00000320: 3ce7 61bd 9cb1 8b3d 31a6 babd ba07 40bd
00000330: 44a1 c3bd 11b0 a4bc 61ab bfbd 4544 f43c
00000340: 9fc6 9a3c fadf a4bc b73d e4bc 0f24 093d
00000350: 2cfc 323d 9c65 aabb c07a a1bd d659 ccbd
00000360: 0ed5 e7bd 0af6 043d 5ee8 803b 5f57 9d3d
00000370: 5e0b 9e3d 232e b3bd 078e 433c c065 403d
00000380: c2b8 69bd bf61 96bd b15b 773c 23a2 533c
00000390: 79e4 e2bd e722 e6bd 2092 a63c 3800 303d
000003a0: 5d3b be3d 3fd7 343d e49c a8bd ad8a 36bd
000003b0: b5c7 00bd 742a a7bd 791a fc3b 1999 343c
000003c0: 9aff e8bd b314 ba3d 84a4 febb e64f b53d
000003d0: b75b 453c 468d 9bbd dbde c43d 76d3 8e3d
000003e0: 638d 743d 684c 79bd b349 6dbd f776 943d
000003f0: 4f6f 213d 5e7d c4bc 92ec c13b 410d b83d
-0.08096086 0.07221203 -0.0686779 -0.035447776 0.09984203 0.06421869 0.11535432 0.029567085
-0.08099186 -0.05697782 -0.08304148 0.09069077 -0.039542396 0.11029541 0.0821411 0.058101766
0.08568754 -0.067803904 0.044929802 0.0336533 -0.085214265 0.09856796 -0.048465032 -0.10508511
-0.06090533 -0.087062515 -0.10990812 0.088404045 -0.018891726 -0.0056438036 -0.060101077 0.07965801
0.070423126 -0.080719545 0.07463582 0.021193044 0.010329125 -0.032019142 -0.10850339 -0.014153091
-0.016212042 0.0027879907 -0.03361206 0.018156746 -0.052099094 0.00058842934 -0.06325538 0.061215807
-0.027839737 0.008529168 -0.0015534841 0.070787825 -0.00085417245 -0.021193987 0.07154357 0.0029863624
-0.08957738 0.06983802 0.035253286 -0.020816538 -0.045068182 0.050393704 0.017886741 0.08754666
0.08083889 0.08675432 -0.014768902 -0.009672252 -0.08857673 0.039522782 -0.099600285 -0.016767014
-0.042769734 0.018185306 -0.06167005 0.008330061 0.037598073 -0.058492728 0.093274124 0.09933789
-0.029263522 -0.10780443 -0.0663242 0.09276908 -0.07575664 -0.06380845 0.076808274 -0.048178088
0.02377515 -0.07238825 -0.11289505 0.09239835 -0.0072338083 0.0734441 0.040473785 -0.039880052
-0.047557015 -0.059118778 0.031388737 0.016708558 -0.029301526 0.07666936 0.019177334 0.09677892
-0.06474465 -0.019315232 -0.10366402 0.018387716 0.027463047 -0.059979867 0.008753883 0.06691658
-0.0280628 0.113133624 -0.05670519 -0.011578344 -0.0530382 0.11078823 0.107666 0.06803972
0.047546055 -0.10152999 0.007054723 0.052429654 0.015254149 0.055156592 0.013862569 -0.104801506
-0.0043071737 -0.04567669 0.047459234 -0.016089933 -0.11273898 0.09355027 0.04335921 -0.0989352
0.02684422 0.04441339 -0.1009231 0.09818502 -0.064157456 -0.01951411 0.09782027 -0.06878468
-0.093080826 0.09218271 -0.01400999 0.08949318 -0.07334427 -0.055462364 -0.0382286 -0.08086028
-0.03342777 0.015514687 -0.01837499 -0.006089268 0.051561963 0.0609638 0.10594784 0.050922103
-0.07657173 0.077052854 -0.072622046 0.021915192 0.06781446 0.08999921 -0.10419639 -0.073922634
0.060419098 0.0110491775 -0.099950455 0.006590562 -0.093178146 -0.043069884 -0.111104764 -0.06773296
-0.05679042 -0.08732103 0.10788475 0.09069329 0.0200172 -0.020483619 0.008474301 0.023586415
-0.0659163 -0.056717187 -0.015508243 0.07509321 -0.057148624 -0.068881474 -0.03237792 -0.113074906
-0.0028879961 0.085738964 -0.03305184 -0.037643276 -0.0701042 0.01170713 -0.03038068 0.012883374
-0.055152163 0.06820986 -0.0911373 -0.04688237 -0.09552243 -0.020103486 -0.0935886 0.02981771
0.018893538 -0.020126332 -0.02786146 0.033481654 0.04369752 -0.005200101 -0.07884741 -0.09978072
-0.11319934 0.032461204 0.0039339503 0.0768268 0.07717012 -0.08749034 0.011935717 0.046972036
-0.057060964 -0.07342862 0.0150975445 0.012917074 -0.11078734 -0.11237126 0.02033335 0.04296896
0.092886664 0.044150587 -0.082330495 -0.044565845 -0.031440455 -0.08162394 0.0076935855 0.011022829
-0.11376877 0.09085979 -0.0077710766 0.0885313 0.012045792 -0.07595305 0.09612819 0.06973927
0.05970515 -0.060863882 -0.057931613 0.07249253 0.039412793 -0.023985561 0.005918094 0.08986903

conv1.bias f4 [10]
00000000: 6894 2cbc 0003 a0bd cac9 d73d ef92 b63c
00000010: 35f9 643d e064 633c d155 8a3d 347b ca3a
00000020: ce91 6ebd 87c5 bdbc
-0.01053343 -0.07813072 0.10536535 0.02228686 0.055901725 0.013879031 0.067546494 0.0015448094
-0.05824452 -0.023165477

conv2.weight f4 [20, 10, 5, 5]
00000000: f701 453d 5568 bebc 1dd8 dcbc 7193 0abd
00000010: fc17 653d 361d e33c 048b 59bd a31a 103d
00000020: 129f 113d 2af9 81bc 9ed2 5ebd b77c 533c
00000030: 8b2e b03c c107 493c e1db 2abd 5489 c1bc
00000040: 497d a9b8 aec6 80bc 8b30 f0bc d409 1f3d
00000050: 1b95 003d abf9 ca3c 3db0 3c3d 77f7 86bc
00000060: 4a3c 3fbd eef5 163d 93ac 29bc c750 3cbd
00000070: ed3a aebb 9386 6ebd c4fc 37bd 996d 783d
00000080: cfc7 67bd 246b 5abc 1c8a 8f3c b074 c0bb
00000090: 1160 103a b498 35bc d9e7 773d 4b8f 14bd
000000a0: 97d2 663d 7529 903c 58e2 783d e50b d1bc
000000b0: 768d 44bc db9e 643d 1cd8 4339 97fc fcbc
000000c0: c7b8 51bc 05ea 06bc 451d 1dbd 0a3b d7bb
000000d0: a194 f03c 7470 1cbd 0151 52bd face 60bd
000000e0: ce16 08bd a29c 26bd 1484 01bd db79 8d3c
000000f0: 1fe2 633d 14c5 0abd 1bf9 6abd b0b0 d73c
00000100: 9c5d 713d 2093 2abd 1a04 353a 3906 493b
00000110: f412 643d 846c 2a3d ad2e b43b d573 e1bc
00000120: 6711 393d 2c99 c2ba 9232 313d bca4 343b
00000130: 2055 49bd 1534 e8bb b271 6e3d 8b52 0dbd
00000140: 756e a6bc 729b 6bbd 8cb1 9e3c 7472 213d
00000150: 4648 7fbd 5a5f 1cbd a547 3bbd 6c95 963c
00000160: 6c1e 40bd f807 623d 785d 663d 7c95 0d3d
00000170: 3879 48bd 146e 633d 60c1 91bc 887b 61ba
00000180: 44ec 2cbd 1f78 70bd 2a1f 3f3d 4875 213d
00000190: 8c48 ddbc dd7d c03c 2b8f ce3c 558a 0bbd
000001a0: 8be0 22bd 5eae 67bd 51fd f5bc 1371 1cbd
000001b0: ede4 f93c 4e4e c7bc 3407 d3ba 0017 5b3d
000001c0: dfdf ef3b 8cbd ed38 75ab 103d 8f25 69bd
000001d0: 9655 013d a3d9 1a3b dce5 6a3c a2d5 e13c
000001e0: 9cea 17bd 315b 983b 86a2 6a3d d120 cc3c
000001f0: 27d8 1ebc 69ab ed3c e301 a13c 3450 51bd
00000200: 008e 053d 80cd 17bd e957 69bd f32d de3a
00000210: 5229 05bd 06f5 093d 13a4 753d 08cb b0bc
00000220: 7f1f e33a 6a3d 343d 0523 1e3d 1827 20bd
00000230: f86c 833b c270 c7bc f26b 5cbc a16c 73bd
00000240: a60e d63c c8dd 7d3c 42fb 8abb cf6c bebc
00000250: 7f36 1bbd 9830 46bd f652 13bd bab7 f7bc
00000260: f770 62bc 2a76 a63b 4321 e43c 6632 dc3b
00000270: 7599 253a 3e7c 51bc 0ce3 eebc 4dbb 5e3d
00000280: 16b7 2ebc c94a ad3b 662a 2a3d f357 db3c
00000290: 3c8e 23bd f17f cdbc 3bbc 3fbd ef76 ee3b
000002a0: 3a96 6bbd d9f1 1a3d 44fe 91bb 238a 6abc
000002b0: d6e1 3ebd fa5b 8cbc 68ab 41bd d82e 963b
000002c0: 4a73 183d 95b1 483b 1464 313d c213 2cbd
000002d0: 0633 873c c3bf 8bbc 7a01 3d3d 4a6b 6d3d
000002e0: abdb 2d3b 601a 1dbd 3637 47bc 0fc1 7fbd
000002f0: 11c3 8a3c 92cc 2cbd d2a6 923c b2e0 cf3c
00000300: eb0b 373b f0af d4bc b531 8abb 832c 57bd
00000310: 0537 e43b 8eca dcbc 918e 8bbc e7d8 77bc
00000320: fd74 773d d627 aabc e836 42bd b59c 41bd
00000330: 04d7 573d 81e5 2cbc 1ca7 14bd 5f8b 6b3d
00000340: a95b 45bd a150 1bbc f922 47bb c35f 1f3d
00000350: 4901 613d 41b4 98bc 9bbc 18bd f8bd ae3c
00000360: 1406 25bd 1fc7 d1ba e0fa 6a3c 6e34 07bd
00000370: 0ba8 153b 4a82 1b3c 21d9 79bd 7f79 69bd
00000380: 69f6 e4bb f060 ed3c 4cfd 7bbd 7693 353c
00000390: c5c7 a1bc 94de c9bb 87ed e0bc 23de 8ebc
000003a0: ac9e f2ba f906 e33c f4c6 7cbd cac2 04bd
000003b0: 5456 7bbd d77e 273c 6b04 273d 39ff 613d
000003c0: cc26 253d 4207 783d 6d94 cfbb afcb 7cbd
000003d0: 4d9d a8bc ac44 0e3a 5622 babc 6d01 89bc
000003e0: 077f 0d3c afd1 2a3d 9115 2bbb 5039 afbc
000003f0: 8f48 eeb9 d38a 5b3d 930a af3c cb52 86bc
0.048097577 -0.023243109 -0.02695852 -0.033832017 0.055931076 0.02772389 -0.05311109 0.035181653
0.035552092 -0.015865881 -0.05440008 0.012908152 0.021506568 0.012269915 -0.0417136 -0.023625053
-8.081884e-05 -0.015719738 -0.029320022 0.038827732 0.031392198 0.024777254 0.04606651 -0.016475422
-0.046688356 0.03685563 -0.010356086 -0.045975473 -0.005317083 -0.05823381 -0.04491879 0.060651395
-0.056587037 -0.013331208 0.01752191 -0.0058732852 0.0005507479 -0.011083771 0.06052384 -0.036269467
0.056353178 0.017597893 0.060762733 -0.025518367 -0.011996618 0.05581556 0.00018677156 -0.030882163
-0.012800402 -0.008234506 -0.03835799 -0.0065683173 0.029367747 -0.03819318 -0.051346783 -0.05488489
-0.033224873 -0.04067672 -0.0316201 0.01727002 0.055635568 -0.033879355 -0.05736647 0.026329368
0.058927163 -0.041644216 0.0006905213 0.0030673875 0.055682138 0.041607395 0.0054987282 -0.027521053
0.04518261 -0.0014846674 0.04326112 0.002756401 -0.049153447 -0.007086287 0.058213897 -0.034502547
-0.020316342 -0.05752129 0.01937177 0.03941579 -0.062324785 -0.03817687 -0.045722622 0.018381797
-0.046904013 0.05518338 0.056241482 0.034566388 -0.04894373 0.0555249 -0.017792404 -0.00086014764
-0.042217508 -0.058708306 0.04666058 0.03941849 -0.027012132 0.023497516 0.025214752 -0.03406747
-0.039764922 -0.056562774 -0.030028017 -0.038193773 0.030504668 -0.02432933 -0.0016100169 0.05348873
0.0073203887 0.000113363465 0.035319764 -0.056920584 0.03157576 0.0023628257 0.014337029 0.027567688
-0.037088975 0.0046495427 0.0572839 0.024917992 -0.009695089 0.029012399 0.01965422 -0.05110188
0.032606125 -0.037061214 -0.056968603 0.001695095 -0.03251011 0.03368094 0.059970926 -0.021581188
0.0017328112 0.04400388 0.038607616 -0.039099783 0.004010793 -0.02434576 -0.013453471 -0.05942977
0.026130032 0.015494771 -0.004241378 -0.023245243 -0.03789377 -0.048386186 -0.03596779 -0.030238975
-0.013820878 0.005080004 0.027847892 0.006719875 0.00063171174 -0.012785969 -0.029160999 0.054377843
-0.010663768 0.005288456 0.04154434 0.026775336 -0.039930567 -0.025085421 -0.04681037 0.0072773616
-0.057516314 0.0378283 -0.0044553597 -0.014315161 -0.046602093 -0.017133702 -0.047282606 0.004583221
0.037219323 0.0030623425 0.043308333 -0.04201103 0.016503822 -0.017059213 0.046143986 0.057963647
0.0026528637 -0.03835523 -0.012159159 -0.062439974 0.016938718 -0.04218728 0.017901812 0.025375698
0.0027930688 -0.0259628 -0.0042173513 -0.052532684 0.0069645667 -0.026952054 -0.017035754 -0.015127397
0.060414303 -0.020770948 -0.047415644 -0.047268588 0.05269529 -0.010552765 -0.03629218 0.05750596
-0.048183117 -0.009479673 -0.0030385836 0.038909685 0.054932866 -0.01864064 -0.037289243 0.021330819
-0.040289 -0.0016004777 0.01434204 -0.033008985 0.0022835757 0.009491513 -0.060998086 -0.057000633
-0.006987382 0.028976887 -0.06152086 0.011082521 -0.019748578 -0.0061605666 -0.027457012 -0.017439907
-0.0018510423 0.027713286 -0.061713174 -0.032412328 -0.061361626 0.010223112 0.040775698 0.05517504
0.040320203 0.060553797 -0.0063348324 -0.061717685 -0.02058282 0.0005427103 -0.02272145 -0.016724313
0.008636243 0.041703876 -0.0026105384 -0.021389633 -0.00045448958 0.05359919 0.021367347 -0.0163969

conv2.bias f4 [20]
00000000: ce19 f43b 3d6c 3bbd 3a12 6fbd aae5 ad3c
00000010: b749 bd3c d96e ab3c 4b05 b73c a763 7a3d
00000020: a7f7 2fbd 3544 60bd a3af e6bc 92db f83b
00000030: 62f1 18bd 75f6 b93c c805 5f3d 1677 a4bc
00000040: 830e 1abc 4eb0 4dbd 35b9 993c d79f 493c
0.007449365 -0.04575752 -0.05836699 0.021227676 0.023106439 0.02092688 0.022341391 0.061130192
-0.04296079 -0.054752547 -0.028159922 0.007594534 -0.037339576 0.022700528 0.054448873 -0.020076316
-0.009402874 -0.050216965 0.018765071 0.012306175

fc1.weight f4 [50, 500]
00000000: 0a1c dabc 0c1c 02bb e1e3 623c e153 afbc
00000010: a78c 293d b06a d9bb e930 10bd 5ef0 e03c
00000020: 2089 083c dd94 66bc 942e dfbc ca8b fa3c
00000030: 8d72 943c c47d afbb 374a f43c c9c2 203d
00000040: dee8 ab3c b66a f8bc 963c 983c 0936 35bd
00000050: 39ed d8bb 681b e5bb 5c01 903c 3d81 35bd
00000060: 2d8f 4eba b87b f43b 2ead 303d 91f4 b2bb
00000070: 2109 283d 7b76 123d 30c0 2e3d 90b5 203d
00000080: 0302 23bd 4a3a 26bd e02d 85bb 9f15 203d
00000090: 427d 05bd 2298 ad3c 2efc e03c cc0f 0cbc
000000a0: fed5 c93c a183 243d e652 19bd 3905 e2bc
000000b0: 6207 cc3c 5e22 fb3c 98d5 c6bb 6329 0f3d
000000c0: 36f4 0fbd b098 5fbb 1084 dfbb 2911 d1bc
000000d0: 9c55 5f3c e36e d8bc d0b0 1c3d 0b85 9bbc
000000e0: be6b 2bbc fbd6 b8bc 6baf 2a3d f92d b83c
000000f0: a455 2ebc 442a 2abd 894f 063d 4b42 253d
00000100: a740 0c3d dc24 03bd 2a09 e73c e5ce 89bc
00000110: 81b0 b13b 9c7b 85bc 2e21 04bc 1665 983c
00000120: aa2a c5bc af23 8d3c 7476 14bd 6613 0c3d
00000130: e8bc c13c 7781 d63c b2b9 f83c 87fe 43bc
00000140: d2c8 d1bc a1a3 1bbd a408 d1bc 3b28 b4bc
00000150: 9422 9abc cdc3 123d efca f7bc 1529 a23b
00000160: cb07 f33c 618c 9bbc c6f5 91bc 2243 713c
00000170: c207 a13c fb6d 20bc 09c3 03bd 6ba9 2e3d
00000180: 9940 b03c 8011 063d 7204 283d db4e d63c
00000190: 1c12 d13c 79e4 f03a 287b 223d 42a5 833c
000001a0: d8a7 813c e56d c4bc 6169 9abc 4aad 293d
000001b0: 3c60 15bd 18b5 263d 44aa 1abd 2a9c c4bb
000001c0: b000 66bb 94c8 be3c 7a7a 4b3c a45f 26bd
000001d0: 4188 6c3c 2664 c53a 3024 173d 6411 1d3d
000001e0: bd2e d6bb 1391 8cbb b8fc 80bb 26d3 ab3c
000001f0: 9cf0 0cbd 49ae bdbc 9c54 e7bc d2c2 fbbc
00000200: 84d4 ccbc c9eb a9bb 3da0 23bd 804f 2e3d
00000210: 8b07 31bb 745c 95bc 7cd2 b63c ef7e d0bc
00000220: 18fc aebc 4835 babc 1f08 06bd 0839 093c
00000230: cfe7 2b3d 79e7 ea3c c9e1 ad3c 6818 6d3c
00000240: a270 2f3d d420 17bd 3376 0c3c 23ae f03c
00000250: 7c8d 4f3c 7822 dd3c 33d4 933c 7d17 183d
00000260: 0a60 db3c 7578 77bc 03c5 873c 6277 c63c
00000270: 1795 243d 7c53 cebc 0335 74bc d970 84bb
00000280: 3a66 b33c 6695 2abd 393e 8fbc 9f81 d9bc
00000290: b2e0 1fbd 093c 10bd cf18 363c 3e34 03bd
000002a0: 2273 933c 5399 25bd 6ce0 21bd 61e5 8c3c
000002b0: dd23 d13c 8bbf c73c e760 063a 20ad 273d
000002c0: 27fa 0f3c ea46 debb 3278 b8bc 8a5c 19bd
000002d0: b9e4 ab3c 2e38 053d 66a5 853c 4f68 073d
000002e0: cdd9 063d 7145 ddbb 6e19 18bd a207 a93c
000002f0: d2f8 d3bc 50c9 283c aaf0 2f3d 2eff 8039
00000300: e84a 043c 7564 4e3a 8f2f 1cbd 42eb 883b
00000310: 3668 063d d5a6 c5bb 1c25 2ebd f410 08bd
00000320: bcdf 16bc baee 803c 8667 d23c b8bc b3bc
00000330: 6546 0b3d e516 d23c 2bc2 40bc 73ef 2e3d
00000340: 5f93 0dbd 7062 afbc cd13 f2ba fdae 32bd
00000350: fa3e ec3c 9535 e93c 8d49 1a3b a945 ec3b
00000360: f59e 153c 3283 203d 66d4 293d a144 e03c
00000370: f4ce 2cbd 9444 b43c ede4 6c3b 49be 143d
00000380: 0913 ddbc 8c0a 863c 2fe7 1dbd d4f9 2e3c
00000390: a30b 33bd 51e1 b2bc 2cfb ee3b ded4 1c3c
000003a0: 66a2 96bc 6552 443c c325 73bc 1eaa 813c
000003b0: e864 24bc 52a7 9e3c b51f 21bb d755 873c
000003c0: f912 833b 1c42 ecbc 0ca0 86bc 9703 b03c
000003d0: 4c88 f4ba fcf6 b939 c3c6 b5bb 189f 1f3c
000003e0: ac95 8bbc b131 9239 4ab4 f3bc 92ca 0cbd
000003f0: 76bb 183b 412f 023d 3933 02bd 5edc 063d
-0.026624698 -0.0019853143 0.013848276 -0.021402301 0.041393902 -0.0066350326 -0.035202894 0.027458366
0.008333474 -0.014073578 -0.02724389 0.030584235 0.018121028 -0.0053555686 0.029820545 0.03924826
0.020985063 -0.030324321 0.018583577 -0.044240985 -0.006620076 -0.0069917925 0.017578773 -0.044312704
-0.0007879611 0.0074610375 0.043133907 -0.0054612835 0.04102433 0.035757523 0.042663753 0.03923565
-0.03979684 -0.040582933 -0.0040643066 0.03908312 -0.03259016 0.021190707 0.027463999 -0.008548688
0.024638172 0.040164594 -0.037432574 -0.027590381 0.024905864 0.030656036 -0.006067943 0.03495158
-0.035145007 -0.0034118108 -0.006821163 -0.025520878 0.013631251 -0.026420062 0.03825456 -0.018984338
-0.010462699 -0.022563448 0.041671198 0.022482859 -0.0106405355 -0.041544214 0.032790694 0.040346425
0.034241345 -0.032017574 0.028202612 -0.016822288 0.0054226522 -0.016294293 -0.008064551 0.018602889
-0.024068195 0.01722893 -0.03624578 0.034198187 0.023649648 0.02618478 0.030361984 -0.0119625395
-0.025608454 -0.037997846 -0.025516815 -0.02199184 -0.018815316 0.03583126 -0.030248133 0.004948745
0.029666802 -0.018987836 -0.01781739 0.014725478 0.01965702 -0.009791846 -0.032168422 0.04264204
0.021515178 0.032731533 0.041019864 0.026160648 0.02552133 0.0018378637 0.039668232 0.016070012
0.015827104 -0.023978183 -0.018849077 0.041425027 -0.03646873 0.04070005 -0.037760034 -0.0060000615
-0.0035095625 0.023289002 0.012419337 -0.040618554 0.014436782 0.0015059754 0.036899745 0.038346663
-0.0065363334 -0.004289755 -0.0039363764 0.020974707 -0.03440915 -0.023154395 -0.028238587 -0.030732546
-0.02500368 -0.0051855785 -0.039947737 0.042556286 -0.0027012553 -0.018232562 0.022317164 -0.025451152
-0.021360442 -0.022730485 -0.03272259 0.008375414 0.041969117 0.028674828 0.021225827 0.014471151
0.042832024 -0.03689654 0.008573103 0.02937991 0.01266801 0.026993975 0.01804552 0.037131775
0.026779193 -0.015104403 0.016573435 0.024226848 0.040181246 -0.025186293 -0.014905217 -0.004041773
0.021899331 -0.041646384 -0.017485725 -0.026551066 -0.039032646 -0.035213504 0.011114313 -0.032032244
0.017999236 -0.040429424 -0.039520666 0.01719922 0.025529796 0.024383327 0.0005126134 0.04093659
0.008787668 -0.006783356 -0.022518251 -0.037441768 0.020983087 0.03252428 0.01631422 0.03305846
0.032922555 -0.006752663 -0.037133627 0.020633522 -0.025875483 0.010301903 0.042954125 0.00024604186
0.0080745 0.00078732456 -0.038131293 0.0041784355 0.032814227 -0.006031851 -0.04251586 -0.033219293
-0.009208616 0.015738834 0.02568413 -0.021940574 0.03400268 0.025645683 -0.011765043 0.042708825
-0.034564372 -0.021409243 -0.0018469036 -0.043623913 0.028838623 0.028467933 0.0023542375 0.0072104526
0.009132137 0.039187618 0.041462325 0.027376475 -0.042189553 0.022005357 0.0036147193 0.036314283
-0.026986616 0.016362451 -0.038550552 0.010679681 -0.04371227 -0.021835955 0.0072931256 0.009572236
-0.018387984 0.011982535 -0.014840546 0.015828189 -0.010033824 0.019366894 -0.002458555 0.016520424
0.0040000645 -0.028840117 -0.016433738 0.021486087 -0.0018656342 0.00035469967 -0.005547376 0.009742521
-0.017039143 0.00027884313 -0.029749054 -0.034372874 0.0023305095 0.031783346 -0.03178713 0.032925002

fc1.bias f4 [50]
00000000: 9338 663c 97eb 283d 88fa db3c 859e 54bc
00000010: 1efd 8ebb 194a 0bbd b45c db3c 25d8 e6bc
00000020: 101d 3cbc f2d2 ea3c c2c1 49bc d6b5 f93c
00000030: 061f 96bb 515a a5bc 3390 80ba b6de 71bc
00000040: 20e0 913b e4cc 903c 011c 283d 9b1c d53c
00000050: f314 673c a2a9 193c 1419 053d 709d 1ebd
00000060: e73b 143d f18a 8e3b 9af5 c8bc 712d b53c
00000070: be40 b7ba 29c5 5a3c f9fd 06bd f57d ed3c
00000080: 8c6d 453b 0b0d f33c 2a7f 07bd 5b30 2cbd
00000090: 7b38 5a3b b311 033d 8f86 103d 75b5 cfba
000000a0: dcab 22ba 5b94 1bbd 7a74 c4ba 4b81 25bb
000000b0: 265c 933b b8ff 213b bf4f dcba 9eb0 25ba
000000c0: 20a9 0b3c fb3a 9d3c
0.014051574 0.0412403 0.026852861 -0.012977247 -0.00436367 -0.034006212 0.026777603 -0.028179238
-0.011481538 0.02866504 -0.012314262 0.030482214 -0.004581335 -0.020184668 -0.00098086 -0.014762571
0.0044517666 0.017675824 0.04104233 0.026014617 0.014104116 0.0093788225 0.03249462 -0.038724363
0.03618994 0.004350059 -0.024531174 0.022116395 -0.0013981087 0.013352671 -0.03295705 0.028990725
0.003012511 0.029669305 -0.033080257 -0.042038303 0.0033297825 0.0319993 0.035284575 -0.0015846925
-0.00062054186 -0.03798328 -0.0014988326 -0.0025254067 0.004497069 0.002471907 -0.0016808434 -0.00063205685
0.008524209 0.019193163

fc2.weight f4 [9, 50]
00000000: 945f 76bd e00e 003e e8d3 e13d 94ef 80bd
00000010: 090c 043e 7033 383d 7208 813d 37d8 423b
00000020: 8e1f a4bd 53ee 96bd 7039 07bd 9e2b 2abb
00000030: 7db2 d0bd d687 aabd ba11 d9bd 9060 e63d
00000040: 74da 7fbd 11f5 a2bd f13a cd3d 610e c9bc
00000050: 2061 3fbd ebc0 723d b6e7 a03d 2eb2 d4bd
00000060: f205 c9bc c3fe 86bd 9e76 8bbd 5124 07be
00000070: 2b94 0a3e 502a 6bbb 1eaa e53d a98a 7abd
00000080: fb4f 36bd f927 65bd cf8c 603d 05ac 143d
00000090: 9100 ffbc f5c5 b93d 78b6 f13d a16c 2b3d
000000a0: aa42 0e3e 6987 ac3d e3fe cd3d ed74 963c
000000b0: 79b0 81bd 62c1 e13c c9a6 a53d e3a2 42bd
000000c0: 66ba 0fbd 0052 f2bd 1a11 543b 926d 093e
000000d0: cfbc 42bd 183f b5bd b528 483d 530e 533c
000000e0: 55ac aabd c6be 61bd d27f 0ebe 9d1b 743d
000000f0: 0223 a63d 3576 90bd ec6a 6bbd a7b2 22bd
00000100: 7f8e af3d faea b73d 1361 843d d30a c53d
00000110: 890b 09be 0c5f babd 28d6 02bd 3ad2 94bd
00000120: 66a1 00be 38d1 66bd f82b 18bc 4b57 4ebc
00000130: a712 c33d ba89 9e3d 1d87 b5bd 8736 ecbd
00000140: e964 b93d a275 07bc 274d ff3d e2a9 fcbd
00000150: 20bb a5bd 35c6 a2bc e611 d8bc 3892 8e3d
00000160: 99fb 08be 1463 d13d 9208 60bd 8aba 8bbd
00000170: ccd1 893d ed17 f1bc c4a0 f6bd ae60 e63d
00000180: 4b37 7e3d 21e0 fbbc 8fd6 08be ba9a 58bd
00000190: 027c 56bd 4403 fcbc bc70 bbbd 8e7b 01be
000001a0: 5e65 d3bd c2f7 71bd 9d7e 033e 26a4 4cbd
000001b0: be97 dbbd 90ca cdbc 9043 abbc 0a46 d7bd
000001c0: 224c a83d ea83 9a3d 6085 d83c a8ad 553d
000001d0: 767e b13d f839 40bd b083 743d f687 b53d
000001e0: a225 fa3d 0e67 ad3d a405 7d3d 40e4 4abc
000001f0: 226f e0bd a6ba a43d e2fe eb3d 38f4 a33d
00000200: 78c9 b5bd 3265 8b3d ba74 b6bd 3c84 913d
00000210: 3b5a 053e a670 c83d 50bd 4f3c ec61 c6bd
00000220: 5028 07bd 9281 48bd 8ca7 eebd 9055 433c
00000230: d2b0 993d 0086 5bbb eaa7 e63d 5c28 a53d
00000240: 777f 0bbe 8077 d13b b877 f33c 2071 f3bb
00000250: f80f bfbd de91 5dbd 40d1 7f3c 2667 6ebd
00000260: 2634 0bbd 3c92 e6bd 1cef bb3d e07c a23b
00000270: 04ef c93d 9015 67bd 2c1d 8ebc da47 4abd
00000280: b055 6dbc fc69 90bc c8f6 b9bc dae2 60bd
00000290: d993 043e 46f7 08be 0261 9d3d f38c 023e
000002a0: a0c3 6abd 87b7 8fbd 093f 043e 325a e0bd
000002b0: 1805 4c3d 06d0 9a3d 93a0 e6bd 7879 d63c
000002c0: 90e8 74bd 8050 653d f4ba 833d 549d 463d
000002d0: e8ab 7cbd 793e cfbd c825 b8bc 623b a53d
000002e0: 88eb 0e3d 4c53 453d faf0 e73d 9642 973d
000002f0: aeb8 e43d 9087 2cbc d80b 6e3d 0a33 52bd
00000300: 00d5 06bc 1405 e7bc a6fc a13d e228 dd3d
00000310: 4ad8 b6bd 8042 333c 480a abbc 7ac7 0bbd
00000320: fd3f 813d e97c 1bbc 34c6 703d 923a 2a3d
00000330: 142c 0bbc cce6 1a3d 7f13 ee3d 07cb 7a3d
00000340: 6082 76bd fd1f 233d dca3 ac3d 618e 463c
00000350: 7d08 813c 530c f03c 0484 9b3d ec00 ea3d
00000360: 36cb 0f3d f0a1 bd3c e665 f83b 1f6c 6bbd
00000370: fc61 103c 4164 bdbc 932b e13d 47e5 08be
00000380: 8752 133d 3d43 18bb 0047 153a 2d17 91bc
00000390: db59 fdbd c2bc 483d c3f0 eb3d 3918 ce3d
000003a0: b145 e23d 8525 0cbd e560 7fbd 485a d53d
000003b0: e1b5 65bd 513a 0dbe b7fa de3d 1a8c 0d3e
000003c0: 0117 33bc 08db acbc 6874 c53d 30e5 c83d
000003d0: 2277 71bc 9cfd 763c 1a59 c7bd 64cf 0bbe
000003e0: 80cf bfbd 5228 f13d 14d7 d93d 5f45 fcbd
000003f0: d76a dfbd ec0f 0c3e 4a6c d3bd 8a1e 48bd
-0.060149744 0.12505674 0.11026746 -0.06295696 0.12895216 0.04497093 0.06300439 0.0029730925
-0.08013831 -0.073696755 -0.03301376 -0.002596594 -0.10190294 -0.0832669 -0.10599084 0.112488866
-0.062464193 -0.07956899 0.10021008 -0.02454299 -0.046723485 0.059266012 0.07856695 -0.103855476
-0.024538968 -0.06591561 -0.06809734 -0.13197447 0.13533084 -0.0035883375 0.11214088 -0.061167393
-0.04450987 -0.055946324 0.054821786 0.036296863 -0.0311282 0.090709604 0.11802381 0.041851643
0.13892618 0.08424265 0.100583814 0.018366301 -0.063324876 0.027558032 0.08088452 -0.047518622
-0.035089873 -0.118320465 0.0032358826 0.13420704 -0.047543343 -0.08849925 0.048866946 0.012881833
-0.08333651 -0.055113576 -0.13915947 0.059596647 0.08112146 -0.07053796 -0.057475016 -0.039721157
0.08572101 0.08980365 0.06463828 0.09621205 -0.13383307 -0.0910016 -0.031942517 -0.0726666
-0.12561569 -0.05635187 -0.009287827 -0.012594054 0.09525042 0.07741113 -0.088636614 -0.11533838
0.0905245 -0.008267792 0.124658875 -0.1233709 -0.08092332 -0.019869903 -0.026375722 0.06961483
-0.13377227 0.10223976 -0.054695673 -0.06822689 0.06729469 -0.029430354 -0.12042382 0.11248909
0.06206445 -0.030746521 -0.13363098 -0.052881934 -0.052364357 -0.030763276 -0.09152362 -0.12644789
-0.10322069 -0.05907417 0.12841268 -0.04996123 -0.10722302 -0.025121003 -0.02090624 -0.10511406
0.08217646 0.07544692 0.026430786 0.052167565 0.08666699 -0.046930283 0.0596959 0.08863823
0.12214209 0.08466922 0.061772957 -0.012383521 -0.10958697 0.08043413 0.115232244 0.080055654
-0.08876318 0.06806411 -0.089089826 0.071053 0.13022701 0.09787111 0.012679413 -0.09686646
-0.03299743 -0.048951693 -0.11653051 0.011922255 0.07504429 -0.0033496618 0.11262496 0.080643386
-0.13622843 0.0063924193 0.029720172 -0.007429257 -0.09329218 -0.054094188 0.015613854 -0.05820384
-0.03398528 -0.11258361 0.09176466 0.004958734 0.09860042 -0.056417048 -0.017347895 -0.04938493
-0.0144857615 -0.017628662 -0.022700682 -0.054903843 0.12947024 -0.13375577 0.076845184 0.1274908
-0.05731547 -0.07017427 0.12914671 -0.109547034 0.049809545 0.075592086 -0.11261096 0.026180968
-0.0597921 0.055984974 0.06432143 0.048489884 -0.06168738 -0.101193376 -0.022478953 0.08067967
0.03489259 0.04817514 0.113252595 0.07385747 0.11168037 -0.0105303675 0.058116764 -0.051318206
-0.008229494 -0.028200664 0.07909517 0.107988134 -0.089279726 0.010941148 -0.020878926 -0.034125783
0.06311033 -0.00949023 0.05878277 0.041559763 -0.008494396 0.03781776 0.11624812 0.06122878
-0.06018293 0.03982543 0.08429691 0.012118907 0.015751118 0.029302752 0.07593539 0.11425957
0.035105906 0.023148507 0.0075805066 -0.05747616 0.008812424 -0.023119094 0.10994639 -0.13368712
0.035967376 -0.0023233437 0.0005694479 -0.017711246 -0.12370654 0.04900814 0.11520531 0.10063214
0.11048449 -0.03421547 -0.062348265 0.104176104 -0.056081656 -0.13791777 0.10887664 0.13822976
-0.0109307775 -0.021100536 0.09641343 0.09809339 -0.014737876 0.015075114 -0.09733792 -0.13653332
-0.09365749 0.117752686 0.10636726 -0.12317919 -0.1090905 0.13677949 -0.10323389 -0.04885725

fc2.bias f4 [9]
00000000: 16c8 923d 2b42 2e3d 4609 00be 3810 06be
00000010: 3a5a a0bd d70e 87bd dbcf 8f3c ce06 a63d
00000020: e4fc c1bd
0.071670696 0.04254357 -0.12503538 -0.13092124 -0.07829709 -0.06594627 0.017555168 0.08106767
-0.09472063
