GameAIFinalProject/model/model_mymodel51.pth (torch_old, 126465 bytes, 8 tensors)

conv1.weight f4 [10, 3, 5, 5]
00000000: 97a4 a4bd 2725 953d b24c 8bbd b674 0ebd
00000010: 61f4 cd3d c2ce 843d a2a7 ed3d 9027 f83c
00000020: d96e a4bd 6460 66bd f3ab a8bd 0e3a bb3d
00000030: 7e0c 1fbd e853 e33d 50b7 a93d 6daf 703d
00000040: d1de b03d 898e 89bd 0cad 3a3d 38b6 0c3d
00000050: 4f3e adbd f11f cb3d a023 44bd 8502 d6bd
00000060: 69c2 76bd efa6 b1bd e163 e0bd 8dd5 b53d
00000070: 906a 97bc ec34 a9bb 66a2 74bd 7902 a43d
00000080: f828 913d 8160 a4bd d8df 993d 6e27 b13c
00000090: f8d4 303c 5a57 01bd 164a ddbd bcb8 5fbc
000000a0: b35d 81bc 379c 523b 9016 08bd faf8 973c
000000b0: a879 53bd ad19 813a 45c7 80bd d226 7c3d
000000c0: b720 e1bc 7516 133c fd37 b0ba 366d 913d
000000d0: 6abd 1dba eb58 abbc f73b 933d 2581 553b
000000e0: 58d4 b6bd 3fb2 8f3d 4fbe 113d 4082 a7bc
000000f0: a14c 37bd 20cf 4f3d f81f 953c b8f5 b33d
00000100: c652 a63d 8c4d b23d a3e9 6cbc 01eb 19bc
00000110: 4ed4 b4bd 4155 233d 7b5f cbbd d822 87bc
00000120: 8c2e 2ebd 5c16 973c cc31 7bbd 7581 053c
00000130: 3a2a 193d 045e 70bd a68a be3d 66db ca3d
00000140: 6365 f1bc 804a ddbd 6b55 88bd 8371 bd3d
00000150: a7b4 9bbd 9916 83bd 24be 9c3d 7693 46bd
00000160: 2a34 c03c 40e3 94bd fa89 e7bd 79c7 bc3d
00000170: d3b5 f6bb 75bd 953d 7f67 243d 23db 23bd
00000180: e65d 43bd 3915 73bd d7b4 fe3c ce12 863c
00000190: 2b86 f1bc e599 9c3d 9c73 9b3c 87b1 c53d
000001a0: 6a34 85bd 35c4 9fbc eac6 d4bd 9cac 943c
000001b0: cfc2 de3c 66cb 76bd 9c90 0c3c aa8c 883d
000001c0: fb29 e8bc a513 e73d 2085 69bd 2efd 3fbc
000001d0: c514 5abd 4457 e23d a3dd db3d e6b0 8a3d
000001e0: bd4e 423d 7835 d0bd 6351 e03b aaa8 553d
000001f0: 4ed8 743c 5347 613d 5724 603c e003 d7bd
00000200: 8de0 94bb 843a 3cbd 32c5 413d 2364 85bc
00000210: 3551 e7bd e114 bf3d f791 303d 8ce6 cabd
00000220: 1a4c da3c 58f0 343d 7e41 cfbd 9d80 c83d
00000230: b19f 83bd 8044 a1bc abda c73d bd6e 8dbd
00000240: 1739 bfbd 8d9b bc3d dd6b 67bc 34e7 b63d
00000250: ecae 96bd e148 64bd d692 1cbd 5396 a5bd
00000260: d7e9 08bd 973d 7e3c ba77 96bc c462 c7bb
00000270: 4637 533d 16b5 793d 4efd d83d 9c99 503d
00000280: 1bcd 9cbd 31d0 9d3d 76b7 94bd 11ae b33c
00000290: c4ed 8a3d af51 b83d 2569 d5bd 2a67 97bd
000002a0: d788 773d af5d 353c 97ad ccbd 6df1 d73b
000002b0: a4d2 bebd 6155 30bd ce81 e3bd 31ba 8abd
000002c0: de99 68bd 21d6 b2bd eef1 dc3d 77bd b93d
000002d0: f0f3 a33c d9cc a7bc 32d3 0a3c 4e3b c13c
000002e0: f0fe 86bd 8851 68bd 311a 7ebc 8fcc 993d
000002f0: ee04 6abd f907 8dbd 17a7 04bd fd99 e7bd
00000300: 92b0 3dbb 609d af3d 8e4f 07bd d42b 1abd
00000310: ba94 8fbd 7ac9 3f3c b0bf f8bc 534e 533c
00000320: 29f9 61bd 0bae 8b3d 93aa babd 4112 40bd
00000330: 51a7 c3bd e2ce a4bc d3af bfbd 6835 f43c
00000340: 84ba 9a3c 00f7 a4bc 6057 e4bc 691c 093d
00000350: b1f9 323d fe2a aabb 8777 a1bd fa61 ccbd
00000360: eddd e7bd 28ea 043d c7fa 803b 1f5a 9d3d
00000370: ca08 9e3d 4a33 b3bd 156c 433c a56c 403d
00000380: 36b2 69bd e95f 96bd 2d83 773c 1afa 533c
00000390: 7edd e2bd c21f e6bd cea8 a63c 4108 303d
000003a0: da3e be3d a8d2 343d f1a5 a8bd fe7b 36bd
000003b0: eec4 00bd f82d a7bd 4605 fc3b 984c 343c
000003c0: 39f8 e8bd b60f ba3d 7cd8 febb 7c50 b53d
000003d0: f639 453c 728c 9bbd f0db c43d 2bd2 8e3d
000003e0: 0998 743d 1f45 79bd 3650 6dbd 5577 943d
000003f0: 577b 213d 0b74 c4bc 44e4 c13b 570d b83d
-0.080392055 0.07282477 -0.06801738 -0.034779273 0.10056377 0.064847484 0.11604239 0.030292302
-0.08028955 -0.05624427 -0.08235922 0.091419324 -0.038830273 0.11099988 0.08286917 0.05876105
0.08636249 -0.067166395 0.045575187 0.034353465 -0.0845915 0.09918202 -0.047885537 -0.10449699
-0.060243998 -0.08674418 -0.109565504 0.08878622 -0.01848343 -0.0051637795 -0.059725188 0.08008284
0.07087892 -0.08026219 0.07513398 0.021625247 0.010792963 -0.031577446 -0.108051464 -0.013654884
-0.01579175 0.0032136568 -0.033224642 0.018551338 -0.051629692 0.0009849571 -0.06288008 0.06156046
-0.02748142 0.008977522 -0.001344442 0.071009085 -0.00060172996 -0.020916423 0.07189172 0.0032578197
-0.0892722 0.070164196 0.035581883 -0.02044785 -0.044750813 0.05073464 0.01820372 0.087871015
0.081212565 0.08706197 -0.01446 -0.009394408 -0.088295564 0.039876226 -0.09930321 -0.016496107
-0.04252486 0.018443279 -0.061326787 0.008148541 0.037393786 -0.05868341 0.09303789 0.09905128
-0.02946729 -0.10805225 -0.06656917 0.09250166 -0.07602816 -0.064007945 0.07653454 -0.048480473
0.023462374 -0.07269907 -0.11305614 0.09217734 -0.0075289994 0.07311527 0.040137764 -0.040003907
-0.04769697 -0.05934641 0.03109209 0.016366389 -0.029482922 0.076465406 0.018976025 0.09653001
-0.06504138 -0.019502738 -0.10389502 0.018148713 0.027192501 -0.06025257 0.008579399 0.066674545
-0.02834033 0.11283044 -0.057011724 -0.011718078 -0.053242464 0.11051801 0.10735633 0.06772022
0.047438372 -0.10166448 0.0068456396 0.052162804 0.014944149 0.05499966 0.013680539 -0.10498786
-0.00454337 -0.045954242 0.0473072 -0.0162831 -0.11294786 0.09330154 0.043107953 -0.099072546
0.026647616 0.044174522 -0.101199135 0.09790156 -0.06426943 -0.019685984 0.097585045 -0.06905887
-0.09337061 0.092093565 -0.014124838 0.08930817 -0.073575824 -0.055733565 -0.03822597 -0.08085313
-0.033426132 0.015517614 -0.018367637 -0.006084772 0.051566385 0.060963713 0.10595189 0.050927743
-0.07656308 0.07705725 -0.07261555 0.021933587 0.067836314 0.08999955 -0.10420445 -0.07392724
0.060433235 0.011069699 -0.09994047 0.0065900595 -0.0931752 -0.043050174 -0.11108743 -0.067737944
-0.056787364 -0.08732248 0.10788332 0.09069341 0.02001378 -0.020483421 0.008473204 0.023587849
-0.06591594 -0.05671838 -0.015509174 0.075097196 -0.057133608 -0.06886286 -0.03238591 -0.11308668
-0.0028944355 0.08574939 -0.033034854 -0.037639454 -0.07010789 0.011705751 -0.030364841 0.012897092
-0.05516926 0.068203054 -0.09114566 -0.04689241 -0.095533974 -0.02011818 -0.09359708 0.029810622
0.018887766 -0.02013731 -0.027873695 0.03347436 0.043695156 -0.0051931133 -0.07884126 -0.09979625
-0.11321626 0.03244987 0.003936145 0.07683205 0.0771652 -0.08750017 0.011927624 0.04697861
-0.05705472 -0.07342512 0.015106958 0.012938047 -0.110774025 -0.11236526 0.020344164 0.04297662
0.09289332 0.04414621 -0.08234776 -0.044551842 -0.031437807 -0.08163065 0.0076910583 0.0110045895
-0.1137547 0.09085028 -0.007777272 0.08853242 0.012037745 -0.07595147 0.09612262 0.0697368
0.059715305 -0.060856935 -0.057937823 0.07249323 0.039424267 -0.023981115 0.005917104 0.089869194

conv1.bias f4 [10]
00000000: 2198 26bc 985f a0bd eeea d73d fbbc b63c
00000010: ceec 643d 4dec 613c 0284 8a3d 62d0 cb3a
00000020: 767c 6ebd 6780 bdbc
-0.010168106 -0.07830733 0.10542856 0.02230691 0.055889897 0.013789249 0.0676346 0.0015549774
-0.058224164 -0.023132516

conv2.weight f4 [20, 10, 5, 5]
00000000: 0e04 453d 5156 bebc a4b3 dcbc 3d8f 0abd
00000010: 781d 653d 372b e33c 6f80 59bd ac26 103d
00000020: 22b1 113d b2da 81bc 2fc7 5ebd bd8a 533c
00000030: 043d b03c a335 493c 94d0 2abd 107e c1bc
00000040: c632 a5b8 34bd 80bc 7427 f0bc 3511 1f3d
00000050: 9c94 003d 8705 cb3c 28b6 3c3d 4fef 86bc
00000060: f338 3fbd de00 173d 9363 29bc 4a50 3cbd
00000070: cd02 aebb 5280 6ebd a6f4 37bd 0574 783d
00000080: d9c7 67bd b751 5abc 2d8e 8f3c f43d c0bb
00000090: 6f3c 113a f19a 35bc 33e9 773d a58d 14bd
000000a0: 3add 663d f135 903c cfe2 783d 850c d1bc
000000b0: 0b90 44bc f4a7 643d 559d 4a39 9dfa fcbc
000000c0: 38b0 51bc 07eb 06bc 781d 1dbd 1e39 d7bb
000000d0: bd87 f03c 0778 1cbd 3258 52bd 31cf 60bd
000000e0: ce16 08bd 70a5 26bd 788c 01bd 686a 8d3c
000000f0: f5e4 633d 11c4 0abd d800 6bbd 73a2 d73c
00000100: 3758 713d 688f 2abd 1c26 363a 459d 483b
00000110: 7c0f 643d 2f69 2a3d ec73 b43b 4266 e1bc
00000120: 480f 393d 3ba6 c2ba c033 313d b6c9 343b
00000130: 4255 49bd 9440 e8bb 6a6d 6e3d 1056 0dbd
00000140: c26e a6bc 729b 6bbd 88a8 9e3c 446e 213d
00000150: d54b 7fbd f75e 1cbd 2743 3bbd 0894 963c
00000160: a822 40bd 1305 623d 3e62 663d 0a9b 0d3d
00000170: db7b 48bd d269 633d eec4 91bc 23bd 60ba
00000180: 35ea 2cbd f27a 70bd cc1f 3f3d 0377 213d
00000190: e747 ddbc 7a7b c03c 0790 ce3c 858c 0bbd
000001a0: 6ce3 22bd baac 67bd 4d02 f6bc 4876 1cbd
000001b0: dbdd f93c 2354 c7bc 7be9 d2ba 0413 5b3d
000001c0: 2eaf ef3b 0ade e838 ada9 103d d622 69bd
000001d0: 0f54 013d 8403 1b3b 4be9 6a3c 8fdb e13c
000001e0: 8ae6 17bd c968 983b c7a3 6a3d 7124 cc3c
000001f0: cfc5 1ebc 6da9 ed3c cafe a03c 2050 51bd
00000200: 8f90 053d 2ac9 17bd 9556 69bd d054 de3a
00000210: 842b 05bd 9df2 093d e7a2 753d 73c8 b0bc
00000220: 089d e23a 6b39 343d 461f 1e3d 332b 20bd
00000230: 476c 833b 2d6a c7bc 4655 5cbc 9566 73bd
00000240: 621c d63c d3e8 7d3c fae0 8abb 226b bebc
00000250: ed2f 1bbd 672a 46bd 3f43 13bd a5a3 f7bc
00000260: e11d 62bc 493c a73b 6f3e e43c 5fb0 dc3b
00000270: 2f24 283a 3322 51bc c8c3 eebc 94c8 5e3d
00000280: 74a9 2ebc 4657 ad3b 7a37 2a3d 066b db3c
00000290: 8185 23bd e07b cdbc b1b8 3fbd 22cc ee3b
000002a0: 708f 6bbd 5cf8 1a3d 6bb7 91bb 9d90 6abc
000002b0: efe0 3ebd a958 8cbc 23a9 41bd a89c 963b
000002c0: 6380 183d 22f8 483b cd6e 313d 6d0e 2cbd
000002d0: b23b 873c 71bc 8bbc 4f05 3d3d 1f70 6d3d
000002e0: cb38 2e3b 7e1a 1dbd b635 47bc 1fc2 7fbd
000002f0: d9c3 8a3c a4cb 2cbd 7ea3 923c 51e1 cf3c
00000300: 6a02 373b 74af d4bc 0a37 8abb 402c 57bd
00000310: 2560 e43b 2ecb dcbc e98f 8bbc 43d4 77bc
00000320: b17b 773d 5425 aabc 4c37 42bd 6298 41bd
00000330: 2fd3 573d 0fd6 2cbc bfa5 14bd 6992 6b3d
00000340: 1155 45bd 084a 1bbc 9e10 47bb 5460 1f3d
00000350: 1508 613d 6aa7 98bc e1b7 18bd b3c0 ae3c
00000360: 2805 25bd 6fbd d1ba 9f06 6b3c fa2f 07bd
00000370: 8c01 163b 6d93 1b3c cad7 79bd 8479 69bd
00000380: efe0 e4bb 8564 ed3c aefe 7bbd 8883 353c
00000390: f7c3 a1bc cdd4 c9bb 15e3 e0bc f6de 8ebc
000003a0: 7587 f2ba 6d14 e33c 49bd 7cbd 2abe 04bd
000003b0: 6a56 7bbd c082 273c 0f0c 273d 5b0a 623d
000003c0: e12f 253d 0f08 783d 1297 cfbb 37cb 7cbd
000003d0: 2693 a8bc ec7f 103a 0d23 babc cf03 89bc
000003e0: f68c 0d3c a8d3 2a3d bc4f 2bbb c142 afbc
000003f0: c1fe efb9 ea86 5b3d 1c05 af3c ea56 86bc
0.04809957 -0.023234518 -0.026941128 -0.03382801 0.055936307 0.027730567 -0.053101 0.03519313
0.035569318 -0.015851352 -0.054389175 0.012911496 0.02151347 0.012280854 -0.04170282 -0.023619682
-7.8772704e-05 -0.01571522 -0.029315688 0.03883477 0.031391725 0.02478291 0.046072155 -0.016471533
-0.04668517 0.03686606 -0.010338682 -0.045975007 -0.0053103925 -0.058227845 -0.04491105 0.06065752
-0.056587074 -0.013325146 0.01752385 -0.0058667604 0.00055403163 -0.011084304 0.06052513 -0.036267895
0.05636332 0.017603846 0.060763177 -0.025518665 -0.011997233 0.055824235 0.00019322832 -0.03088122
-0.0127983615 -0.008234746 -0.03835818 -0.006568088 0.0293616 -0.038200404 -0.05135364 -0.054885093
-0.033224873 -0.040685117 -0.031628102 0.017262653 0.055638272 -0.03387839 -0.05737385 0.026322579
0.05892202 -0.04164067 0.0006948428 0.0030611318 0.05567883 0.041604217 0.005506983 -0.02751458
0.04518059 -0.0014850566 0.043262243 0.002758605 -0.049153574 -0.0070877764 0.058209814 -0.034505904
-0.020316485 -0.05752129 0.019367471 0.039411798 -0.06232818 -0.038176503 -0.04571834 0.018381134
-0.04690805 0.05518062 0.056246035 0.034571685 -0.048946243 0.05552084 -0.017794099 -0.00085731054
-0.042215545 -0.058711 0.046661183 0.03942014 -0.027011825 0.023496378 0.025215162 -0.034069557
-0.039767668 -0.05656121 -0.030030394 -0.03819874 0.030501297 -0.024332112 -0.0016091311 0.05348493
0.007314584 0.0001110398 0.035318065 -0.056917988 0.031574305 0.0023653219 0.014337848 0.027570514
-0.037085094 0.0046511632 0.057285096 0.02491972 -0.009690716 0.029011453 0.019652743 -0.051101804
0.032608565 -0.03705708 -0.056967337 0.0016962532 -0.032512203 0.03367864 0.05996981 -0.021579957
0.0017289231 0.04400007 0.038604043 -0.039103698 0.0040107104 -0.02434262 -0.013448065 -0.059424
0.02613658 0.015497404 -0.004238245 -0.023244444 -0.037887502 -0.04838028 -0.035952803 -0.030229399
-0.013801069 0.005103622 0.027861802 0.0067348923 0.0006414083 -0.012764501 -0.02914609 0.054390505
-0.010660518 0.005289945 0.041556813 0.026784431 -0.03992224 -0.025083482 -0.046806995 0.007287518
-0.05750984 0.03783451 -0.004446914 -0.014316705 -0.046601232 -0.01713212 -0.047280442 0.0045963116
0.037231814 0.0030665477 0.04331856 -0.042005945 0.016507957 -0.01705763 0.04614764 0.057968255
0.0026584144 -0.038355343 -0.012158802 -0.062440988 0.01693909 -0.042186394 0.017900225 0.025375994
0.0027925023 -0.025962569 -0.004217987 -0.052532434 0.006969469 -0.026952352 -0.017036395 -0.015126291
0.060420696 -0.020769753 -0.047416016 -0.047264464 0.052691635 -0.010549082 -0.03629088 0.057512674
-0.04817683 -0.0094781 -0.0030374895 0.038910225 0.05493935 -0.018634517 -0.037284736 0.02133212
-0.04028812 -0.001600189 0.01434484 -0.03300474 0.0022889106 0.009495598 -0.060996808 -0.057000652
-0.006984822 0.028978596 -0.06152218 0.011078723 -0.019746764 -0.006159401 -0.027452031 -0.0174403
-0.0018503504 0.0277197 -0.061703954 -0.032407917 -0.061361708 0.010224044 0.040782984 0.055185657
0.040328864 0.06055456 -0.0063351477 -0.06171724 -0.020577978 0.0005512226 -0.022721792 -0.016725449
0.008639565 0.041705757 -0.0026140055 -0.021394135 -0.0004577544 0.05359546 0.021364741 -0.016398866

conv2.bias f4 [20]
00000000: 7488 f43b 836d 3bbd a418 6fbd 25c6 ad3c
00000010: b38d ba3c dd49 ac3c 73de b93c 275f 7a3d
00000020: bbd9 2fbd 1751 60bd b8cf e6bc 098f 003c
00000030: 42d8 1abd e36d b93c 862a 5d3d 79ed a6bc
00000040: 0e52 17bc 5166 4dbd 0c31 983c 881b 533c
0.0074625555 -0.045758735 -0.05837311 0.021212647 0.022772646 0.021031315 0.02268908 0.0611259
-0.042932253 -0.054764833 -0.02817522 0.007846602 -0.037803896 0.022635406 0.05399563 -0.020376908
-0.009235872 -0.050146405 0.018578075 0.012884982

fc1.weight f4 [50, 500]
00000000: 0a1c dabc dc16 02bb c8e4 623c e153 afbc
00000010: a78c 293d b06a d9bb e930 10bd 5ef0 e03c
00000020: 2089 083c a699 66bc 942e dfbc ca8b fa3c
00000030: 0973 943c b17f afbb 5d47 f43c c9c2 203d
00000040: dee8 ab3c 726a f8bc f73a 983c 1236 35bd
00000050: b6ea d8bb 681b e5bb 0a02 903c 747e 35bd
00000060: 5c45 4eba b87b f43b 3ead 303d 6ff5 b2bb
00000070: 2109 283d 7b76 123d 63c0 2e3d b6b5 203d
00000080: da01 23bd 4a3a 26bd e02d 85bb 9f15 203d
00000090: 427d 05bd 2298 ad3c 2efc e03c cc0f 0cbc
000000a0: fed5 c93c a183 243d e652 19bd 3905 e2bc
000000b0: 6207 cc3c 6522 fb3c 98d5 c6bb 6329 0f3d
000000c0: 36f4 0fbd b098 5fbb 957e dfbb 240d d1bc
000000d0: be5b 5f3c bc72 d8bc 76a7 1c3d e082 9bbc
000000e0: 5a6b 2bbc fbd6 b8bc d6ae 2a3d 6a23 b83c
000000f0: a455 2ebc 442a 2abd 894f 063d 5c41 253d
00000100: fd3c 0c3d dc24 03bd 2a09 e73c e5ce 89bc
00000110: 17a4 b13b 6c7e 85bc 8722 04bc 1665 983c
00000120: aa2a c5bc 6e2a 8d3c 1174 14bd 670f 0c3d
00000130: 67b4 c13c 216b d63c 63bf f83c 05f3 43bc
00000140: 72ca d1bc 4fa3 1bbd 0b07 d1bc 2a20 b4bc
00000150: 661e 9abc 60c2 123d ebc7 f7bc fa0f a23b
00000160: b3fc f23c 3698 9bbc 0cf7 91bc 5345 713c
00000170: 5605 a13c 0073 20bc 7fcf 03bd bba6 2e3d
00000180: 383e b03c 4012 063d 8b02 283d 9638 d63c
00000190: 4c16 d13c cb38 f13a af85 223d 31b3 833c
000001a0: dcbc 813c a470 c4bc 9768 9abc 9db2 293d
000001b0: f15e 15bd 48b7 263d d7a5 1abd fba1 c4bb
000001c0: 461f 66bb 69c8 be3c 1f7e 4b3c 065d 26bd
000001d0: c68d 6c3c 676c c53a 2324 173d 3411 1d3d
000001e0: e620 d6bb 2064 8cbb b8fc 80bb 4bd6 ab3c
000001f0: 58f2 0cbd 60ef bdbc 05a8 e7bc 0b1a fcbc
00000200: 8e2a cdbc 0a5d abbb 4bca 23bd b019 2e3d
00000210: 7901 34bb 98ae 95bc cf6b b63c 50d7 d0bc
00000220: b158 afbc 7788 babc e222 06bd 3796 083c
00000230: 72bd 2b3d e274 ea3c ad6c ad3c 0c84 6c3c
00000240: 5443 2f3d 1945 17bd 81a6 0b3c ba4e f03c
00000250: deb3 4e3c 89dd dc3c b79c 933c 89fe 173d
00000260: 7533 db3c 0ac8 77bc 979f 873c 5a23 c63c
00000270: 4175 243d b875 cebc 158c 74bc 256c 85bb
00000280: 5322 b33c 2cc4 2abd 9c7b 8fbc 5ea4 d9bc
00000290: bcfd 1fbd b559 10bd 3286 353c fa5c 03bd
000002a0: 774f 933c 40b1 25bd 56f7 21bd 2fb0 8c3c
000002b0: e1d6 d03c f78b c73c 873c 033a 35ae 273d
000002c0: b2fe 0f3c c533 debb 3471 b8bc 1458 19bd
000002d0: f8e0 ab3c 063a 053d 4ca3 853c fa67 073d
000002e0: 0ad9 063d 4536 ddbb 6e19 18bd a207 a93c
000002f0: d2f8 d3bc 84bf 283c 79ee 2f3d abf1 7f39
00000300: e84a 043c 2d76 4e3a 2334 1cbd c904 893b
00000310: 3068 063d 38a4 c5bb dc24 2ebd 8315 08bd
00000320: 9af7 16bc 0cde 803c e054 d23c dccf b3bc
00000330: ac3e 0b3d 2610 d23c 32c7 40bc 73ef 2e3d
00000340: 5f93 0dbd 8a76 afbc 36d6 f1ba 0caa 32bd
00000350: fa3e ec3c 0038 e93c d514 1a3b c642 ec3b
00000360: 66a1 153c 7e86 203d 30d9 293d 6746 e03c
00000370: 5acc 2cbd 0139 b43c b610 6d3b 41c6 143d
00000380: f512 ddbc 080e 863c 35e7 1dbd 5cfe 2e3c
00000390: 7309 33bd 4ad0 b2bc bffd ee3b ced6 1c3c
000003a0: 22a1 96bc 6253 443c 9422 73bc 93b0 813c
000003b0: e864 24bc 52a7 9e3c 5030 21bb 1157 873c
000003c0: 432e 833b 1c42 ecbc 0ca0 86bc 3b02 b03c
000003d0: c55d f4ba 00c0 ba39 acc6 b5bb 189f 1f3c
000003e0: d08d 8bbc 8fb6 9439 4ace f3bc 0ae8 0cbd
000003f0: c27b 163b a908 023d 8450 02bd 6cc6 063d
-0.026624698 -0.001985005 0.013848491 -0.021402301 0.041393902 -0.0066350326 -0.035202894 0.027458366
0.008333474 -0.014074719 -0.02724389 0.030584235 0.01812126 -0.005355798 0.029819185 0.03924826
0.020985063 -0.030324195 0.018582804 -0.04424102 -0.0066197766 -0.0069917925 0.017579097 -0.04431005
-0.0007868612 0.0074610375 0.043133967 -0.005461387 0.04102433 0.035757523 0.042663943 0.039235793
-0.039796688 -0.040582933 -0.0040643066 0.03908312 -0.03259016 0.021190707 0.027463999 -0.008548688
0.024638172 0.040164594 -0.037432574 -0.027590381 0.024905864 0.030656049 -0.006067943 0.03495158
-0.035145007 -0.0034118108 -0.0068205097 -0.025518961 0.013632713 -0.026421897 0.03824564 -0.018983305
-0.010462606 -0.022563448 0.041670643 0.022477824 -0.0106405355 -0.041544214 0.032790694 0.040345535
0.03423785 -0.032017574 0.028202612 -0.016822288 0.0054211724 -0.016295634 -0.008064873 0.018602889
-0.024068195 0.017232146 -0.036243502 0.034194376 0.023645593 0.02617413 0.030364698 -0.011959796
-0.025609229 -0.03799754 -0.025516054 -0.021987993 -0.018813323 0.0358299 -0.030246696 0.004945752
0.029661512 -0.018993478 -0.017817996 0.014726001 0.019655865 -0.009793043 -0.032180306 0.042639475
0.021514043 0.03273225 0.04101805 0.02615003 0.025523327 0.0018403766 0.03967827 0.016076656
0.015837125 -0.023979492 -0.0188487 0.041430105 -0.036467496 0.040702134 -0.037755813 -0.006000755
-0.0035113855 0.023288922 0.012420206 -0.040616058 0.014438098 0.0015062214 0.036899697 0.038346484
-0.0065346835 -0.004284397 -0.0039363764 0.020976206 -0.034410805 -0.023185432 -0.02827836 -0.030774137
-0.025044706 -0.005229597 -0.039987843 0.042504966 -0.0027466698 -0.01827173 0.022268204 -0.025493294
-0.021404596 -0.02277015 -0.03274811 0.008336595 0.041928716 0.028620187 0.021169985 0.014435779
0.04278882 -0.03693113 0.008523584 0.029334415 0.012616126 0.026961105 0.018019063 0.037107978
0.026757935 -0.015123377 0.01655559 0.024186779 0.040150885 -0.025202617 -0.014925976 -0.0040717297
0.021866953 -0.04169099 -0.017514996 -0.026567634 -0.03906034 -0.0352418 0.011079358 -0.03207109
0.017982228 -0.040452242 -0.03954252 0.017173855 0.025493087 0.024358733 0.00050062727 0.04093762
0.008788751 -0.0067810738 -0.022514917 -0.037437513 0.020981297 0.03252604 0.016313218 0.033058144
0.03292183 -0.006750854 -0.037133627 0.020633522 -0.025875483 0.010299567 0.042952035 0.00024408723
0.0080745 0.0007875886 -0.03813566 0.0041814786 0.032814205 -0.0060315393 -0.04251562 -0.03322364
-0.009214306 0.01573088 0.025675237 -0.021949701 0.033995315 0.025642466 -0.011766242 0.042708825
-0.034564372 -0.021418829 -0.0018450681 -0.0436192 0.028838623 0.028469086 0.0023510952 0.0072101085
0.009132719 0.03919076 0.04146689 0.02737732 -0.042187072 0.021999838 0.003617329 0.036321882
-0.026986578 0.016364112 -0.038550574 0.010680761 -0.043710183 -0.021827836 0.0072934325 0.009572698
-0.018387381 0.011982771 -0.014839787 0.015831267 -0.010033824 0.019366894 -0.0024595447 0.016521009
0.0040033176 -0.028840117 -0.016433738 0.021485439 -0.0018643668 0.00035619736 -0.005547365 0.009742521
-0.017035395 0.00028364777 -0.029761452 -0.034400977 0.002296195 0.03174654 -0.031815067 0.032904074

fc1.bias f4 [50]
00000000: 304f 643c 416f 2f3d 57ad df3c 394b 60bc
00000010: baeb 52bb d24e 0bbd 8db4 db3c faa8 e7bc
00000020: 740c 3fbc d5d1 e83c d641 48bc e3f2 f63c
00000030: 417b b0bb 5c3e a8bc dbc8 98ba 42f9 6abc
00000040: a390 913b 40fa 903c 02f4 273d 916b d33c
00000050: fa83 5e3c ad2a 193c 59f1 043d a73d 1fbd
00000060: 0ad4 113d eb0d 8b3b c058 c9bc 8b68 b13c
00000070: e8c3 a9ba 8e29 543c 3258 03bd 5d61 e73c
00000080: b1c4 653b a0a7 ed3c cd3a 08bd 49f2 2bbd
00000090: c5ea 4a3b b6de 073d f06f 113d 048d b1ba
000000a0: 0ee8 e3b9 0097 1bbd 1944 a6ba e78c 26bb
000000b0: 7f6f 8e3b fbca 3e3b b4ba aaba 1a70 36ba
000000c0: 0958 023c 0b58 9a3c
0.013934895 0.04283071 0.027304335 -0.0136898095 -0.003218396 -0.034010716 0.026819492 -0.028278816
-0.011660684 0.028420368 -0.012222728 0.030145114 -0.0053857868 -0.020537548 -0.0011656539 -0.014341654
0.004442291 0.017697453 0.04100419 0.025808128 0.01358127 0.009348554 0.03245673 -0.038877156
0.035602607 0.0042436025 -0.024578452 0.021656295 -0.0012952061 0.012949361 -0.03206653 0.028244669
0.0035059864 0.029010594 -0.0332592 -0.041979108 0.0030962687 0.033171378 0.035507143 -0.0013546054
-0.00043469708 -0.0379858 -0.001268509 -0.0025413574 0.0043467875 0.0029112685 -0.0013025613 -0.00069594535
0.0079555595 0.01884081

fc2.weight f4 [9, 50]
00000000: 575f 74bd eabe 003e a584 e33d b035 80bd
00000010: 378a 043e 7532 383d 01ed 813d 419c 443b
00000020: b512 a4bd a51c 96bd c201 07bd 9639 cbba
00000030: 5ec4 cfbd 3ffd a9bd 77b7 d8bd 80c7 e63d
00000040: 63af 7fbd 41dc a2bd 9e8b ce3d 5ae7 c5bc
00000050: ff0d 3cbd 8e16 733d ac71 a13d 5a90 d4bd
00000060: 6fdb c5bc 1fb5 86bd 035c 8bbd be59 06be
00000070: e0a2 0a3e d0ac 4cbb adae e63d 33f3 78bd
00000080: 5320 35bd 8de3 63bd 9fca 613d f8e6 143d
00000090: 9ff5 f7bc 9edc bb3d a2de f23d c5fd 2b3d
000000a0: 7367 0e3e 3e8b ac3d 3b1f ce3d 089d 963c
000000b0: 6e9c 81bd a7b5 e53c a869 a63d 8940 41bd
000000c0: 767c 0ebd cd14 f2bd 639e 6b3b ffe3 093e
000000d0: 8c4a 40bd 51cb b4bd 25ab 493d 8f25 533c
000000e0: fb16 aabd 319b 61bd ed78 0ebe 428c 753d
000000f0: 7746 a63d 8228 8fbd ccba 6abd f382 22bd
00000100: 33c1 af3d ef10 b83d 6694 843d 0d1e c53d
00000110: 6b91 08be a2be b9bd e45f 01bd f9a2 94bd
00000120: 5370 00be 16b4 66bd 4554 12bc 0f23 4ebc
00000130: 851e c33d c7a0 9f3d 2373 b5bd 3ece ebbd
00000140: 4236 ba3d dcea 00bc b2fc ff3d d656 fcbd
00000150: ae68 a5bd da5d a2bc e308 d4bc 68b4 8f3d
00000160: ded5 08be 7c98 d13d 238c 5fbd d6b7 8bbd
00000170: 31df 893d df03 f1bc bd8b f6bd a033 e73d
00000180: e10c 7f3d 46e7 f9bc 8fb2 08be 8a71 58bd
00000190: 027c 56bd 4403 fcbc bc70 bbbd 8e7b 01be
000001a0: 5e65 d3bd c2f7 71bd 9d7e 033e 26a4 4cbd
000001b0: be97 dbbd 90ca cdbc 9043 abbc 0a46 d7bd
000001c0: 224c a83d ea83 9a3d 6085 d83c a8ad 553d
000001d0: 767e b13d f839 40bd b083 743d f687 b53d
000001e0: a225 fa3d 0e67 ad3d a405 7d3d 40e4 4abc
000001f0: 226f e0bd a6ba a43d e2fe eb3d 38f4 a33d
00000200: 78c9 b5bd 3265 8b3d ba74 b6bd 3c84 913d
00000210: 3b5a 053e a670 c83d 50bd 4f3c ec61 c6bd
00000220: 5028 07bd 9281 48bd 8ca7 eebd 9055 433c
00000230: d2b0 993d 0086 5bbb eaa7 e63d 5c28 a53d
00000240: 777f 0bbe 8077 d13b b877 f33c 2071 f3bb
00000250: f80f bfbd de91 5dbd 40d1 7f3c 2667 6ebd
00000260: 2634 0bbd 3c92 e6bd 1cef bb3d e07c a23b
00000270: 04ef c93d 9015 67bd 2c1d 8ebc da47 4abd
00000280: b055 6dbc fc69 90bc c8f6 b9bc dae2 60bd
00000290: d993 043e 46f7 08be 0261 9d3d f38c 023e
000002a0: a0c3 6abd 87b7 8fbd 093f 043e 325a e0bd
000002b0: 1805 4c3d 06d0 9a3d 93a0 e6bd 7879 d63c
000002c0: 90e8 74bd 8050 653d f4ba 833d 549d 463d
000002d0: e8ab 7cbd 793e cfbd c825 b8bc 623b a53d
000002e0: 88eb 0e3d 4c53 453d faf0 e73d 9642 973d
000002f0: aeb8 e43d 9087 2cbc d80b 6e3d 0a33 52bd
00000300: 00d5 06bc 1405 e7bc a6fc a13d e228 dd3d
00000310: 4ad8 b6bd 8042 333c 480a abbc 7ac7 0bbd
00000320: f03a 813d 3f91 1bbc 41be 703d 1237 2a3d
00000330: cb36 0bbc cce6 1a3d ea0e ee3d a8ca 7a3d
00000340: 6082 76bd 081c 233d 6da3 ac3d ad6e 463c
00000350: 4806 813c ac08 f03c 0484 9b3d 64fe e93d
00000360: 9ac8 0f3d f0a1 bd3c 2845 f83b 8273 6bbd
00000370: 1342 103c 0767 bdbc ed2a e13d 4ae5 08be
00000380: b74b 133d a55c 18bb 0047 153a 1e1e 91bc
00000390: e459 fdbd 7cb6 483d dbec eb3d 0815 ce3d
000003a0: 6342 e23d 6628 0cbd 4164 7fbd 485a d53d
000003b0: 5eb8 65bd 243b 0dbe 7ff7 de3d e38b 0d3e
000003c0: 1d1b 33bc 54db acbc 2b73 c53d 24e5 c83d
000003d0: 1478 71bc 98dc 763c 335a c7bd 2cd0 0bbe
000003e0: 7dd0 bfbd a327 f13d 61d2 d93d 1f46 fcbd
000003f0: 4a6b dfbd b20e 0c3e 4a6c d3bd 8a1e 48bd
-0.059661236 0.12572828 0.11109284 -0.0626024 0.1294335 0.044969995 0.06344033 0.003000036
-0.080113806 -0.07329682 -0.03296066 -0.0015504833 -0.10144876 -0.08300256 -0.10581868 0.1126852
-0.06242312 -0.07952166 0.100852236 -0.024158169 -0.045911785 0.05934768 0.07883009 -0.103790954
-0.024152486 -0.06577515 -0.06804659 -0.13120171 0.13538694 -0.0031230934 0.112637855 -0.060778808
-0.04422028 -0.05563693 0.055124875 0.03635308 -0.030268488 0.09172939 0.1185887 0.04199006
0.1390665 0.08424996 0.100645505 0.018385425 -0.06328665 0.02804072 0.08125621 -0.047180686
-0.034786664 -0.11820374 0.003595256 0.1346588 -0.046946093 -0.08827842 0.04923548 0.012887373
-0.083051644 -0.055079643 -0.13913317 0.059948213 0.08118909 -0.06990148 -0.05730705 -0.039675664
0.08581772 0.08987605 0.06473617 0.09624872 -0.13336723 -0.090695634 -0.03158559 -0.07257647
-0.12542848 -0.056324087 -0.008931224 -0.012581601 0.095273055 0.07794338 -0.08859851 -0.11513947
0.0909238 -0.007868495 0.1249937 -0.1232125 -0.08076607 -0.019820143 -0.025883144 0.07016832
-0.13362834 0.10234162 -0.054577004 -0.06822173 0.067320235 -0.029420791 -0.12038372 0.112891436
0.06226814 -0.030505788 -0.13349365 -0.052842654 -0.052364357 -0.030763276 -0.09152362 -0.12644789
-0.10322069 -0.05907417 0.12841268 -0.04996123 -0.10722302 -0.025121003 -0.02090624 -0.10511406
0.08217646 0.07544692 0.026430786 0.052167565 0.08666699 -0.046930283 0.0596959 0.08863823
0.12214209 0.08466922 0.061772957 -0.012383521 -0.10958697 0.08043413 0.115232244 0.080055654
-0.08876318 0.06806411 -0.089089826 0.071053 0.13022701 0.09787111 0.012679413 -0.09686646
-0.03299743 -0.048951693 -0.11653051 0.011922255 0.07504429 -0.0033496618 0.11262496 0.080643386
-0.13622843 0.0063924193 0.029720172 -0.007429257 -0.09329218 -0.054094188 0.015613854 -0.05820384
-0.03398528 -0.11258361 0.09176466 0.004958734 0.09860042 -0.056417048 -0.017347895 -0.04938493
-0.0144857615 -0.017628662 -0.022700682 -0.054903843 0.12947024 -0.13375577 0.076845184 0.1274908
-0.05731547 -0.07017427 0.12914671 -0.109547034 0.049809545 0.075592086 -0.11261096 0.026180968
-0.0597921 0.055984974 0.06432143 0.048489884 -0.06168738 -0.101193376 -0.022478953 0.08067967
0.03489259 0.04817514 0.113252595 0.07385747 0.11168037 -0.0105303675 0.058116764 -0.051318206
-0.008229494 -0.028200664 0.07909517 0.107988134 -0.089279726 0.010941148 -0.020878926 -0.034125783
0.063100696 -0.009495079 0.05877519 0.041556425 -0.00849695 0.03781776 0.116239384 0.061228424
-0.06018293 0.039821655 0.084296085 0.012111348 0.015750065 0.02930101 0.07593539 0.11425474
0.035103418 0.023148507 0.0075766034 -0.057483204 0.008804816 -0.023120416 0.109945156 -0.13368717
0.03596088 -0.002324858 0.0005694479 -0.017714556 -0.12370661 0.049002156 0.11519786 0.10062605
0.110478185 -0.034218214 -0.06235147 0.104176104 -0.05608403 -0.13792092 0.1088705 0.13822894
-0.010931757 -0.021100678 0.09641107 0.0980933 -0.0147381015 0.015067242 -0.09734001 -0.1365363
-0.09365938 0.11775138 0.1063583 -0.12318062 -0.10909136 0.13677481 -0.10323389 -0.04885725

fc2.bias f4 [9]
00000000: 6357 a23d 2a22 433d 4609 00be 3810 06be
00000010: d576 a0bd 8f24 87bd 8cf0 863c f020 a13d
00000020: e4fc c1bd
0.07926824 0.047640003 -0.12503538 -0.13092124 -0.078351654 -0.0659877 0.016472124 0.078676105
-0.09472063
