GameAIFinalProject/model/model_mymodel21.pth (torch_old, 126465 bytes, 8 tensors)

conv1.weight f4 [10, 3, 5, 5]
0.10883774 0.101084 -0.080112375 -0.0812155 0.1017327 -0.10043146 0.022347918 -0.069412686
0.039265815 0.021091085 0.018116307 0.05311493 -0.04770016 -0.06949434 -0.06624862 -0.0883492
0.031471 0.101676255 -0.04296549 -0.056812547 -0.07252503 0.038039748 0.020241037 0.029259617
-0.08472014 0.033875775 -0.080290556 -0.05259823 -0.022833195 -0.003653698 0.004346262 -0.073119
0.06344494 0.1083072 -0.06313894 0.060910176 0.0018419742 0.031917 -0.040299397 -0.008025942
0.08088913 -0.04814876 -0.10326528 0.031757157 0.09364981 0.06881193 -0.07230393 0.04128184
-0.102198854 -0.08648503 0.03976757 0.087765604 0.024271911 -0.02289356 0.04391179 0.066838436
-0.04929193 -0.027151568 0.0018642342 0.06703828 -0.03849337 0.09708286 0.04435851 0.02432344
-0.08726967 0.03920627 -0.0050887787 -0.063555226 0.0026094972 0.0598097 0.105201334 0.11191278
-0.014391606 -0.024546439 -0.06502692 0.081253715 0.051283814 -0.058983363 0.043917034 -0.041156217
0.09804222 -0.015057915 -0.11477483 0.04440134 -0.092903405 -0.09080681 0.0028865556 0.06962665
-0.06586401 -0.05762791 0.07199397 0.023877488 -0.069337174 0.0452388 0.088693105 -0.01497019
-0.09301355 -0.04214616 -0.08056487 0.02437766 -0.004323305 -0.0075668017 -0.10245696 -0.02220485
0.011869693 -0.019975081 0.02857016 0.10021961 0.10827358 -0.080690004 0.07659619 0.087808445
0.09081457 -0.040182725 -0.103014015 -0.042576563 -0.086271904 -0.11362278 -0.048080035 -0.0960211
0.053670194 -0.11079373 0.07323164 0.0128191225 -0.037481055 0.053022113 -0.06135678 -0.11312754
-0.09093535 -0.10011649 0.08544221 -0.05265236 -0.09506331 -0.09250513 0.06688436 -0.0019525437
-0.021949593 0.090951465 0.086552404 0.070613205 0.11172697 0.060503196 0.009264341 0.06737563
-0.0010723543 -0.07680999 0.029027784 0.032125972 0.08101112 0.047442175 -0.041116435 0.056241922
0.042923402 0.04790841 -0.10645932 -0.053840995 -0.059888285 0.016443603 -0.1084352 0.05040554
-0.05154655 0.020400748 -0.0008746617 -0.06207673 -0.042595804 0.11381285 0.020939728 0.103121094
0.09623673 0.08801655 0.036913283 -0.0032628207 0.09248797 0.07137693 0.08759697 0.07126259
0.08935566 -0.03950116 -0.08474925 -0.06465921 0.075548224 0.052829515 0.1121429 0.02766011
-0.097861685 0.108441934 -0.08221836 0.11467409 0.04922114 -0.11460458 -0.087363355 -0.0546362
0.04935055 0.0021971792 -0.048513073 -0.09872019 0.06426464 -0.049131785 0.05045338 0.00016097634
-0.0025745162 -0.09129768 -0.038307037 -0.020921733 0.104667686 -0.07527445 -0.0071011377 -0.03207937
-0.05614049 -0.091704175 0.09804838 0.047216345 0.04671117 -0.06559413 -0.030645844 0.025464414
0.018155145 -0.044854533 0.010113626 -0.10098467 0.10835711 0.035914667 0.10987019 -0.05490745
-0.10605973 0.07081021 -0.10373803 0.101794064 0.049418077 0.015847204 0.034311634 0.006355295
0.016932974 -0.021620074 0.0803476 -0.038325943 -0.055108417 0.064383805 0.012376915 0.07390423
0.087564446 -0.07272609 0.10451303 0.03932988 -0.00962724 -0.05723638 -0.044433735 0.096841715
0.04870826 -0.1057211 0.029680595 -0.06623087 0.088381834 0.046210725 0.027961949 -0.11065845
00000000: 52e6 de3d 2105 cf3d f511 a4bd 5054 a6bd
00000010: 3c59 d03d 02af cdbd fb12 b73c 3d28 8ebd
00000020: 31d5 203d 36c7 ac3c a668 943c 0a8f 593d
00000030: 3e61 43bd 0c53 8ebd 5bad 87bd 6df0 b4bd
00000040: bce7 003d a43b d03d 95fc 2fbd 46b4 68bd
00000050: 0188 94bd 91cf 1b3d 88d0 a53c ddb1 ef3c
00000060: c181 adbd 53c1 0a3d 606f a4bd 3e71 57bd
00000070: ae0c bbbc e172 6fbb 176b 8e3b 6abf 95bd
00000080: 6cef 813d 2ad0 dd3d fd4e 81bd f37c 793d
00000090: 666e f13a 66bb 023d fb10 25bd 3e7f 03bc
000000a0: 33a9 a53d a237 45bd bf7c d3bd cb13 023d
000000b0: 79cb bf3d 45ed 8c3d 1514 94bd 2617 293d
000000c0: a24d d1bd 101f b1bd 52e3 223d 74be b33d
000000d0: e3d5 c63c 468b bbbc d9dc 333d 97e2 883d
000000e0: 56e6 49bd f76c debc 5259 f43a 5e4b 893d
000000f0: 39ab 1dbd 61d3 c63d 45b1 353d f341 c73c
00000100: 71ba b2bd c196 203d c5bf a6bb 3e29 82bd
00000110: 1904 2b3b 04fb 743d cc73 d73d 8732 e53d
00000120: c5ca 6bbc 9d15 c9bc d52c 85bd 5968 a63d
00000130: fa0e 523d 8a98 71bd 59e2 333d 6c93 28bd
00000140: 5cca c83d 79b5 76bc 110f ebbd 2ede 353d
00000150: 2444 bebd ecf8 b9bd 5e2c 3d3b 6b98 8e3d
00000160: b6e3 86bd 3e0b 6cbd 9371 933d b99a c33c
00000170: a600 8ebd 524c 393d bba4 b53d 8745 75bc
00000180: e37d bebd 74a1 2cbd 32ff a4bd a9b3 c73c
00000190: 83aa 8dbb eff2 f7bb f4d4 d1bd f2e6 b5bc
000001a0: 1a79 423c c8a2 a3bc f80b ea3c f03f cd3d
000001b0: 8abe dd3d cd40 a5bd 77de 9c3d ead4 b33d
000001c0: fdfc b93d a496 24bd 03f9 d2bd c364 2ebd
000001d0: 53af b0bd 0fb3 e8bd 92ef 44bd b6a6 c4bd
000001e0: 47d5 5b3d d3e7 e2bd 78fa 953d 4c07 523c
000001f0: bc85 19bd b72d 593d 3f51 7bbd 69af e7bd
00000200: 503c babd e009 cdbd 53fc ae3d 00aa 57bd
00000210: 8db0 c2bd 5473 bdbd abfa 883d 7fec ffba
00000220: a2cf b3bc c344 ba3d 6342 b13d a89d 903d
00000230: 1cd1 e43d 33d2 773d 76c9 173c 3cfc 893d
00000240: 3d8e 8cba 8e4e 9dbd adcb ed3c 8696 033d
00000250: 28e9 a53d ba52 423d b569 28bd ee5d 663d
00000260: 73d0 2f3d 9c3b 443d 5807 dabd 6088 5cbd
00000270: 6b4d 75bd bcb4 863c 4613 debd 0a76 4e3d
00000280: 7a22 53bd 781f a73c 8e49 65ba 2b44 7ebd
00000290: f078 2ebd b616 e93d cb89 ab3c 2731 d33d
000002a0: c317 c53d 0542 b43d 6232 173d 0cd5 55bb
000002b0: 556a bd3d 112e 923d 0a66 b33d 1ff2 913d
000002c0: 1a00 b73d f8cb 21bd 0491 adbd 0c6c 84bd
000002d0: 07b9 9a3d c363 583d 2dab e53d 7497 e23c
000002e0: b56b c8bd ce16 de3d 1962 a8bd 40da ea3d
000002f0: 1b9c 493d ceb5 eabd 8feb b2bd 35ca 5fbd
00000300: cd23 4a3d 8dfe 0f3b a5b5 46bd d02d cabd
00000310: 2e9d 833d 693e 49bd 34a8 4e3d c2cb 2839
00000320: 37b9 28bb 47fa babd d7e7 1cbd 0e64 abbc
00000330: 035c d63d 7e29 9abd a9b0 e8bb a865 03bd
00000340: 92f3 65bd 66cf bbbd 97cd c83d ed65 413d
00000350: 3654 3f3d 3756 86bd fe0c fbbc bf9a d03c
00000360: 19ba 943c 63b9 37bd 9fb3 253c 0dd1 cebd
00000370: 55ea dd3d 421b 133d 9f03 e13d a2e6 60bd
00000380: d835 d9bd f204 913d 9b74 d4bd 6879 d03d
00000390: 9c6a 4a3d ffd1 813c 5b8a 0c3d 1440 d03b
000003a0: 05b7 8a3c 951c b1bc 488d a43d aafb 1cbd
000003b0: 5db9 61bd a8db 833d 8bc8 4a3c 1a5b 973d
000003c0: fd54 b33d 6bf1 94bd ed0a d63d 5e18 213d
000003d0: 92bb 1dbc b270 6abd 2600 36bd f354 c63d
000003e0: 5082 473d 4e84 d8bd b824 f33c 0da4 87bd
000003f0: 8901 b53d 7547 3d3d 7510 e53c e6a0 e2bd

conv1.bias f4 [10]
-0.0066493326 0.09302359 0.057651464 0.061787985 0.028106686 -0.04178761 0.050483707 0.06785045
0.041794073 0.05535406
00000000: a5e2 d9bb 2783 be3d f123 6c3d 6615 7d3d
00000010: fe3f e63c 7c29 2bbd 01c8 4e3d 2df5 8a3d
00000020: 4330 2b3d f0ba 623d

conv2.weight f4 [20, 10, 5, 5]
0.02463845 0.028033182 -0.03581522 -0.024451634 -0.028447865 -0.054641455 -0.04791931 0.04064464
-0.005560485 0.03554322 0.0013027592 0.061780956 0.061828148 -0.026174644 -0.021626119 -0.042089462
0.019956924 -0.06243475 0.0029176283 0.06039391 -0.0023045354 0.048817933 0.020706205 -0.058056105
-0.04090795 -0.040385336 -0.059528127 0.035631526 -0.052650142 0.027496237 0.049014904 -0.021003107
0.0470843 0.021595698 -0.050391875 0.01071336 0.013692219 -0.018385405 0.05068079 -0.042210665
-0.046736788 -0.027587606 -0.023613729 0.028627431 0.061821178 0.0006875927 -0.050407946 0.035861284
-0.061610904 -0.059608895 -0.004898627 0.019448107 0.017995909 0.03413182 0.056903042 0.043289613
-0.01656397 0.054581273 -0.015229855 0.057744663 -0.006091848 -0.029012082 -0.0019306835 -0.03420109
-0.043386642 -0.014691838 0.034970794 0.062879324 0.01773841 -0.01461475 -0.009487969 -0.014741538
-0.049079858 -0.060157623 0.02278802 -0.04320367 0.036177933 0.03456192 0.04605452 -0.062221587
-0.04658124 -0.027768433 0.044395562 0.054953527 0.028253729 -0.054364372 -0.059445526 -0.041110627
0.016451184 -0.030302987 0.018809533 0.030790443 -0.019248579 -0.011252799 0.009366995 0.0319136
-0.062839404 -0.04532235 -0.016910253 0.0066130674 -0.04303656 0.05571752 0.021850023 -0.015586832
-0.035031185 0.023692774 0.03332152 0.03291926 -0.0033349087 0.06330291 -0.01426044 0.022402434
0.021128451 -0.030594803 0.060243864 -0.017025644 0.023749663 0.05771928 0.027795294 -0.052497186
0.06303979 -0.0367282 -0.013734201 0.009410848 0.057520922 0.052738793 -0.028337514 -0.028586296
0.009749485 0.056345884 0.04291467 -0.03623547 -0.02833918 -0.026514096 0.061770745 -0.0465643
-0.03103974 -0.025868742 -0.04512199 -0.032969072 -0.028442612 0.00816174 0.037072767 -0.026262304
-0.061824817 0.0028699662 -0.019893792 0.05216117 -0.061120432 -0.03487647 0.0130368 0.048423342
0.02197695 0.010029324 -0.0037127808 -0.016663117 -0.055157006 0.00016007497 -0.003311904 0.0067775594
-0.010495712 -0.025618313 -0.014043113 0.021844795 0.016609786 0.017443975 -0.0033205017 0.0016125276
0.02940057 0.052446462 0.03287831 -0.017452726 0.05034837 -0.05959485 0.06324734 0.02479388
0.06025345 -0.00840881 -0.0012446955 -0.03888393 -0.03395227 -0.033756707 0.0011979851 -0.016170634
-0.057213336 0.04352636 -0.047976512 0.0050740517 0.059323378 0.060423747 0.010062931 -0.009002128
-0.014869943 0.010017039 0.011632597 -0.048190452 -0.036637433 0.05778517 0.02361333 0.00046822554
-0.011445291 -0.03042549 0.054686155 0.027397752 -0.01706381 -0.021636272 -0.025592158 0.055495244
0.06279646 -0.005764597 1.3056558e-05 -0.021013953 -0.002383484 -0.037784427 -0.0028184224 -0.061709102
0.03210541 0.04125886 0.026121717 0.029501181 -0.020616958 0.037694544 -0.017906526 0.018678239
0.030399943 -0.005949934 0.058482915 -0.004965012 -0.05176452 0.046473455 -0.013113983 0.017695328
-0.0147739565 -0.0062893913 0.028774247 0.047356673 0.016500602 0.024839792 0.06264224 -0.04423705
0.022417566 -0.01608446 -0.018914377 0.021232894 0.049426913 0.02077877 -0.024560181 -0.02536899
-0.0069744457 -0.016293997 -0.010157096 -0.05585894 0.025078092 -0.014088025 -0.01334153 0.00046095083
00000000: 93d6 c93c d8a5 e53c fbb2 12bd cb4e c8bc
00000010: 7f0b e9bc b8cf 5fbd 0a47 44bd fe7a 263d
00000020: bb34 b6bb c495 113d 58c1 aa3a 070e 7d3d
00000030: 833f 7d3d 356c d6bc 4229 b1bc 0066 2cbd
00000040: b47c a33c 95bb 7fbd ae35 3f3b 9b5f 773d
00000050: b007 17bb 50f5 473d 0fa0 a93c 3dcc 6dbd
00000060: 188f 27bd 186b 25bd c4d3 73bd 5df2 113d
00000070: ada7 57bd ca3f e13c dac3 483d b50e acbc
00000080: 78db 403d 76e9 b03c b667 4ebd 1787 2f3c
00000090: 5455 603c fd9c 96bc a996 4f3d 17e5 2cbd
000000a0: 136f 3fbd 67ff e1bc 9471 c1bc 1384 ea3c
000000b0: 3438 7d3d 913f 343a 9078 4ebd 48e3 123d
000000c0: b75b 7cbd 7528 74bd a984 a0bb a351 9f3c
000000d0: 286c 933c cfcd 0b3d 2a13 693d 7350 313d
000000e0: 2ab1 87bc 9d90 5f3d a486 79bc ab85 6c3d
000000f0: 209e c7bb bfaa edbc fd0e fdba 7116 0cbd
00000100: 31b6 31bd 09b6 70bc 893d 0f3d e0c6 803d
00000110: 2450 913c b472 6fbc 6d73 1bbc 7e86 71bc
00000120: f607 49bd d767 76bd f1ad ba3c 55f6 30bd
00000130: 502f 143d cd90 0d3d aaa3 3c3d 10dc 7ebd
00000140: f8cb 3ebd a07a e3bc 1fd8 353d f316 613d
00000150: 5d74 e73c 2dad 5ebd 277d 73bd 9e63 28bd
00000160: a2c4 863c f83d f8bc 7316 9a3c 3d3c fc3c
00000170: 32af 9dbc a95d 38bc 0678 193c d6b7 023d
00000180: f2b1 80bd eea3 39bd 5f87 8abc 6eb2 d83b
00000190: 1b47 30bd 0e38 643d d2fe b23c e95f 7fbc
000001a0: dc7c 0fbd 5917 c23c 257c 083d 59d6 063d
000001b0: 7c8e 5abb f5a4 813d 9fa4 69bc 4f85 b73c
000001c0: 9315 ad3c f4a1 fabc 45c2 763d 5d79 8bbc
000001d0: a78e c23c 0d6b 6c3d f5b2 e33c 4a07 57bd
000001e0: 011b 813d 4f70 16bd 6a05 61bc f52f 1a3c
000001f0: 0f9b 6b3d a204 583d 1324 e8bc cf2d eabc
00000200: 4ebc 1f3c f1ca 663d 4bc7 2f3d a56b 14bd
00000210: 9127 e8bc 1734 d9bc 5203 7d3d 35ba 3ebd
00000220: 0e47 febc afea d3bc d6d1 38bd 940a 07bd
00000230: 7b00 e9bc d2b8 053c 9dd9 173d 0b24 d7bc
00000240: 053c 7dbd 0b16 3c3b 4ef8 a2bc f3a6 553d
00000250: 6b59 7abd a1da 0ebd 4d98 553c 8e57 463d
00000260: 0109 b43c 0952 243c 2052 73bb 1781 88bc
00000270: 50ec 61bd ccd9 2739 870c 59bb 4a16 de3b
00000280: 35f6 2bbc 7fdd d1bc 1615 66bc dbf3 b23c
00000290: 3f11 883c abe6 8e3c c69c 59bb 735b d33a
000002a0: 77d9 f03c 1ad2 563d 68ab 063d 05f9 8ebc
000002b0: 183a 4e3d bb19 74bd d287 813d 891c cb3c
000002c0: 52cc 763d 1bc5 09bc 0d25 a3ba c144 1fbd
000002d0: 8911 0bbd 7944 0abd b605 9d3a 4778 84bc
000002e0: 8858 6abd b248 323d 0583 44bd 3b44 a63b
000002f0: 12fd 723d e47e 773d fede 243c a97d 13bc
00000300: 10a1 73bc 821e 243c a696 3e3c 5a63 45bd
00000310: 2211 16bd 24b0 6c3d be70 c13c 2b7c f539
00000320: 0885 3bbc e13e f9bc 97fe 5f3d 4071 e03c
00000330: 67c9 8bbc 8d3e b1bc a5a6 d1bc fb4e 633d
00000340: 6e9b 803d f2e4 bcbb 7d0d 5b37 7425 acbc
00000350: 3a34 1cbb d8c3 1abd 48b5 38bb afc2 7cbd
00000360: f680 033d 0dff 283d 36fd d53c 76ac f13c
00000370: e5e4 a8bc 9865 1a3d b5b0 92bc 1b03 993c
00000380: 4d09 f93c aaf7 c2bb c88b 6f3d 8ab1 a2bb
00000390: 0907 54bd f35a 3e3d 08dc 56bc cbf5 903c
000003a0: 770e 72bc 3d17 cebb f8b7 eb3c 12f9 413d
000003b0: 452c 873c d27c cb3c 934a 803d e931 35bd
000003c0: 0ba5 b73c 8fc3 83bc 53f2 9abc 9bf0 ad3c
000003d0: e073 4a3d 3d38 aa3c 6f32 c9bc a1d2 cfbc
000003e0: e489 e4bb fd7a 85bc f369 26bc 58cc 64bd
000003f0: 9270 cd3c 76d1 66bc 6f96 5abc c6ab f139

conv2.bias f4 [20]
-0.05915784 0.052617993 -0.034568176 -0.04111986 -0.004609286 0.058296215 0.040909693 -0.04606521
-0.060286265 -0.050147686 -0.027814562 0.044696 0.05348513 -0.016635887 0.062316213 -0.016084678
-0.059925407 0.037925027 0.043195345 0.0024499134
00000000: 7e4f 72bd f785 573d 5c97 0dbd 4c6d 28bd
00000010: 7e09 97bb 03c8 6e3d ec90 273d e0ae 3cbd
00000020: bbee 76bd a967 4dbd 5ddb e3bc 2713 373d
00000030: 3913 5b3d fc47 88bc 493f 7f3d 04c4 83bc
00000040: 5874 75bd 4657 1b3d 9aed 303d ba8e 203b

fc1.weight f4 [50, 500]
0.00039609298 -0.00962146 -0.030896313 -0.028113283 -0.033239968 -0.02889542 -0.03998125 -0.021158276
0.011481215 0.021359423 -0.030109908 -0.03790522 0.0072096875 0.03503935 -0.035977714 -0.043776855
0.030276354 -0.03791463 0.0047293804 0.041304007 0.030035803 -0.017053753 0.0029281918 -0.0033339646
0.020658636 -0.010746405 0.03675928 0.0014559685 0.014102751 -0.02575964 0.016636545 0.024239158
-0.03919133 -0.027094152 -0.04419906 -0.004468339 -0.030543782 0.03056336 0.021587798 -0.013698103
-0.018644076 0.02561743 0.015710937 -0.016390808 0.03118652 0.037454635 -0.032534376 -0.03542835
-0.00983115 -0.033076048 0.0015963246 -0.0013886173 0.019366596 0.0393869 0.0029370605 0.023683727
0.04047911 0.01757451 -0.014727281 -0.008087488 0.005999358 0.017851077 0.03738751 0.021717764
0.0128753185 0.015683293 0.04194478 -0.039129924 -0.04374093 -0.043693826 0.010712711 -0.023297315
0.02329811 -0.04017706 -0.028253227 0.0016200283 -0.039109264 -0.036121983 0.011937598 -0.011990069
0.020834232 0.0044925716 -0.025563424 -0.0327111 0.011352264 0.026780583 0.005582413 -0.028401565
-0.019881273 -0.03808564 0.037615843 0.018019667 0.017378304 0.03273751 -0.009350648 0.005474583
0.01769543 -0.021733027 0.004846672 0.03803101 0.0060007027 -0.038925286 0.032945003 0.04412682
-0.032790646 0.012663919 0.040548787 0.03583517 0.006203344 0.02175455 -0.018012203 0.03770773
-0.002560998 -0.040186908 -0.010580483 -0.019781651 0.029872075 0.02768456 -0.005901483 -0.026589954
0.009526557 0.035291035 -0.013924158 0.04310003 -0.03411579 0.043868605 0.0025269226 0.0057344246
0.040766194 -0.029424459 0.024565598 0.028473483 0.0018908156 -0.01964869 -0.02497395 -0.030280674
-0.02973313 -0.01610593 0.031062884 0.012300487 0.040862553 -0.04037341 0.020800442 0.0319962
0.035363894 -0.00031139492 0.01867485 -0.014436475 0.017691078 -0.016810283 -0.040569887 0.008183532
0.014017561 -0.008423238 -0.0105737755 0.033986963 0.0037905043 0.015132378 0.0067312904 0.03468214
-0.01617484 -0.009943576 -0.03676937 0.039635107 0.030095309 -0.0051395227 -0.02748005 -0.010169686
-0.005486966 -0.013485365 -0.035468463 -0.0036814783 0.03279315 -0.017640015 -0.044627223 -0.019723777
-0.042833775 0.03377909 -0.019634679 0.03638977 -0.02832968 0.0054363646 -0.027184991 -0.039675117
0.0074176816 -0.027273286 -0.008698646 0.0138808 0.02903473 -0.0022824965 -0.027405815 0.023488428
0.032756697 0.040563498 -0.018359037 0.027246837 0.043826353 0.0231972 0.005930532 -0.031227238
-0.0024964663 -0.035817597 0.0392265 -0.012530126 0.013145303 0.04347734 -0.02514005 -0.043976054
0.002271928 -0.03739021 -0.012446486 -0.0013197088 -0.025496459 0.013614725 -0.040507372 0.01915485
0.0030519792 0.030972537 -0.029856471 -0.0049160216 0.02898902 0.028584491 0.03927165 0.027248178
0.012718924 -0.04447725 0.013598025 0.0065880236 -0.010890292 0.0077699586 0.026856383 -0.028069101
0.03545113 0.015502616 -0.040810872 -0.03980061 -0.03023625 0.034691 0.006350448 -0.0009693277
-0.01068942 0.031657472 -0.021878362 -0.00638718 0.029538754 -0.04091879 0.013270441 0.004372386
0.0044602295 0.019565871 0.0048270356 0.019712457 0.02091543 -0.021784803 0.0018498151 0.032309916
00000000: b3aa cf39 54a3 1dbc 441a fdbc d44d e6bc
00000010: a226 08bd 16b6 ecbc 61c3 23bd 1f54 adbc
00000020: b51b 3c3c f5f9 ae3c 0ea9 f6bc 8142 1bbd
00000030: 3e3f ec3b 6c85 0f3d 5e5d 13bd 5c4f 33bd
00000040: 1e06 f83c 5f4c 1bbd ebf8 9a3b 642e 293d
00000050: a50d f63c 50b4 8bbc e8e6 3f3b a57e 5abb
00000060: 4d3c a93c b111 30bc e690 163d 32d6 be3a
00000070: 3a0f 673c e105 d3bc 5d49 883c 3391 c63c
00000080: 1787 20bd 8ef4 ddbc 130a 35bd 256b 92bb
00000090: f436 fabc 0360 fa3c e5d8 b03c 026e 60bc
000000a0: 76bb 98bc a5db d13c 39b4 803c 0446 86bc
000000b0: df7a ff3c 086a 193d c442 05bd 511d 11bd
000000c0: d512 21bc c07a 07bd c43b d13a 4402 b6ba
000000d0: b2a6 9e3c 2854 213d b37b 403b 6004 c23c
000000e0: 6ccd 253d 6bf8 8f3c b24a 71bc 6281 04bc
000000f0: 4396 c43b 6c3c 923c a523 193d 74e9 b13c
00000100: 00f3 523c 407a 803c 4ace 2b3d b346 20bd
00000110: b029 33bd 4cf8 32bd 5e84 2f3c 03da bebc
00000120: aedb be3c b390 24bd 5073 e7bc 2157 d43a
00000130: 0931 20bd a5f4 13bd ea95 433c ff71 44bc
00000140: 8dac aa3c 6c36 933b 636a d1bc 13fc 05bd
00000150: d9fe 393c f462 db3c adec b63b 66aa e8bc
00000160: 0dde a2bc b0ff 1bbd 1213 1a3d fb9d 933c
00000170: f25c 8e3c c417 063d 7633 19bc 2164 b33b
00000180: 02f6 903c 7609 b2bc d5d0 9e3b 68c6 1b3d
00000190: 8ba1 c43b 1f70 1fbd 57f1 063d 53be 343d
000001a0: 7c4f 06bd 537c 4f3c 7c16 263d e6c7 123d
000001b0: 6c45 cb3b 9936 b23c 548e 93bc 6c73 1a3d
000001c0: 6bd6 27bb 079b 24bd c359 2dbc 210d a2bc
000001d0: 48b6 f43c bbca e23c 3a61 c1bb 2dd3 d9bc
000001e0: 4715 1c3c 558d 103d 2722 64bc a889 303d
000001f0: 00bd 0bbd 91af 333d ba9a 253b d7e7 bb3b
00000200: 74fa 263d 900b f1bc cb3d c93c 3941 e93c
00000210: 3ed5 f73a 4af6 a0bc 2b96 ccbc 2d0f f8bc
00000220: e592 f3bc 95f0 83bc 9777 fe3c fb87 493c
00000230: 7e5f 273d 975e 25bd b065 aa3c 730e 033d
00000240: bbd9 103d b842 a3b9 00fc 983c f786 6cbc
00000250: e1ec 903c b8b5 89bc 9c2c 26bd 3914 063c
00000260: eaa9 653c 9f01 0abc a13d 2dbc ea35 0b3d
00000270: 1c6a 783b cbed 773c 2892 dc3b dc0e 0e3d
00000280: 1981 84bc 61ea 22bc 7b9b 16bd 6c58 223d
00000290: 708a f63c 7169 a8bb d81d e1bc c19e 26bc
000002a0: 02cc b3bb b8f1 5cbc 6147 11bd f544 71bb
000002b0: 1c52 063d cb81 90bc 09cb 36bd c293 a1bc
000002c0: 7872 2fbd f15b 0a3d e8d8 a0bc 710d 153d
000002d0: a513 e8bc 8823 b23b 0fb3 debc 6082 22bd
000002e0: 0610 f33b 3a6c dfbc c484 0ebc 4c6c 633c
000002f0: 3eda ed3c f095 15bb 2982 e0bc ce6a c03c
00000300: e32b 063d e925 263d b165 96bc c234 df3c
00000310: 4383 333d 0e08 be3c e854 c23b 44d0 ffbc
00000320: c19b 23bb 79b5 12bd f7ab 203d 284b 4dbc
00000330: 665f 573c 4c15 323d 82f2 cdbc 3c20 34bd
00000340: a0e4 143b 7a26 19bd 59ec 4bbc 14fa acba
00000350: f3dd d0bc 4c10 5f3c 0feb 25bd a2ea 9c3c
00000360: b703 483b 1eba fd3c 8f95 f4bc 9416 a1bb
00000370: 627a ed3c 062a ea3c 4fdb 203d 9237 df3c
00000380: 0963 503c c72d 36bd 40ca 5e3c 59e0 d73b
00000390: 326d 32bc 239b fe3b eb01 dc3c 2cf1 e5bc
000003a0: 3435 113d affe 7d3c 4d29 27bd f705 23bd
000003b0: 03b2 f7bc 2618 0e3d 6b17 d03b 7b1a 7eba
000003c0: ad22 2fbc 44ab 013d 403a b3bc 8d4b d1bb
000003d0: 42fb f13c 769a 27bd 446c 593c 3b46 8f3b
000003e0: 1e27 923b 9b48 a03c 1c2c 9e3b 057c a13c
000003f0: d656 ab3c 0b76 b2bc 7f75 f23a 6757 043d

fc1.bias f4 [50]
0.029929522 0.04079886 0.017492527 -0.042989403 -0.03042169 0.0028521698 0.03093651 0.0018404718
0.02958068 -0.03932011 0.026722252 -0.012122227 -0.025140755 0.034642845 -0.01655098 0.008936498
-0.024567904 -0.017030198 -0.018774504 0.013741221 0.018867966 0.005640577 -0.013490882 0.014643859
-0.027329294 0.043131188 0.040418286 0.009779617 -0.020270113 0.04376006 0.033229224 -0.0044113724
-0.041814804 -0.031617157 -0.01735025 0.023453807 -0.011488048 -0.036464743 0.028525306 0.026295928
0.031140082 -0.015972653 0.015565936 -0.00011358993 0.02591794 0.011997004 -0.003985297 -0.04353304
-0.00772261 -0.011508466
00000000: c22e f53c b51c 273d 7d4c 8f3c a815 30bd
00000010: e836 f9bc 78eb 3a3b 906e fd3c fc3b f13a
00000020: 2f53 f23c 200e 21bd a0e8 da3c 4e9c 46bc
00000030: fcf3 cdbc a8e5 0d3d ec95 87bc 646a 123c
00000040: a142 c9bc ea82 8bbc fdcc 99bc dc22 613c
00000050: fe90 9a3c 97d4 b83b dc08 5dbc ccec 6f3c
00000060: afe1 dfbc 54aa 303d a58d 253d b03a 203c
00000070: 820d a6bc c03d 333d 5e1b 083d 468d 90bb
00000080: 0046 2bbd fe80 01bd 1d22 8ebc 3322 c03c
00000090: 5e38 3cbc 0e5c 15bd e7ad e93c 8f6a d73c
000000a0: 7c19 ff3c 15d9 82bc 4508 7f3c 2137 eeb8
000000b0: dc51 d43c 158f 443c 1897 82bb b34f 32bd
000000c0: f30d fdbb 018e 3cbc

fc2.weight f4 [9, 50]
-0.10478935 -0.12100351 0.12889159 0.13305026 0.047716066 0.12206994 0.035069644 -0.108991265
-0.047276083 -0.06339053 -0.075510696 -0.0536238 -0.065451436 -0.06398992 0.017578242 0.102704264
-0.13585708 0.08698835 -0.1288009 0.09744617 -0.07140649 -0.009611003 -0.044820625 -0.10553973
0.014936471 0.020155706 0.1253976 -0.018680654 -0.051735133 -0.010906344 -0.050914302 0.019189792
-0.12199883 0.06951572 0.13076364 0.03928817 -0.08657125 -0.00038292276 0.123447664 -0.11345808
0.12944989 -0.063170195 0.10939751 0.0867629 -0.04577112 0.11945927 0.099484794 0.008074427
-0.05238767 -0.010731456 -0.07574047 -0.008790279 -0.057048127 0.059773713 0.012497524 -0.021507999
-0.06702577 -0.02244313 -0.07002018 0.129708 -0.02884978 0.10974688 0.05394856 0.08889023
0.07455944 0.05600742 -0.0064192032 -0.08114199 -0.04241333 -0.034218933 -0.03767225 -0.02331547
-0.017166648 -0.03647843 0.0851949 0.02707941 -0.0017159086 0.046408728 -0.1067217 0.063147254
0.04120849 0.005892452 0.083624825 0.0023587937 -0.12927881 -0.12425353 0.052024897 -0.10563408
-0.065759 -0.05194258 -0.023724427 0.03554432 0.113068275 -0.020126441 -0.01683425 -0.092321865
0.06502507 -0.08358382 -0.08378866 -0.08448187 -0.09073945 -0.00095671666 0.11621452 0.09707739
0.06406232 -0.110238746 0.055586714 -0.051101875 -0.052477617 0.09106734 -0.027518934 0.06560431
0.13858898 -0.011807823 -0.040306274 0.116657 -0.021523442 -0.021615693 0.05760058 0.1176908
-0.12910032 -0.050301272 -0.008751676 0.08967443 -0.009115107 -0.017543942 0.028863871 0.05905327
0.07314904 -0.07194511 0.11485662 0.023852823 -0.10242082 0.08217392 0.055212457 -0.052797705
-0.09739735 0.11140494 -0.04602628 -0.038735375 0.10382206 0.11383961 -0.10135367 0.017389018
-0.09301887 0.101465784 0.0695525 -0.12613241 -0.08315341 0.0009044202 -0.05962899 -0.14086658
-0.018325992 0.09045179 0.048009098 0.073462844 0.06486748 -0.10598965 -0.12686142 0.039131284
0.025608897 0.07168423 -0.12528577 -0.104349494 -0.065129995 0.12228411 -0.09463187 0.042277455
-0.115761146 0.055631857 0.07867597 0.027629158 -0.06596776 0.05999035 -0.015469315 0.13254082
-0.08968573 -0.017343992 -0.044210315 0.07482375 -0.05383835 -0.1056183 -0.1403176 0.11016874
-0.11325407 0.10516241 0.12919399 -0.0053125853 -0.06658501 0.08056527 -0.08737682 -0.05851316
-0.12530273 -0.14117385 -0.07494013 -0.020682056 0.036163535 0.052545976 -0.10959456 -0.099271946
0.0040027685 -0.06664994 -0.03927603 0.09495333 -0.11960623 -0.07257466 -0.053876273 -0.1333806
0.04429801 -0.041394375 0.029389609 -0.036293488 0.09635198 -0.0074276007 -0.12619004 -0.078589186
-0.092013195 -0.081051566 -0.058471505 0.116262585 0.067079425 -0.11051124 -0.058034264 0.10883529
0.12690361 0.055768836 -0.07654481 -0.008427278 0.10836722 -0.13187338 0.12919532 -0.11031769
0.004490316 0.04093371 0.1331226 -0.11323869 0.123994194 0.005776103 -0.049881402 -0.03354962
0.11060132 0.060103785 -0.13484411 -0.14007656 0.08831478 0.07647995 -0.13692671 -0.050053306
0.0063165445 0.0056575807 -0.0487175 -0.0860659 -0.125791 0.03319398 0.07608096 0.05815913
00000000: cc9b d6bd b0d0 f7bd 28fc 033e 543e 083e
00000010: ec71 433d ceff f93d 30a5 0f3d d036 dfbd
00000020: 91a4 41bd e5d2 81bd 5aa5 9abd a1a4 5bbd
00000030: 670b 86bd 260d 83bd 3f00 903c 9d56 d23d
00000040: 1e1e 0bbe f326 b23d 62e4 03be dc91 c73d
00000050: 913d 92bd 7877 1dbc d595 37bd 3725 d8bd
00000060: 1ab8 743c 941d a53c 3a68 003e 2c08 99bc
00000070: 38e8 53bd 86b0 32bc 848b 50bd e933 9d3c
00000080: 86da f9bd 425e 8e3d e7e6 053e a2ec 203d
00000090: 444c b1bd 06c3 c8b9 21d2 fc3d b65c e8bd
000000a0: 838e 043e 605f 81bd cd0b e03d bfb0 b13d
000000b0: 7f7a 3bbd 10a7 f43d afbe cb3d 9a4a 043c
000000c0: 7494 56bd fdd2 2fbc d21d 9bbd 1a05 10bc
000000d0: 4cab 69bd 48d5 743d 6ac2 4c3c 8b31 b0bc
000000e0: cf44 89bd a8da b7bc bd66 8fbd 2dd2 043e
000000f0: 6056 ecbc f9c2 e03d 2af9 5c3d 150c b63d
00000100: 9fb2 983d 0968 653d 2e58 d2bb c62d a6bd
00000110: 9ab9 2dbd 2729 0cbd 384e 1abd 1600 bfbc
00000120: 12a1 8cbc 686a 15bd aa7a ae3d a4d5 dd3c
00000130: 57e8 e0ba 1417 3e3d e890 dabd 5953 813d
00000140: 3cca 283d 7815 c13b 7e43 ab3d fe95 1a3b
00000150: aa61 04be a278 febd 0f18 553d ae56 d8bd
00000160: a8ac 86bd bec1 54bd bb59 c2bc ec96 113d
00000170: 5790 e73d 35e0 a4bc fbe7 89bc 3f13 bdbd
00000180: dd2b 853d fe2d abbd 6499 abbd d504 adbd
00000190: 9bd5 b9bd 2bcc 7aba e101 ee3d 83d0 c63d
000001a0: 1b33 833d dac4 e1bd e5ae 633d 3350 51bd
000001b0: c5f2 56bd 8381 ba3d 636f e1bc 8d5b 863d
000001c0: 45ea 0d3e 9975 41bc 3118 25bd dde9 ee3d
000001d0: ee51 b0bc 6513 b1bc 96ee 6b3d e007 f13d
000001e0: e032 04be b508 4ebd 3163 0fbc 3aa7 b73d
000001f0: 8857 15bc 50b8 8fbc ed73 ec3c d7e1 713d
00000200: 2acf 953d f557 93bd f339 eb3d ff66 c33c
00000210: 02c2 d1bd cd4a a83d 7526 623d 6842 58bd
00000220: 4378 c7bd 4628 e43d 0d86 3cbd fca8 1ebd
00000230: a9a0 d43d be24 e93d 8392 cfbd 6a73 8e3c
00000240: ad80 bebd 4bcd cf3d 8b71 8e3d db28 01be
00000250: 564c aabd 9d16 6d3a 873d 74bd 543f 10be
00000260: 6420 96bc ca3e b93d 30a5 443d b073 963d
00000270: 3ed9 843d 1a11 d9bd f6e7 01be 2048 203d
00000280: c0c9 d13c 2ecf 923d ea4a 00be 30b5 d5bd
00000290: e062 85bd 1770 fa3d 5bce c1bd 202b 2d3d
000002a0: 2e14 edbd 3bde 633d de20 a13d 8b56 e23c
000002b0: 1b1a 87bd 71b8 753d 0373 7dbc c8b8 073e
000002c0: 27ad b7bd fd14 8ebc e015 35bd 323d 993d
000002d0: 9a85 5cbd 684e d8bd 6baf 0fbe 26a0 e13d
000002e0: c0f1 e7bd 645f d73d 6e4b 043e 3215 aebb
000002f0: b95d 88bd 67ff a43d 9ef2 b2bd 7fab 6fbd
00000300: 5c4f 00be e18f 10be 367a 99bd 6a6d a9bc
00000310: 3720 143d 733a 573d 1d73 e0bd 174f cbbd
00000320: a829 833b c47f 88bd e7df 20bd e476 c23d
00000330: 1cf4 f4bd 06a2 94bd 5ead 5cbd ed94 08be
00000340: d571 353d 268d 29bd 7ac2 f03c 7ba8 14bd
00000350: 3054 c53d 3b63 f3bb f637 01be 5ef3 a0bd
00000360: 6a71 bcbd 5dfe a5bd d17f 6fbd 141b ee3d
00000370: f060 893d b853 e2bd 56b5 6dbd 09e5 de3d
00000380: 05f3 013e dd6d 643d 86c3 9cbd 9112 0abc
00000390: a2ef dd3d d109 07be c74b 043e 3eee e1bd
000003a0: 8023 933b 1baa 273d 4a51 083e b0e9 e7bd
000003b0: abf0 fd3d 7745 bd3b 7150 4cbd 546b 09bd
000003c0: f282 e23d 632f 763d 9314 0abe 3b70 0fbe
000003d0: 61de b43d 85a1 9c3d 8436 0cbe b204 4dbd
000003e0: 04fb ce3b 3a63 b93b 008c 47bd 5243 b0bd
000003f0: 5bcf 00be 69f6 073d 56d0 9b3d 4538 6e3d

fc2.bias f4 [9]
0.027937816 0.13085759 0.13828258 -0.09481882 -0.08965786 0.06029335 0.0703113 -0.045302354
0.008982136
00000000: d9dd e43c 88ff 053e f399 0d3e 5f30 c2bd
00000010: 8a9e b7bd 29f6 763d 5fff 8f3d f68e 39bd
00000020: cf29 133c
