GameAIFinalProject/model/model_mymodel61.pth (torch_old, 126465 bytes, 8 tensors)

conv1.weight f4 [10, 3, 5, 5]
000000 01 ec a3 bd af e7 95 3d 56 86 8a bd ce f3 0c bd
       -0.080039985 0.07319581 -0.06763904 -0.034412198
000010 f7 c6 ce 3d 1d 94 85 3d 83 76 ee 3d b6 71 fb 3c
       0.10096543 0.06522391 0.11643698 0.03069387
000020 74 a8 a3 bd 37 b8 64 bd 25 e2 a7 bd 54 0a bc 3d
       -0.07991114 -0.055839743 -0.081974305 0.091816574
000030 f8 7f 1d bd c7 17 e4 3d ff 86 aa 3d 28 31 72 3d
       -0.03845212 0.11137348 0.0832653 0.05912891
000040 6e a0 b1 3d af db 88 bd 42 16 3c 3d 99 4b 0e 3d
       0.08673178 -0.06682526 0.045919664 0.034740064
000050 e6 88 ac bd e5 cc cb 3d fb dd 42 bd ec 5b d5 bd
       -0.08424549 0.0995119 -0.04757498 -0.10417923
000060 e5 43 75 bd bb 3e b1 bd af f4 df bd 18 49 b6 3d
       -0.059879202 -0.08654543 -0.109353416 0.0890066
000070 39 98 95 bc 23 5e a0 bb 0c be 73 bd c3 7c a4 3d
       -0.018261062 -0.0048940345 -0.059507415 0.08031609
000080 8a a9 91 3d 82 e2 a3 bd 87 6f 9a 3d a4 08 b3 3c
       0.07112415 -0.08002187 0.075408034 0.021854706
000090 9b b8 34 3c f7 6d 00 bd 12 ce dc bd ad 3f 5b bc
       0.0110303415 -0.03135487 -0.10781492 -0.013381881
0000a0 e8 1b 7f bc 19 11 61 3b a6 46 07 bd 37 b0 99 3c
       -0.015570618 0.0034342466 -0.03302636 0.018760784
0000b0 cf 64 52 bd a1 b0 9c 3a 90 62 80 bd 4d e4 7c 3d
       -0.05136567 0.0011954495 -0.06268799 0.061741162
0000c0 7c 8d df bc e9 30 17 3c 6b e9 9e ba 9a b7 91 3d
       -0.027289145 0.00922797 -0.0012124007 0.07115097
0000d0 0e b7 eb b9 a9 10 aa bc 35 a8 93 3d 65 7b 5f 3b
       -0.0004495908 -0.020759897 0.07209817 0.0034100648
0000e0 c4 7e b6 bd b0 0f 90 3d 57 79 12 3d 5c c3 a5 bc
       -0.089108974 0.07034242 0.03576025 -0.020234756
0000f0 a8 a0 36 bd 70 7f 50 3d bc 6b 96 3c 59 51 b4 3d
       -0.044586807 0.050902784 0.018361919 0.08804578
000100 4e c2 a6 3d a5 a0 b2 3d f4 5a 6a bc 08 9e 17 bc
       0.081425294 0.08722047 -0.0143039115 -0.009253986
000110 a4 84 b4 bd f7 2d 24 3d ce 0e cb bd 27 08 86 bc
       -0.08814362 0.040082898 -0.09914933 -0.01636131
000120 db a6 2d bd 01 41 98 3c 1a 60 7a bd d1 3e 04 3c
       -0.042395454 0.018585684 -0.061126806 0.008071617
000130 5b d1 18 3d 36 b6 70 bd 90 55 be 3d 99 9e ca 3d
       0.037309032 -0.05876752 0.092936635 0.09893531
000140 bd 0a f2 bc be 84 dd bd a9 94 88 bd 97 34 bd 3d
       -0.029546136 -0.10816334 -0.0666898 0.09238546
000150 a3 ee 9b bd 84 3c 83 bd 69 80 9c 3d d6 29 47 bd
       -0.07613876 -0.06408027 0.0764168 -0.048623882
000160 3c 1b bf 3c 67 24 95 bd 04 a1 e7 bd 67 9b bc 3d
       0.023328416 -0.07282334 -0.11310008 0.09209328
000170 7d 30 fb bb a6 6f 95 3d 4f d1 23 3d 11 01 24 bd
       -0.0076656924 0.07296686 0.039994534 -0.04004008
000180 a2 93 43 bd 5f 83 73 bd 21 9e fd 3c 77 d3 84 3c
       -0.047748215 -0.059451457 0.03095919 0.016214116
000190 d3 1a f2 bc 39 70 9c 3d 99 be 9a 3c c7 7b c5 3d
       -0.029553806 0.07638592 0.018889712 0.09642749
0001a0 86 6d 85 bd f5 4b a0 bc 74 f8 d4 bd cd c9 93 3c
       -0.065150306 -0.01956747 -0.10398951 0.018040562
0001b0 6f e4 dd 3c a8 2f 77 bd 8e b4 0b 3c 83 5c 88 3d
       0.027086465 -0.060348183 0.008526934 0.0665827
0001c0 7f 20 e9 bc 91 d7 e6 3d cf f4 69 bd 64 61 40 bc
       -0.028457878 0.11271585 -0.057118233 -0.01174197
0001d0 4c 58 5a bd 11 1d e2 3d 1f 9c db 3d f5 70 8a 3d
       -0.053306863 0.110407 0.10723137 0.06759826
0001e0 b8 3a 42 3d 5d 48 d0 bd 69 8e dd 3b c8 37 55 3d
       0.04741928 -0.10170052 0.0067613614 0.05205515
0001f0 2c bf 72 3c 6f 07 61 3d 52 fb 5e 3c 32 2f d7 bd
       0.014816087 0.05493873 0.013609724 -0.10507049
000200 86 18 98 bb 52 a3 3c bd 25 8f 41 3d 50 08 86 bc
       -0.0046415953 -0.046054192 0.047255654 -0.016361386
000210 17 83 e7 bd 29 e2 be 3d e7 37 30 3d 05 fa ca bd
       -0.113043 0.093204804 0.043022063 -0.09910969
000220 20 b9 d9 3c db 8b 34 3d 24 75 cf bd 1e 4f c8 3d
       0.026577532 0.04407869 -0.10129765 0.097807154
000230 c1 a5 83 bd 10 a6 a1 bc 01 ad c7 3d 4e a4 8d bd
       -0.064280994 -0.019732505 0.09749795 -0.06916104
000240 34 70 bf bd a4 96 bc 3d 26 d5 67 bc bb c3 b6 3d
       -0.09347573 0.0920842 -0.01414994 0.089240514
000250 89 dc 96 bd 97 b9 64 bd 6d 95 1c bd 0e 96 a5 bd
       -0.073662825 -0.055841055 -0.03822844 -0.08085261
000260 97 e5 08 bd 02 5b 7e 3c e5 63 96 bc fe 74 c7 bb
       -0.03342208 0.015524628 -0.01835818 -0.0060869446
000270 2f 35 53 3d 0e b5 79 3d 56 fe d8 3d 08 9d 50 3d
       0.05156439 0.060963683 0.10595386 0.050931007
000280 f6 cc 9c bd c6 d0 9d 3d 68 b4 94 bd f6 c5 b3 3c
       -0.07656281 0.07705836 -0.07260972 0.021944981
000290 e9 f1 8a 3d b1 50 b8 3d 5e 6a d5 bd e5 66 97 bd
       0.06784422 0.08999766 -0.104206786 -0.073926724
0002a0 93 93 77 3d 2b 81 35 3c 1d ab cc bd f1 05 d8 3b
       0.060443472 0.011078159 -0.09993575 0.006592505
0002b0 6f d0 be bd 5e 49 30 bd a9 7c e3 bd 82 bc 8a bd
       -0.09317099 -0.04303872 -0.111077614 -0.06774236
0002c0 81 9a 68 bd 5b d4 b2 bd 80 f5 dc 3d 3b c2 b9 3d
       -0.05678797 -0.0873191 0.10789013 0.0907025
0002d0 dd ea a3 3c 42 d3 a7 bc 33 d3 0a 3c 3d 41 c1 3c
       0.020009452 -0.020486478 0.008473205 0.023590678
0002e0 94 fc 86 bd ce 54 68 bd 32 1b 7e bc 77 cf 99 3d
       -0.06591144 -0.0567215 -0.015509414 0.07510274
0002f0 d9 f7 69 bd ad 02 8d bd 0d ad 04 bd 12 9c e7 bd
       -0.05712113 -0.06885276 -0.032391597 -0.11309065
000300 50 a2 3d bb 2e a3 af 3d 7e 44 07 bd c5 2c 1a bd
       -0.0028935857 0.08576046 -0.033024304 -0.03764035
000310 59 95 8f bd f1 d4 3f 3c 9d a6 f8 bc e7 80 53 3c
       -0.07010908 0.011708484 -0.030352885 0.012909151
000320 08 00 62 bd e2 ac 8b 3d 98 a9 ba bd 83 0d 40 bd
       -0.05517581 0.06820084 -0.09114379 -0.046887886
000330 19 a4 c3 bd a7 dc a4 bc 03 b2 bf bd e9 33 f4 3c
       -0.095527835 -0.020124746 -0.09360125 0.029809909
000340 aa bd 9a 3c e5 f2 a4 bc 95 64 e4 bc 60 1b 09 3d
       0.018889267 -0.020135352 -0.027879992 0.033473372
000350 0a fe 32 3d e4 d0 a9 bb 88 73 a1 bd 28 66 cc bd
       0.0436993 -0.0051823724 -0.07883364 -0.09980422
000360 4d e0 e7 bd 19 ea 04 3d 20 45 81 3b 42 5e 9d 3d
       -0.11322079 0.032449815 0.003945008 0.07683994
000370 f6 05 9e 3d 2d 35 b3 bd 2d 6f 43 3c 9a 76 40 3d
       0.07715981 -0.08750377 0.011928362 0.046988107
000380 81 a6 69 bd fc 5e 96 bd a6 91 77 3c f1 21 54 3c
       -0.057043556 -0.073423356 0.015110409 0.012947545
000390 4b db e2 bd a2 1f e6 bd 6c b4 a6 3c 91 0b 30 3d
       -0.11076983 -0.11236502 0.020349704 0.04297978
0003a0 38 3f be 3d 6e cd 34 3d 98 aa a8 bd c8 75 36 bd
       0.09289402 0.044141226 -0.08235663 -0.04454592
0003b0 c6 c3 00 bd 92 31 a7 bd 8a de fb 3b a2 20 34 3c
       -0.031436704 -0.08163752 0.007686441 0.010994108
0003c0 42 f7 e8 bd a6 0c ba 3d 90 1a ff bb 99 4d b5 3d
       -0.11375286 0.09084444 -0.007785149 0.08852691
0003d0 ac 14 45 3c 30 92 9b bd 5f d4 c4 3d 32 ca 8e 3d
       0.012028854 -0.075962424 0.09610819 0.069721594
0003e0 29 8f 74 3d 32 4e 79 bd ce 52 6d bd 47 77 94 3d
       0.05970684 -0.06086559 -0.057940297 0.07249313
0003f0 4b 80 21 3d 6c 75 c4 bc 79 c2 c1 3b ef 0d b8 3d
       0.03942899 -0.023981772 0.0059130755 0.089870326

conv1.bias f4 [10]
000000 9f 35 23 bc 90 81 a0 bd e0 f9 d7 3d b7 bf b6 3c
       -0.009961515 -0.07837212 0.10545707 0.022308214
000010 73 df 64 3d 59 2f 61 3c 6e a7 8a 3d 9a ec ce 3a
       0.05587716 0.013744199 0.06770216 0.0015787065
000020 64 6d 6e bd 0e 5a bd bc
       -0.05820979 -0.02311423

conv2.weight f4 [20, 10, 5, 5]
000000 a0 03 45 3d 67 52 be bc e3 a8 dc bc c4 8e 0a bd
       0.04809916 -0.023232652 -0.026936 -0.03382756
000010 a7 1d 65 3d 3a 2d e3 3c fc 7e 59 bd bd 28 10 3d
       0.05593648 0.027731527 -0.053099617 0.0351951
000020 00 b6 11 3d fd d2 81 bc 89 c3 5e bd ed 8d 53 3c
       0.03557396 -0.015847677 -0.054385696 0.012912256
000030 e7 40 b0 3c 9a 42 49 3c 83 cd 2a bd 00 7a c1 bc
       0.021515323 0.012283945 -0.041699897 -0.023617744
000040 0f e4 a5 b8 05 ba 80 bc 5b 24 f0 bc b3 13 1f 3d
       -7.910292e-05 -0.015713701 -0.02931421 0.038837146
000050 55 91 00 3d de 03 cb 3c 75 b6 3c 3d d7 ee 86 bc
       0.0313886 0.024782117 0.046072442 -0.01647131
000060 6e 39 3f bd a6 03 17 3d 72 4f 29 bc 38 50 3c bd
       -0.04668563 0.036868714 -0.010333883 -0.04597494
000070 b1 f3 ad bb 60 7e 6e bd 60 f2 37 bd eb 75 78 3d
       -0.0053085913 -0.05822599 -0.04490888 0.06065933
000080 15 c8 67 bd 4b 4c 5a bc 36 8e 8f 3c 91 40 c0 bb
       -0.056587297 -0.013323854 0.017523866 -0.005867072
000090 75 23 11 3a 12 9c 35 bc e6 e8 77 3d db 8d 14 bd
       0.00055365945 -0.011084573 0.060524844 -0.036268096
0000a0 c0 dc 66 3d 4f 37 90 3c 3d e2 78 3d eb 0e d1 bc
       0.056362867 0.017604498 0.060762633 -0.025519809
0000b0 fb 95 44 bc b4 a6 64 3d 27 51 4c 39 e4 f9 fc bc
       -0.011998649 0.055823043 0.00019485188 -0.030880876
0000c0 0e b0 51 bc b9 ec 06 bc 83 1d 1d bd 7a 38 d7 bb
       -0.012798322 -0.00823515 -0.038358223 -0.006568012
0000d0 ed 83 f0 3c 1d 7a 1c bd 1d 5a 52 bd 3b cf 60 bd
       0.029359782 -0.038202394 -0.05135547 -0.05488513
0000e0 ce 16 08 bd 29 a8 26 bd ce 8e 01 bd 18 66 8d 3c
       -0.033224873 -0.040687714 -0.03163033 0.017260596
0000f0 18 e6 63 3d d3 c3 0a bd 0e 03 6b bd c9 9d d7 3c
       0.055639356 -0.03387816 -0.05737596 0.026320355
000100 8c 56 71 3d db 8d 2a bd d7 99 36 3a 03 7c 48 3b
       0.05892043 -0.04163919 0.0006965673 0.0030591495
000110 63 0e 64 3d 38 68 2a 3d 66 89 b4 3b cd 60 e1 bc
       0.055677783 0.041603297 0.005509543 -0.027511979
000120 b7 0e 39 3d 61 b3 c2 ba f2 33 31 3d fb d1 34 3b
       0.04518005 -0.0014854484 0.04326243 0.0027590978
000130 48 55 49 bd ec 44 e8 bb 5f 6c 6e 3d d9 56 0d bd
       -0.049153596 -0.0070882943 0.05820882 -0.034506653
000140 cf 6e a6 bc 72 9b 6b bd 49 a6 9e 3c 30 6d 21 3d
       -0.02031651 -0.05752129 0.0193664 0.03941077
000150 ae 4c 7f bd e9 5e 1c bd 35 42 3b bd 43 93 96 3c
       -0.062328987 -0.03817645 -0.045717437 0.018380767
000160 f9 23 40 bd 2b 04 62 3d 09 63 66 3d f9 9b 0d 3d
       -0.046909306 0.055179756 0.05624679 0.034572575
000170 7d 7c 48 bd 92 68 63 3d 16 c6 91 bc 44 9f 60 ba
       -0.048946846 0.055519648 -0.01779465 -0.00085686543
000180 fd e9 2c bd 78 7b 70 bd 64 20 3f 3d ed 77 21 3d
       -0.042215336 -0.0587115 0.04666175 0.03942101
000190 7a 48 dd bc bb 7a c0 3c a3 90 ce 3c 13 8d 0b bd
       -0.027012099 0.023496022 0.025215453 -0.034070086
0001a0 a1 e4 22 bd 35 ac 67 bd 8c 04 f6 bc 1f 78 1c bd
       -0.03976882 -0.056560714 -0.030031465 -0.038200494
0001b0 bd db f9 3c d8 55 c7 bc 3c dd d2 ba 12 11 5b 3d
       0.030500287 -0.024332926 -0.0016087661 0.053483076
0001c0 14 9a ef 3b 78 89 e6 38 b4 a8 10 3d 0c 22 69 bd
       0.0073120687 0.0001099286 0.035317138 -0.056917235
0001d0 fa 52 01 3d 24 f7 1a 3b e3 e7 6a 3c bf dc e1 3c
       0.031573273 0.0023645842 0.014337513 0.02757108
0001e0 2d e5 17 bd 26 6e 98 3b 76 a4 6a 3d 99 25 cc 3c
       -0.037083793 0.0046518026 0.05728575 0.024920272
0001f0 5c c0 1e bc 24 a8 ed 3c 2a fe a0 3c 3d 50 51 bd
       -0.009689417 0.02901084 0.019652445 -0.05110191
000200 7c 91 05 3d 69 c7 17 bd 57 56 69 bd 65 5d de 3a
       0.032609448 -0.037055407 -0.056967106 0.001696509
000210 3d 2c 05 bd f3 f1 09 3d 8f a2 75 3d 33 c8 b0 bc
       -0.032512892 0.033678006 0.05996948 -0.021579837
000220 78 52 e2 3a 6c 37 34 3d bc 1d 1e 3d a5 2c 20 bd
       0.0017267009 0.043998167 0.038602576 -0.039105076
000230 29 6c 83 3b 7e 69 c7 bc 3d 52 5c bc ce 65 73 bd
       0.0040106964 -0.024342295 -0.0134473415 -0.05942326
000240 12 1e d6 3c e1 eb 7d 3c a5 d6 8a bb da 69 be bc
       0.026137386 0.015498132 -0.0042370134 -0.023243833
000250 62 2d 1b bd dc 28 46 bd fb 40 13 bd 5b a2 f7 bc
       -0.037885077 -0.04837881 -0.035950642 -0.030228784
000260 1e 0e 62 bc 12 65 a7 3b 8f 3f e4 3c 3d c4 dc 3b
       -0.013797311 0.005108484 0.027862338 0.0067372606
000270 e0 43 28 3a 7d 0e 51 bc dc be ee bc 6a c9 5e 3d
       0.00064188056 -0.012759802 -0.029143743 0.054391302
000280 7d b1 2e bc d6 3e ad 3b 37 37 2a 3d 2c 6c db 3c
       -0.010662434 0.0052870316 0.041556563 0.026784979
000290 c2 85 23 bd 2e 82 cd bc 0a bc 3f bd 97 c3 ee 3b
       -0.039922483 -0.025086489 -0.046810187 0.0072864997
0002a0 1a 91 6b bd 70 f6 1a 3d 4c bb 91 bb 4c a3 6a bc
       -0.057511427 0.037832677 -0.0044473764 -0.01432116
0002b0 ac e5 3e bd a5 5f 8c bc ad ab 41 bd 22 b7 96 3b
       -0.04660575 -0.01713545 -0.047282863 0.004599468
0002c0 7e 83 18 3d 52 04 49 3b 1e 72 31 3d 27 0d 2c bd
       0.037234776 0.003067274 0.04332172 -0.04200473
0002d0 23 3d 87 3c f4 bb 8b bc ca 06 3d 3d 4e 72 6d 3d
       0.016508644 -0.017057396 0.046149053 0.057970338
0002e0 09 58 2e 3b 82 1a 1d bd 8b 34 47 bc 79 c2 7f bd
       0.0026602766 -0.038355358 -0.012158523 -0.062441323
0002f0 2f c4 8a 3c 60 cb 2c bd 93 a1 92 3c b7 e0 cf 3c
       0.01693925 -0.04218614 0.01789931 0.025375707
000300 e5 fd 36 3b 10 af d4 bc 70 38 8a bb 2c 2d 57 bd
       0.002792233 -0.025962383 -0.0042181537 -0.052533314
000310 05 6b e4 3b 49 cb dc bc 31 90 8b bc 13 d2 77 bc
       0.0069707655 -0.026952403 -0.01703653 -0.015125769
000320 d3 7d 77 3d b3 24 aa bc 72 37 42 bd 92 96 41 bd
       0.06042273 -0.020769453 -0.047416158 -0.047262736
000330 64 d1 57 3d 10 d0 2c bc 39 a5 14 bd 03 95 6b 3d
       0.052689925 -0.010547653 -0.03629038 0.057515156
000340 a1 52 45 bd bc 49 1b bc 2f 0d 47 bb 89 60 1f 3d
       -0.048174504 -0.009478029 -0.0030372848 0.038910422
000350 a3 09 61 3d 3d a3 98 bc 29 b6 18 bd f4 bf ae 3c
       0.05494083 -0.018632526 -0.037283096 0.021331765
000360 d6 04 25 bd 29 c0 d1 ba 01 0a 6b 3c 7d 2e 07 bd
       -0.040287815 -0.0016002703 0.014345647 -0.03300332
000370 64 03 16 3b 73 9a 1b 3c 4b d7 79 bd a9 79 69 bd
       0.0022890205 0.009497273 -0.060996335 -0.05700079
000380 f8 da e4 bb 66 64 ed 3c 87 ff 7b bd 79 7d 35 3c
       -0.006984111 0.028978538 -0.061522987 0.011077278
000390 ba c3 a1 bc 80 d6 c9 bb 42 e3 e0 bc 87 e0 8e bc
       -0.01974665 -0.0061596036 -0.027452115 -0.017441047
0003a0 d5 9d f2 ba 03 18 e3 3c 4d ba 7c bd d5 be 04 bd
       -0.0018510172 0.02772141 -0.061701108 -0.032408554
0003b0 51 56 7b bd 89 83 27 3c 72 0e 27 3d e5 0d 62 3d
       -0.061361615 0.0102242315 0.04078526 0.055189032
0003c0 38 31 25 3d a7 08 78 3d b3 99 cf bb 75 cb 7c bd
       0.04033014 0.060555127 -0.006335461 -0.06171747
0003d0 d0 8f a8 bc 2e 10 11 3a c8 23 ba bc 44 05 89 bc
       -0.020576388 0.0005533722 -0.02272214 -0.016726144
0003e0 3f 91 0d 3c 42 d4 2a 3d 33 54 2b bb 91 46 af bc
       0.008640586 0.04170633 -0.0026142716 -0.021395953
0003f0 c0 cf f0 b9 9c 85 5b 3d 33 05 af 3c 52 5a 86 bc
       -0.00045931153 0.053594217 0.021364784 -0.01640049

conv2.bias f4 [20]
000000 14 75 f4 3b 97 6c 3b bd 7a 32 6f bd 9f cf ad 3c
       0.007460246 -0.045757856 -0.058397748 0.021217166
000010 de 50 b9 3c e6 ad ac 3c 88 1c bb 3c 12 4f 7a 3d
       0.022621568 0.021079015 0.022840753 0.061110564
000020 e4 d3 2f bd cc 42 60 bd c8 ac e6 bc b6 6a 02 3c
       -0.042926684 -0.054751202 -0.02815856 0.007960012
000030 ce c3 1b bd 11 04 b9 3c cd 61 5c 3d 10 2f a8 bc
       -0.03802853 0.022584947 0.053804208 -0.020530254
000040 a7 f4 15 bc 15 48 4d bd d4 e1 97 3c 3f 56 59 3c
       -0.009152568 -0.05011757 0.0185403 0.013265192

fc1.weight f4 [50, 500]
000000 0a 1c da bc 2a 14 02 bb db e4 62 3c e1 53 af bc
       -0.026624698 -0.0019848444 0.013848509 -0.021402301
000010 a7 8c 29 3d b0 6a d9 bb e9 30 10 bd 5e f0 e0 3c
       0.041393902 -0.0066350326 -0.035202894 0.027458366
000020 20 89 08 3c 5e 9b 66 bc 94 2e df bc ca 8b fa 3c
       0.008333474 -0.014075128 -0.02724389 0.030584235
000030 61 73 94 3c 11 80 af bb 47 46 f4 3c c9 c2 20 3d
       0.018121423 -0.005355843 0.029818667 0.03924826
000040 de e8 ab 3c 69 6a f8 bc 66 3a 98 3c 15 36 35 bd
       0.020985063 -0.030324178 0.018582534 -0.04424103
000050 50 e8 d8 bb 68 1b e5 bb 3b 02 90 3c 59 7d 35 bd
       -0.0066194907 -0.0069917925 0.017579189 -0.044308994
000060 98 2e 4e ba b8 7b f4 3b 81 ad 30 3d 19 f6 b2 bb
       -0.00078652194 0.0074610375 0.043134216 -0.005461466
000070 21 09 28 3d 7b 76 12 3d 9c c0 2e 3d ea b5 20 3d
       0.04102433 0.035757523 0.042664155 0.039235987
000080 a4 01 23 bd 4a 3a 26 bd e0 2d 85 bb 9f 15 20 3d
       -0.039796486 -0.040582933 -0.0040643066 0.03908312
000090 42 7d 05 bd 22 98 ad 3c 2e fc e0 3c cc 0f 0c bc
       -0.03259016 0.021190707 0.027463999 -0.008548688
0000a0 fe d5 c9 3c a1 83 24 3d e6 52 19 bd 39 05 e2 bc
       0.024638172 0.040164594 -0.037432574 -0.027590381
0000b0 62 07 cc 3c 85 22 fb 3c 98 d5 c6 bb 63 29 0f 3d
       0.024905864 0.030656109 -0.006067943 0.03495158
0000c0 36 f4 0f bd b0 98 5f bb c5 7a df bb ca 09 d1 bc
       -0.035145007 -0.0034118108 -0.006820055 -0.025517363
0000d0 90 5f 5f 3c d9 71 d8 bc 95 a4 1c 3d 35 81 9b bc
       0.013633624 -0.026421474 0.038242895 -0.01898251
0000e0 08 6b 2b bc fb d6 b8 bc 9b ae 2a 3d b7 20 b8 3c
       -0.01046253 -0.022563448 0.041670423 0.022476537
0000f0 a4 55 2e bc 44 2a 2a bd 89 4f 06 3d e9 40 25 3d
       -0.0106405355 -0.041544214 0.032790694 0.040345106
000100 f2 3b 0c 3d dc 24 03 bd 2a 09 e7 3c e5 ce 89 bc
       0.034236856 -0.032017574 0.028202612 -0.016822288
000110 d3 9d b1 3b 0c 80 85 bc f4 22 04 bc 16 65 98 3c
       0.0054204254 -0.01629641 -0.008064974 0.018602889
000120 aa 2a c5 bc 4a 2e 8d 3c c3 72 14 bd 5f 10 0c 3d
       -0.024068195 0.017233986 -0.036242258 0.0341953
000130 9c b7 c1 3c 2b 6f d6 3c bd cc f8 3c 50 e3 43 bc
       0.023647122 0.026176056 0.030371064 -0.011956051
000140 62 c8 d1 bc d0 a2 1b bd b6 05 d1 bc a9 19 b4 bc
       -0.025608245 -0.037997067 -0.025515418 -0.021984892
000150 7c 15 9a bc a9 c2 12 3d 00 c7 f7 bc b5 0e a2 3b
       -0.018809073 0.035830174 -0.030246258 0.004945601
000160 06 fe f2 3c 41 93 9b bc d2 f5 91 bc ee 46 71 3c
       0.029662143 -0.018991115 -0.017817412 0.014726384
000170 e6 02 a1 3c d7 71 20 bc 31 cf 03 bd c0 a6 2e 3d
       0.019654702 -0.0097927665 -0.032180015 0.042639494
000180 16 42 b0 3c 2e 13 06 3d 4f 03 28 3d 47 3a d6 3c
       0.021515887 0.032733135 0.04101878 0.026150836
000190 c1 17 d1 3c 34 7b f1 3a 79 8a 22 3d 3b b9 83 3c
       0.025524022 0.0018423558 0.03968284 0.016079536
0001a0 9e c2 81 3c 53 73 c4 bc f4 68 9a bc 87 b4 29 3d
       0.015839871 -0.023980772 -0.018848874 0.04143193
0001b0 cd 5e 15 bd 37 b8 26 3d 88 a3 1a bd c2 a0 c4 bb
       -0.036467362 0.040703025 -0.03775361 -0.006000609
0001c0 25 22 66 bb 69 c8 be 3c 99 7d 4b 3c c8 5a 26 bd
       -0.0035115567 0.023288922 0.0124200815 -0.04061392
0001d0 75 92 6c 3c 73 6f c5 3a 23 24 17 3d 37 10 1d 3d
       0.014439215 0.0015063122 0.036899697 0.03834554
0001e0 dd 18 d6 bb 2a 54 8c bb b8 fc 80 bb ba d7 ab 3c
       -0.0065337257 -0.004282494 -0.0039363764 0.02097689
0001f0 70 f3 0c bd 99 05 be bc a6 c4 e7 bc a8 34 fc bc
       -0.034411848 -0.023196029 -0.028292011 -0.030786827
000200 28 40 cd bc 03 c2 ab bb dd d8 23 bd 76 0a 2e 3d
       -0.025055006 -0.005241634 -0.04000174 0.042490445
000210 dc d4 34 bb 43 bc 95 bc 64 55 b6 3c 93 f1 d0 bc
       -0.0027592694 -0.018278247 0.022257514 -0.025505817
000220 d8 6e af bc 04 95 ba bc 96 23 06 bd 6b 83 08 3c
       -0.02141516 -0.022776134 -0.03274878 0.008332114
000230 e0 b3 2b 3d b6 5f ea 3c 1b 58 ad 3c b4 7e 6c 3c
       0.04191959 0.028610092 0.021160176 0.014434505
000240 dc 3d 2f 3d 17 4d 17 bd 3f 7c 0b 3c d2 3e f0 3c
       0.042783603 -0.036938753 0.008513509 0.02932683
000250 56 92 4e 3c 7d d5 dc 3c 95 8b 93 3c be f5 17 3d
       0.012608131 0.026957268 0.018010894 0.037099592
000260 e0 23 db 3c 7e e1 77 bc 80 98 87 3c 92 04 c6 3c
       0.026750505 -0.015129445 0.01655221 0.024172101
000270 69 6b 24 3d 8a 7e ce bc 8c a7 74 bc 96 c2 85 bb
       0.040141497 -0.025206823 -0.014932524 -0.0040820343
000280 7c 0f b3 3c 24 d3 2a bd ff 90 8f bc 67 ae d9 bc
       0.02185797 -0.041705266 -0.017525194 -0.02657242
000290 20 05 20 bd 96 62 10 bd 1e 59 35 3c 8d 6c 03 bd
       -0.039067388 -0.03525027 0.0110686105 -0.032085944
0002a0 1e 48 93 3c 58 b8 25 bd 67 fd 21 bd 81 a2 8c 3c
       0.017978724 -0.040459007 -0.039548304 0.017167332
0002b0 61 b9 d0 3c bd 79 c7 3c 8d 50 02 3a 7a ae 27 3d
       0.02547902 0.024350042 0.00049711094 0.04093788
0002c0 d1 00 10 3c 88 29 de bb cf 6e b8 bc 3f 56 19 bd
       0.008789257 -0.0067798533 -0.022513775 -0.037435766
0002d0 70 de ab 3c f3 3a 05 3d af a1 85 3c da 67 07 3d
       0.02098009 0.03252692 0.016312448 0.033058025
0002e0 ae d8 06 3d 4f 31 dd bb 6e 19 18 bd a2 07 a9 3c
       0.032921486 -0.006750263 -0.037133627 0.020633522
0002f0 d2 f8 d3 bc f6 bb 28 3c 57 ed 2f 3d e6 b0 7f 39
       -0.025875483 0.01029872 0.042950954 0.00024384595
000300 e8 4a 04 3c 52 76 4e 3a a7 36 1c bd 96 0b 89 3b
       0.0080745 0.00078759075 -0.038138058 0.0041822894
000310 38 68 06 3d db a2 c5 bb bb 24 2e bd b9 17 08 bd
       0.032814234 -0.006031377 -0.042515498 -0.03322575
000320 ce 01 17 bc 72 d7 80 3c 49 50 d2 3c aa d4 b3 bc
       -0.009216739 0.015727732 0.025673049 -0.021951992
000330 2f 3c 0b 3d 61 0d d2 3c 8a c9 40 bc 73 ef 2e 3d
       0.033992942 0.025641145 -0.011766801 0.042708825
000340 5f 93 0d bd 8e 7c af bc 40 ac f1 ba ef a7 32 bd
       -0.034564372 -0.021421697 -0.0018438175 -0.043617185
000350 fa 3e ec 3c c0 38 e9 3c 0b 01 1a 3b 18 41 ec 3b
       0.028838623 0.028469443 0.0023499157 0.007209908
000360 10 a2 15 3c 46 88 20 3d dd da 29 3d 0c 48 e0 3c
       0.009132877 0.03919246 0.04146849 0.027378105
000370 42 ca 2c bd f4 31 b4 3c d3 2b 6d 3b db ca 14 3d
       -0.042185076 0.021996476 0.0036189451 0.03632627
000380 f1 0f dd bc 38 10 86 3c 32 e7 1d bd e9 01 2f 3c
       -0.02698514 0.016365156 -0.038550563 0.010681608
000390 b6 08 33 bd ab c8 b2 bc 23 ff ee 3b 2f d7 1c 3c
       -0.04370948 -0.021824202 0.0072935983 0.009572788
0003a0 54 a0 96 bc 9e 52 44 3c c1 22 73 bc 53 b5 81 3c
       -0.018386997 0.011982588 -0.014839829 0.015833532
0003b0 e8 64 24 bc 52 a7 9e 3c 20 40 21 bb 1d 55 87 3c
       -0.010033824 0.019366894 -0.0024604872 0.016520077
0003c0 5e 42 83 3b 1c 42 ec bc 0c a0 86 bc f8 00 b0 3c
       0.0040057143 -0.028840117 -0.016433738 0.021484837
0003d0 16 6f f4 ba 32 3e bb 39 ac c6 b5 bb 18 9f 1f 3c
       -0.0018648829 0.0003571376 -0.005547365 0.009742521
0003e0 6a 8c 8b bc 37 40 95 39 85 d3 f3 bc ba f5 0c bd
       -0.017034728 0.00028467338 -0.029763946 -0.03441403
0003f0 97 72 15 3b a0 f6 01 3d 82 5b 02 bd e2 bd 06 3d
       0.0022803897 0.03172934 -0.03182555 0.03289593

fc1.bias f4 [50]
000000 4b bb 63 3c 0c 25 33 3d ef 6b e1 3c e6 d3 65 bc
       0.013899635 0.043736503 0.027517287 -0.014027571
000010 b9 ae 2c bb 0c 50 0b bd de 57 db 3c 50 f6 e7 bc
       -0.002634926 -0.034011886 0.026775297 -0.028315693
000020 85 bd 40 bc 0a fb e7 3c ef 6e 47 bc 97 4c f5 3c
       -0.011763935 0.028317947 -0.012172445 0.029943747
000030 6b 81 bd bb f1 6f a9 bc a4 9b a6 ba be 74 67 bc
       -0.00578325 -0.02068326 -0.001271118 -0.014126955
000040 48 9f 91 3b f6 fb 90 3c 52 b3 27 3d da 1b d2 3c
       0.0044440366 0.01769827 0.040942498 0.025648046
000050 49 a5 5a 3c 74 a8 18 3c 6e 9d 04 3d cc 99 1f bd
       0.013345071 0.009317506 0.0323767 -0.03896503
000060 52 90 10 3d 6a 64 89 3b ab 65 c9 bc 35 a8 af 3c
       0.035293885 0.0041928785 -0.024584612 0.021442512
000070 41 54 a0 ba c2 f0 4f 3c a9 4d 01 bd 96 77 e4 3c
       -0.0012232141 0.0126916785 -0.031568203 0.027889054
000080 ab 06 7a 3b a7 20 eb 3c f9 a4 08 bd f6 d9 2b bd
       0.0038150947 0.028702093 -0.033360455 -0.04195591
000090 65 c5 42 3b 7d 6a 0a 3d 2d f1 11 3d 63 a0 a0 ba
       0.0029719707 0.03379296 0.035630394 -0.001225483
0000a0 4b 9c b7 b9 c1 a6 1b bd 54 b7 9a ba 0d fb 26 bb
       -0.00035020927 -0.038000826 -0.0011803904 -0.0025479228
0000b0 c7 54 8c 3b 88 03 50 3b 67 eb 8f ba 29 19 40 ba
       0.004282567 0.0031740386 -0.001098019 -0.0007327968
0000c0 0e 45 fd 3b 19 4f 99 3c
       0.007729179 0.018714475

fc2.weight f4 [9, 50]
000000 32 a5 73 bd df 24 01 3e 06 70 e4 3d c9 f4 7f bd
       -0.059483714 0.12611721 0.11154179 -0.062489305
000010 ae cd 04 3e f6 36 38 3d 25 53 82 3d 6f 34 45 3b
       0.12969086 0.04497429 0.06363515 0.0030091067
000020 dc 06 a4 bd 5b a4 95 bd a3 dd 06 bd 1c 4d 88 ba
       -0.08009121 -0.07306739 -0.032926213 -0.0010398957
000030 c5 64 cf bd 9d c2 a9 bd f6 82 d8 bd fb 03 e7 3d
       -0.10126642 -0.08289073 -0.10571854 0.11280056
000040 c0 8d 7f bd ae c8 a2 bd 69 4a cf 3d 33 79 c4 bc
       -0.062391043 -0.07948433 0.101216145 -0.023983574
000050 8d c7 3a bd 9b 4e 73 3d b9 a7 a1 3d 20 7d d4 bd
       -0.045600463 0.059401136 0.07893319 -0.10375428
000060 05 31 c4 bc 4b 98 86 bd bf 51 8b bd 80 ef 05 be
       -0.023949156 -0.06572016 -0.06802701 -0.13079643
000070 7a ab 0a 3e 0d 18 3f bb 96 48 e7 3d 83 1c 78 bd
       0.13541976 -0.0029158622 0.112931415 -0.060574066
000080 ee 55 34 bd 89 4f 63 bd 55 71 62 3d d2 f9 14 3d
       -0.04402726 -0.055495773 0.055283863 0.03637106
000090 74 bc f4 bc 14 f6 bc 3d 30 68 f3 3d d3 4c 2c 3d
       -0.029875018 0.09226623 0.118851066 0.042065453
0000a0 71 74 0e 3e 46 8d ac 3d e4 29 ce 3d a6 b3 96 3c
       0.13911606 0.08425383 0.10066584 0.01839621
0000b0 40 91 81 bd 45 f8 e7 3c 7c bf a6 3d 3c a0 40 bd
       -0.06326532 0.028316626 0.081419915 -0.04702781
0000c0 72 d7 0d bd b8 fe f1 bd dc 0c 78 3b 31 3a 0a 3e
       -0.034629293 -0.11816162 0.0037849462 0.13498761
0000d0 b0 ce 3e bd cd 87 b4 bd a6 9e 4a 3d d4 2c 53 3c
       -0.04658383 -0.088149644 0.049467705 0.012889106
0000e0 ca bf a9 bd 78 8e 61 bd 31 75 0e be 83 46 76 3d
       -0.08288534 -0.05506751 -0.13911892 0.06012584
0000f0 61 5a a6 3d f6 5b 8e bd ce 34 6a bd a2 55 22 bd
       0.08122707 -0.06951134 -0.057179265 -0.039632447
000100 32 d0 af 3d 79 2a b8 3d 1a a9 84 3d 25 28 c5 3d
       0.08584632 0.08992476 0.06477566 0.096267976
000110 a8 48 08 be af 59 b9 bd 49 5e 00 bd b7 81 94 bd
       -0.13308966 -0.09050309 -0.031339917 -0.07251304
000120 d3 51 00 be a8 94 66 bd 8d 6b 0e bc 7f 10 4e bc
       -0.12531213 -0.056294113 -0.008692634 -0.012577175
000130 84 25 c3 3d 26 47 a0 3d cd 68 b5 bd 14 8d eb bd
       0.0952864 0.078260705 -0.0885788 -0.11501518
000140 d0 ba ba 3d 33 c5 fa bb 3b 2b 00 3e f7 1c fc bd
       0.09117663 -0.0076529025 0.12516491 -0.12310212
000150 20 35 a5 bd 11 24 a2 bc 5c 7a d1 bc 28 8e 90 3d
       -0.080667734 -0.019792588 -0.02557104 0.07058364
000160 30 ba 08 be 16 c4 d1 3d 21 47 5f bd 6f b5 8b bd
       -0.13352275 0.102424785 -0.054511193 -0.06821715
000170 ba e9 89 3d 83 f8 f0 bc 00 84 f6 bd 86 b6 e7 3d
       0.06734033 -0.029415375 -0.12036896 0.113141105
000180 ff 9a 7f 3d b3 b1 f8 bc 3f a4 08 be 1f 55 58 bd
       0.062403675 -0.030358171 -0.13343905 -0.052815553
000190 02 7c 56 bd 44 03 fc bc bc 70 bb bd 8e 7b 01 be
       -0.052364357 -0.030763276 -0.09152362 -0.12644789
0001a0 5e 65 d3 bd c2 f7 71 bd 9d 7e 03 3e 26 a4 4c bd
       -0.10322069 -0.05907417 0.12841268 -0.04996123
0001b0 be 97 db bd 90 ca cd bc 90 43 ab bc 0a 46 d7 bd
       -0.10722302 -0.025121003 -0.02090624 -0.10511406
0001c0 22 4c a8 3d ea 83 9a 3d 60 85 d8 3c a8 ad 55 3d
       0.08217646 0.07544692 0.026430786 0.052167565
0001d0 76 7e b1 3d f8 39 40 bd b0 83 74 3d f6 87 b5 3d
       0.08666699 -0.046930283 0.0596959 0.08863823
0001e0 a2 25 fa 3d 0e 67 ad 3d a4 05 7d 3d 40 e4 4a bc
       0.12214209 0.08466922 0.061772957 -0.012383521
0001f0 22 6f e0 bd a6 ba a4 3d e2 fe eb 3d 38 f4 a3 3d
       -0.10958697 0.08043413 0.115232244 0.080055654
000200 78 c9 b5 bd 32 65 8b 3d ba 74 b6 bd 3c 84 91 3d
       -0.08876318 0.06806411 -0.089089826 0.071053
000210 3b 5a 05 3e a6 70 c8 3d 50 bd 4f 3c ec 61 c6 bd
       0.13022701 0.09787111 0.012679413 -0.09686646
000220 50 28 07 bd 92 81 48 bd 8c a7 ee bd 90 55 43 3c
       -0.03299743 -0.048951693 -0.11653051 0.011922255
000230 d2 b0 99 3d 00 86 5b bb ea a7 e6 3d 5c 28 a5 3d
       0.07504429 -0.0033496618 0.11262496 0.080643386
000240 77 7f 0b be 80 77 d1 3b b8 77 f3 3c 20 71 f3 bb
       -0.13622843 0.0063924193 0.029720172 -0.007429257
000250 f8 0f bf bd de 91 5d bd 40 d1 7f 3c 26 67 6e bd
       -0.09329218 -0.054094188 0.015613854 -0.05820384
000260 26 34 0b bd 3c 92 e6 bd 1c ef bb 3d e0 7c a2 3b
       -0.03398528 -0.11258361 0.09176466 0.004958734
000270 04 ef c9 3d 90 15 67 bd 2c 1d 8e bc da 47 4a bd
       0.09860042 -0.056417048 -0.017347895 -0.04938493
000280 b0 55 6d bc fc 69 90 bc c8 f6 b9 bc da e2 60 bd
       -0.0144857615 -0.017628662 -0.022700682 -0.054903843
000290 d9 93 04 3e 46 f7 08 be 02 61 9d 3d f3 8c 02 3e
       0.12947024 -0.13375577 0.076845184 0.1274908
0002a0 a0 c3 6a bd 87 b7 8f bd 09 3f 04 3e 32 5a e0 bd
       -0.05731547 -0.07017427 0.12914671 -0.109547034
0002b0 18 05 4c 3d 06 d0 9a 3d 93 a0 e6 bd 78 79 d6 3c
       0.049809545 0.075592086 -0.11261096 0.026180968
0002c0 90 e8 74 bd 80 50 65 3d f4 ba 83 3d 54 9d 46 3d
       -0.0597921 0.055984974 0.06432143 0.048489884
0002d0 e8 ab 7c bd 79 3e cf bd c8 25 b8 bc 62 3b a5 3d
       -0.06168738 -0.101193376 -0.022478953 0.08067967
0002e0 88 eb 0e 3d 4c 53 45 3d fa f0 e7 3d 96 42 97 3d
       0.03489259 0.04817514 0.113252595 0.07385747
0002f0 ae b8 e4 3d 90 87 2c bc d8 0b 6e 3d 0a 33 52 bd
       0.11168037 -0.0105303675 0.058116764 -0.051318206
000300 00 d5 06 bc 14 05 e7 bc a6 fc a1 3d e2 28 dd 3d
       -0.008229494 -0.028200664 0.07909517 0.107988134
000310 4a d8 b6 bd 80 42 33 3c 48 0a ab bc 7a c7 0b bd
       -0.089279726 0.010941148 -0.020878926 -0.034125783
000320 dd 39 81 3d 2d 98 1b bc 50 ba 70 3d fd 35 2a 3d
       0.06309865 -0.009496731 0.05877143 0.041555393
000330 4b 3b 0b bc cc e6 1a 3d 8f 0d ee 3d 4d ca 7a 3d
       -0.008498023 0.03781776 0.1162368 0.061228085
000340 60 82 76 bd 1d 1a 23 3d 67 a3 ac 3d ba 5f 46 3c
       -0.06018293 0.039819825 0.08429604 0.012107784
000350 0d 05 81 3c 05 07 f0 3c f5 83 9b 3d 83 fd e9 3d
       0.015749479 0.029300222 0.07593528 0.11425307
000360 1e c8 0f 3d ba a1 bd 3c 02 36 f8 3b cc 75 6b bd
       0.035102956 0.023148406 0.0075747976 -0.057485387
000370 75 36 10 3c dc 68 bd bc d7 2a e1 3d 51 e5 08 be
       0.008802046 -0.02312129 0.10994499 -0.13368727
000380 fd 48 13 3d ab 76 18 bb 00 47 15 3a 45 21 91 bc
       0.03595828 -0.002326409 0.0005694479 -0.01771606
000390 e4 59 fd bd 02 b5 48 3d 66 eb eb 3d 77 13 ce 3d
       -0.12370661 0.049000748 0.11519508 0.100623064
0003a0 d0 40 e2 3d 45 29 0c bd ae 65 7f bd 48 5a d5 3d
       0.11047518 -0.034219045 -0.06235283 0.104176104
0003b0 53 b9 65 bd cb 3b 0d be f4 f5 de 3d 45 8b 0d 3e
       -0.056084942 -0.1379234 0.108867556 0.13822658
0003c0 de 1c 33 bc 54 db ac bc ce 72 c5 3d 0e e5 c8 3d
       -0.010932175 -0.021100678 0.09641038 0.09809314
0003d0 3d 79 71 bc 4c ce 76 3c 32 5b c7 bd 5f d0 0b be
       -0.014738378 0.015063833 -0.09734191 -0.13653706
0003e0 d5 d0 bf bd 39 27 f1 3d 6e d1 d9 3d 63 46 fc bd
       -0.093660034 0.11775059 0.10635649 -0.12318113
0003f0 4a 6b df bd 5e 0e 0c 3e 4a 6c d3 bd 8a 1e 48 bd
       -0.10909136 0.13677356 -0.10323389 -0.04885725

fc2.bias f4 [9]
000000 73 17 aa 3d 92 d2 4f 3d 46 09 00 be 38 10 06 be
       0.08305254 0.050737925 -0.12503538 -0.13092124
000010 9d 82 a0 bd 65 29 87 bd 03 71 82 3c c2 b1 9e 3d
       -0.078374125 -0.06599692 0.015923029 0.07748748
000020 e4 fc c1 bd
       -0.09472063
